bs/PGPolicy.pt (torch, 5331 bytes, 4 tensors)

fc1.weight f4 [128, 4]
00000000: 3dae 463e 2c45 76be 3d49 13be a5be 333e
00000010: 4455 a9be 1b39 f13e 7dea ac3e 7906 e23e
00000020: 5abe d23d 8443 8bbd 536a 9abe 75cc 71be
00000030: 5618 5a3e 88db 99be d90e 52be 6f4f 83bd
00000040: c9fb af3d 4d2b fc3a febf 043f 7189 6c3e
00000050: 53f4 14be a6aa 5cbe 65fc af3c f461 28be
00000060: 2b52 b9bd bc6b 693d 1ec2 8c3e cc5f 7f3e
00000070: 7985 c0be b13e f33e 12a0 063f e637 1e3f
00000080: e2e0 8b3e 9c88 e2be d7ec e7be 3cba 65be
00000090: d62c ab3e 2f99 4dbe 6a05 833c 4ba9 8ebe
000000a0: 8d59 fb3e a29e 9abd 840b 603f a6e5 b53e
000000b0: 71bf 4fbe 797b 713e 2004 98be 9559 233e
000000c0: 24f5 aabd c1c5 b7bc 0196 eebe 6010 35be
000000d0: e99d 963e 1759 d7bd c7dd 2c3f 908d 0e3f
000000e0: a06f 11bd 5073 63be fc98 433f f791 e43e
000000f0: 5542 8fbe 604b cf3e 6dbd 473f 0833 303f
00000100: 5582 89be e751 e1bd 8343 9ebe e168 81bd
00000110: d5e7 c0be d432 c4be a27d 653d 6c50 4dbe
00000120: 5aa9 753e 4962 a03b 9cd1 34be 4df7 8fbd
00000130: 0b66 123e 582f 113e abac 4bbf 3e05 0c3e
00000140: 6ce6 b3be 30c5 bcbe d70e a73e f87e d83d
00000150: f029 403e 9d8e ecbe bc1e 79bf c713 c53d
00000160: 5d5d debd cfe5 513e 97cb 27be bd85 10bf
00000170: 405b 4d3d 5dad 6e3d e521 9fbe 13ff 4ebe
00000180: 8505 5f3d 131b c0bd ba95 34bf 734e e6be
00000190: c417 ad3e ce55 02be e56c 113f dd2b d03e
000001a0: 7f51 9bbe 37dd cabe 22b8 2b3e e42c 3bbe
000001b0: 999f 7b3e f872 be3d aabc 353f 3b1b 383f
000001c0: d650 c93e 351f 7ebe 7632 f63e 14f7 243f
000001d0: 42b1 973e 235d 4d3e 1f44 0ebf 066e b3be
000001e0: d2d3 7fbe c366 f53d 13a6 d73e cd73 b6be
000001f0: c27e 793e d1e8 c5be db1d 54bf b3d1 abbe
00000200: 9183 783e 4f01 fc3e d38c a63d 778d a03e
00000210: 5089 a33e 61db 7d3e 88ce 373f 3c61 1e3f
00000220: d4f1 a73e 9798 9d3d a114 e9be 0947 d0be
00000230: 7a31 2dbe 3ed5 023d 99f5 16be edce 6b3e
00000240: 0a1d cd3d 9170 2cbe d3b0 5e3e 5882 0c3e
00000250: b4ed 493e 16c7 883e 619f 8e3e 1ad7 543f
00000260: 77b4 843c 6d2a a7bc 2b42 6cbf 2f17 09bf
00000270: e2ce 5cbe 8601 02be 65be 043f ff35 dabd
00000280: f94b b0be e8f2 6d3e 4ee9 ce3e 86fd b23e
00000290: 1548 9ebe 1622 a43d 5e21 d9be e909 66be
000002a0: 58ea a7be 8d6e 4fbe cadb e4bc 7092 a83e
000002b0: 1216 d03d bc93 523e 1381 783f 9140 3b3f
000002c0: abcd f83d 7b15 f9bd 34fc 48be fced f43e
000002d0: 7f09 99bd cf04 d73b 32d5 bfbe bdd6 8cbd
000002e0: 00ec c1be 7561 e43e 1506 41bf 2f74 f7be
000002f0: 14e2 da3b e659 81be 8082 743e 9d6b 09be
00000300: b710 5fbe 5c1d c83b 811b de3e c31e 7dbe
00000310: f298 283e f4ca a53e 5b95 4b3f aecd 33be
00000320: 3ecd 4a3e ae5b c8be a80d 3c3d 2b65 d1be
00000330: 1c7f 323e b262 60bd 823d 783c 6eea bb3c
00000340: 7993 223e 0229 b13e d974 fa3e 6e16 da3e
00000350: faf8 91be e44d 0d3f 7bc1 673f d930 2a3f
00000360: efd6 ad3e adf7 c8be 00d5 98be 66d3 d23e
00000370: d3e8 98be bd8c e83e c0a2 b3be 1e7b 9cbe
00000380: f07c 593e a00f 9abe 3d3d 8d3e 7743 1f3f
00000390: e695 d13e 1432 c83e 3ce5 15bf 80da 36bf
000003a0: 4dc1 923e d1a0 a0be fe36 3dbf e59f 18be
000003b0: 4b58 bcbe 79b1 7d3e 8f01 94bc 764a 0dbf
000003c0: 9fbf c5be 3705 2fbc cec8 d93e 8922 0b3e
000003d0: aa42 81be 71fd a23c fb24 15bf 3d2f d9be
000003e0: b53c b2be c9f6 c23e 4906 2a3f d2ba bfbd
000003f0: 1e8b 9cbc d490 023e b1a0 11be 3d27 bcbe
0.19402404 -0.24049824 -0.14383407 0.17553194 -0.33072865 0.4711388 0.3377265 0.44145563
0.10290213 -0.06799987 -0.30159244 -0.2361315 0.21298346 -0.30050302 -0.20513476 -0.06411635
0.08592946 0.0019238979 0.51855457 0.23099305 -0.14546327 -0.21549472 0.021482656 -0.16443616
-0.090488754 0.05698751 0.2749185 0.24938887 -0.37601832 0.47508767 0.52588 0.61804044
0.2732001 -0.4424485 -0.45297882 -0.22434324 0.33432645 -0.20077966 0.015993793 -0.27863535
0.4909176 -0.07549788 0.8751757 0.3552677 -0.20287873 0.23582257 -0.29690647 0.15952142
-0.08347538 -0.022433164 -0.4659882 -0.17682028 0.2941735 -0.105150394 0.67525905 0.5568476
-0.035506845 -0.22211957 0.7640531 0.44642612 -0.27980295 0.40487194 0.78023416 0.6882787
-0.26857248 -0.1100195 -0.30910882 -0.06318832 -0.37676874 -0.3832003 0.056028016 -0.2005021
0.23990384 0.004894529 -0.17658085 -0.07029591 0.14296739 0.14178216 -0.79560345 0.13673875
-0.35136735 -0.36869192 0.3262851 0.10571092 0.18765998 -0.46202555 -0.9731252 0.09622913
-0.108576514 0.20497821 -0.16386257 -0.5645407 0.05013585 0.0582708 -0.31080547 -0.2021449
0.054448623 -0.09380164 -0.70540965 -0.44981727 0.33807194 -0.12728044 0.56806785 0.40658465
-0.30335614 -0.396219 0.1676946 -0.18278843 0.245726 0.09299272 0.70991004 0.7191655
0.39319485 -0.24816592 0.48085374 0.6443951 0.29627424 0.2005506 -0.55572695 -0.3504488
-0.24983147 0.11982491 0.42118892 -0.35635224 0.2436476 -0.38654187 -0.82858056 -0.33558425
0.24268939 0.49219748 0.08132329 0.3135793 0.319407 0.24790718 0.71799517 0.6186712
0.32801688 0.0769512 -0.4552355 -0.40679196 -0.16913405 0.031941645 -0.14742126 0.23028155
0.100153044 -0.16839816 0.2174714 0.13721597 0.19719583 0.2671439 0.2785597 0.8314072
0.016199334 -0.020405972 -0.92288464 -0.53551 -0.21563295 -0.12695894 0.5185302 -0.1065483
-0.34432963 0.23237193 0.40412372 0.34959048 -0.3091437 0.08014314 -0.4240827 -0.22464718
-0.32795978 -0.20257016 -0.027936835 0.32924223 0.101604596 0.20564169 0.9707195 0.73145396
0.12148603 -0.121623 -0.19627458 0.47837818 -0.07472514 0.0065618525 -0.37467343 -0.068768956
-0.37875366 0.44605604 -0.75399905 -0.4833083 0.0066797826 -0.252639 0.23877907 -0.13419957
-0.2178372 0.0061070155 0.4338036 -0.24718766 0.16464594 0.32381403 0.79524773 -0.1755893
0.19804856 -0.39132446 0.04591146 -0.40897498 0.17431301 -0.054781623 0.015151383 0.022938933
0.15876569 0.346016 0.48917273 0.42595237 -0.28510267 0.55196977 0.905296 0.66480786
0.33953044 -0.39251462 -0.29850006 0.4117691 -0.2986513 0.45419875 -0.35085106 -0.3056268
0.21239066 -0.30090046 0.27585784 0.6221232 0.40934676 0.39100707 -0.5855291 -0.71427155
0.28663102 -0.31372693 -0.73912036 -0.14904745 -0.36786112 0.24774732 -0.01806715 -0.55191743
-0.38622758 -0.010682396 0.42536014 0.13587393 -0.25246173 0.01989624 -0.5825955 -0.42418852
-0.3481194 0.38078907 0.6641584 -0.09361805 -0.019109305 0.1275056 -0.14221455 -0.36748686

fc1.bias f4 [128]
00000000: 3528 edbe 4ccb 9d3e a8a3 a33e 27c2 eebe
00000010: a9ec c2be c29c cebe e7af 98be 3485 6a3e
00000020: 79f6 0abf 8bff f7be 53b9 923e 4856 8cbe
00000030: 9a74 9ebe c8ab a7be ccce 813e 0dfb b43e
00000040: be83 41be 8ca0 a9be c567 333d 359d f33d
00000050: 77e8 e93d 5227 0d3e 0c14 f2bb ed1c ddbe
00000060: 795f 873e 152d 8fbc b016 a9be 3793 fa3e
00000070: 59bb 953e e32b fbbe caca 8fbe d57a 3dbc
00000080: bd59 a5be baad 793e 4578 c5be bed8 bf3e
00000090: 26b3 89be 763d 703e 2b7a 5a3e 8974 a7be
000000a0: 77f8 ca3e 4032 82be 3706 9cbe 0d2f 343e
000000b0: 5027 a03e 796b 89be 4761 49be 093c b4be
000000c0: fda2 9fbe 1e41 5fbe 5a4c a73d dd40 cdbe
000000d0: c7c8 8c3e 863a b93e 31d5 b2be eb9f c0be
000000e0: fc56 a53d 56cf 05bd 74b8 c13e b3c1 963c
000000f0: 4165 d5be 85e1 afbe f085 6dbe 4d01 38be
00000100: 95b3 59bd 142d 21be d48a c63e 07cb 5dbe
00000110: 88bf be3e bb78 043c 2dd8 723d 3a50 c13e
00000120: ed44 7e3e 221d b3be 6aa6 8ebd 1427 5a3e
00000130: bd15 883e 7adb fc3e dadc 953d b1f7 dc3e
00000140: d7ff ef3e 09ea 903d 741a 7cbe b4d9 f43e
00000150: 95bc 893d 6499 55be 9f3f 8a3e e5a6 b73e
00000160: b17f 753e e096 97bd 56c9 053f c5bc 8e3e
00000170: c4f0 99be c2c7 8bbe 5425 b23e f6fe e93e
00000180: fd25 97be ee1f 9b3e 5383 9939 ecda b7bc
00000190: a3fc 20be 8953 143d 3a58 603d 201b 943e
000001a0: 7add 173e e111 883e 28ce 033f eccd 123e
000001b0: f9ee 623e c31e b13c f81d 913e aff6 c0bb
000001c0: 7bd6 843e 27a1 db3e 863b 1fbe fb94 5e3e
000001d0: a476 433d 3f40 ef3e 4fad ee3e d2cc 83be
000001e0: 242e de3c a910 83be 3738 20be 6d7a d2bd
000001f0: 3561 debd c195 98be 9ee4 90be ffcd 81be
-0.46319738 0.30819166 0.31960797 -0.466325 -0.38071182 -0.40353972 -0.29821703 0.22902375
-0.5428234 -0.4843715 0.28657016 -0.27409577 -0.30948335 -0.32748246 0.25353086 0.35347787
-0.18897912 -0.331303 0.043800134 0.11895219 0.11421292 0.13784531 -0.0073876437 -0.4318613
0.26440027 -0.017477551 -0.33025122 0.4894044 0.29244497 -0.4905692 -0.28084403 -0.01156493
-0.32295027 0.24382678 -0.3856832 0.3747005 -0.26894492 0.23460945 0.21335666 -0.32706097
0.3964269 -0.25428963 -0.30473492 0.17596073 0.31279993 -0.26839808 -0.19666015 -0.35202053
-0.31179038 -0.21802184 0.0816886 -0.4008855 0.2749693 0.36177462 -0.34928277 -0.37622008
0.080732316 -0.032668434 0.3783604 0.01840291 -0.41678813 -0.34351745 -0.23195624 -0.17969246
-0.05314978 -0.15739852 0.38777792 -0.2165948 0.37255502 0.008085425 0.059288193 0.3775652
0.2483098 -0.34983164 -0.06965335 0.2130397 0.26579085 0.49386197 0.07317515 0.43157724
0.46874878 0.07075889 -0.24619466 0.47822344 0.06725422 -0.20859295 0.27001664 0.35869518
0.23974492 -0.07401824 0.5226034 0.27878395 -0.30066502 -0.2730084 0.34794104 0.45702332
-0.2952117 0.30297798 0.00029280278 -0.022443257 -0.15721373 0.036212478 0.05477164 0.28926945
0.1483058 0.2657614 0.51486444 0.14336365 0.22161473 0.021621114 0.28343177 -0.005888782
0.25944886 0.42896387 -0.1555005 0.21736519 0.047720566 0.46728703 0.466166 -0.25742203
0.027121611 -0.25598648 -0.15646444 -0.10277257 -0.108583845 -0.29801753 -0.2829942 -0.25352475

fc2.weight f4 [2, 128]
00000000: ad99 fbbc 11fb 93bd 70a7 083e 229e 253e
00000010: 3946 983d 5452 813d 0fb9 783c 55dc 15be
00000020: 4c33 6dbc 3fdb 0cbd 2c97 3cbe 4df2 88bc
00000030: 64af 41bd cc3b dcbd fa8e 31be b59e aabe
00000040: 2819 e4ba 9d2b d13d e29d 8abb 1983 7ebd
00000050: a3b1 23bd 957f 063e b31c 5c3c 9733 2bbd
00000060: 8ba1 003e a098 abbb 102e 1c3e 53bf 51be
00000070: 161c 0fbe 0eb7 f2bc 43d7 d8ba 89e4 3c3e
00000080: aed1 e2bd e8bf 11bd 4567 c83d 4813 573d
00000090: fb17 88bd 2ef6 f9bd fec7 833e c005 8fbc
000000a0: 5b6c e8bd 0c60 153e f5dd 80bd bbc8 63be
000000b0: c49f 3b3d bb91 29bd b9ea d13d 4eaf e63b
000000c0: 49ac 423c e0fc 7ebd eade 623e 8d1e 9fbc
000000d0: a7d0 93be ab6e b4be c6ce 38bd c10a 6cbc
000000e0: 5156 9dbd 3a2e 403d 912b 2e3d 36b9 dc3d
000000f0: 7948 bcbd 0f93 973c dd7b 25bd 47ce a73d
00000100: 6607 d83c a933 ebbd c59d ab3e 78f7 013e
00000110: 2ed7 223e db82 c3bd 7bad 81be 5626 c7bc
00000120: 9d6d 7b3e 66b5 aa3c f172 c63d 0779 643c
00000130: d52b e0bd e6a0 243e 0486 bb3d 77dd 97be
00000140: 8708 c03e c15c a53d 6a90 0ebd 5628 393d
00000150: ce5a 1ebc f1e2 1a3d b297 933e 371b 3e3c
00000160: 8b27 0bbc 19fc 8abc b0ad 0f3e a2d4 883e
00000170: 3bca 143d 6433 54be 53d8 c23d c3e8 163d
00000180: 760f e6bc 0519 75be 6c4b 96bd 8717 34be
00000190: 9496 59bd 1032 e5bc 9e05 5e3b f80f 5abd
000001a0: 509c f53c 0b12 e2bd 6dfc 4f3e 1d03 5a3e
000001b0: 9552 3a3e 0af0 27be 3692 283c ff57 d2ba
000001c0: da19 7abd 5681 0fbe b937 e43c 58a0 b73d
000001d0: f6d1 563e c9c7 473e cf49 49be 8b6a f93c
000001e0: 77a0 edbd a84c 8bbd 559e 143e e6e1 d5bd
000001f0: 3882 91b8 494b 2f3d 65b3 123e 1284 fd3d
00000200: 0ba7 123c 7496 a23d 16e2 0abe 791c 9fbd
00000210: 5ffe c9bd 9863 fc3c c7d6 1e3a f310 4b3e
00000220: 8632 4ebd 59b1 24bd 36fb 853d 3ae4 743b
00000230: fa05 8cbd 825a a53d a761 db3d baf9 913e
00000240: eea8 dbbd ddf3 90bd 74d5 a2bd 3a51 d13c
00000250: 5ff6 d63c fd2f a3bc f691 efbd a27b 5dbd
00000260: 55f7 6bbd cdee e93c 6855 1f3c 4920 2a3e
00000270: e9ab f53d 40ba 8bbd 36c6 173d 4dae 7dbe
00000280: 44a4 493d d8c3 083e e887 44bd f8fc 893d
00000290: fe35 96bc 122b 443d fc33 37be ec5d 3c3d
000002a0: af5b c13d 49e1 f0bd 0e44 643c 91bd 053e
000002b0: 6bc5 0cbb 7777 44bd 4e3b c9bd 08b2 673b
000002c0: fc33 463c 18a1 a33d c88a 0fbe a00c 21bd
000002d0: b7a4 943e 118c cc3e 6e2f 46bd 0c0e 00bd
000002e0: 8880 fb3d 8d31 f3bd b25f d9ba a80b 88bd
000002f0: 765a d7bc 65a9 c6bd e9cd 1e3d be3b 0e3d
00000300: e4f3 b9bc 0682 18bb 7c3a 6fbe ac09 8fbd
00000310: e18d 71bc 6da9 6bbd 5d61 5b3e 4873 9b3d
00000320: 4908 07be 279d e2bd a678 65be 855e 5dbc
00000330: f70c fc3d 8b82 4dbe be7f 1ebe 468d 783e
00000340: 5068 a8be e5aa fe3c 31f2 00bd ae9b 0ebe
00000350: 8bac 8dbc bec6 033c 821d 9ebe f60e 93bc
00000360: c1cb 73bd f031 b1bd 79a9 dbbd 8ac4 84be
00000370: ee40 163c 685a 0a3e 8aee bcbd a5c7 8f3d
00000380: cecc 603d dacd 5f3e cd8f 9b3d dd7b 833d
00000390: 1fe7 a8bb 3777 ae3c b467 55bd f5a4 c33d
000003a0: b132 b8bd d3bf 2e3e b5df 0cbe 3070 31be
000003b0: 9b7b 4dbe 007e 283e acd0 2abc 510b 12bb
000003c0: b34b a13d dc93 833c 727f 01bd 1271 313d
000003d0: cef3 96bd c420 46be e9cd 543e b270 733c
000003e0: c597 513d 4703 613d 0469 dfbc e7cf cb3d
000003f0: 8810 d13c 1e5c 603c 4c5c 6bbe 6a1f 1cbe
-0.030712927 -0.072256215 0.13345122 0.16173604 0.07435269 0.06314531 0.01518084 -0.14634831
-0.014477562 -0.034388777 -0.18417042 -0.0167171 -0.047286406 -0.10753593 -0.17339697 -0.3332421
-0.0017402517 0.10213397 -0.004230247 -0.062136743 -0.03996433 0.13134606 0.013434577 -0.041797247
0.12561624 -0.0052367 0.15251946 -0.2048314 -0.13975558 -0.029628303 -0.0016543645 0.18446554
-0.110751495 -0.035583407 0.09785322 0.052508622 -0.06645199 -0.12205158 0.2573852 -0.017458797
-0.11348792 0.1458742 -0.06292335 -0.22244541 0.04580666 -0.041398745 0.10249848 0.007039941
0.011881896 -0.06225288 0.22155347 -0.019423747 -0.28870127 -0.35240683 -0.04511907 -0.014406861
-0.07682479 0.046919085 0.042522017 0.10777514 -0.091935106 0.01850274 -0.04040133 0.08193641
0.026370715 -0.11484463 0.33518806 0.12692058 0.15902397 -0.09546443 -0.25327668 -0.024310272
0.24553533 0.02083845 0.09689892 0.013944871 -0.1094586 0.16077003 0.09156421 -0.29661152
0.37506506 0.08074332 -0.034805693 0.045204483 -0.009665204 0.037814084 0.28826672 0.011603168
-0.0084933145 -0.016965913 0.140311 0.26724726 0.036325675 -0.20722729 0.09513917 0.036843073
-0.028083544 -0.23935325 -0.07338604 -0.175871 -0.053122118 -0.027977973 0.003387786 -0.053237885
0.029981762 -0.11038598 0.20311137 0.2129025 0.18195565 -0.16400161 0.010288766 -0.0016047953
-0.06105981 -0.14014181 0.027858602 0.0896613 0.20978531 0.19509806 -0.19657062 0.030446311
-0.11602872 -0.068017304 0.14513524 -0.10443477 -6.938394e-05 0.042796407 0.14326246 0.12378706
0.008950959 0.07938853 -0.13562807 -0.077691026 -0.098629706 0.030809209 0.0006059226 0.19830684
-0.05034115 -0.040208194 0.06542055 0.003736748 -0.068370774 0.080739036 0.10711985 0.2851084
-0.1072558 -0.07077763 -0.07950869 0.025551427 0.026240526 -0.019920344 -0.11697762 -0.054072984
-0.05760892 0.028556252 0.009724952 0.16613878 0.1199568 -0.06822634 0.037054263 -0.24773522
0.04922892 0.13355958 -0.047981173 0.06737703 -0.018336292 0.047892638 -0.17890924 0.04598801
0.094413154 -0.1176172 0.013932241 0.13060595 -0.0021479975 -0.047965493 -0.098257646 0.0035353918
0.012097355 0.079897106 -0.14017785 -0.03931868 0.29031917 0.39950612 -0.048385076 -0.031263396
0.12280375 -0.118746854 -0.0016584306 -0.06642848 -0.026288252 -0.09700278 0.03877059 0.034724943
-0.022699304 -0.002327086 -0.23362154 -0.06984267 -0.014743299 -0.057534624 0.2142386 0.075903475
-0.13186754 -0.11065131 -0.22409305 -0.013511305 0.1230716 -0.2006933 -0.15478417 0.24272642
-0.32892084 0.031087348 -0.03148097 -0.13926575 -0.017294189 0.008042989 -0.30881888 -0.01795147
-0.059520487 -0.08652103 -0.10725684 -0.25931197 0.009170754 0.1351105 -0.09225185 0.07020501
0.054882817 0.2185587 0.07595787 0.064201094 -0.005154505 0.02129708 -0.052100852 0.095529474
-0.089940436 0.17065363 -0.13757212 -0.17327952 -0.20066683 0.16454315 -0.010425728 -0.0022284577
0.078757666 0.016061716 -0.031615682 0.043320723 -0.07370721 -0.19348437 0.20781673 0.014858412
0.05117013 0.054934766 -0.027271755 0.099517636 0.025520578 0.013693837 -0.22984427 -0.15246359

fc2.bias f4 [2]
00000000: 6165 7cbb 11fb 0d3d
-0.0038512575 0.034663264
