bs/game/checkpoints/Reinforce_discrete/Reinforce_policy_1800.pth (torch_old, 73748 bytes, 6 tensors)

fc1.weight f4 [128, 8]
00000000: d018 72be 28b3 8b3e 6f74 81be eb4e b43e
00000010: 291f 94be f5fe 973e 2c7e 4a3d 42dd 3e3c
00000020: 0db4 1e3e fb4a d3bd 9a42 4e3e 208a 983e
00000030: 20ce 96be 529d e2bd 67eb 2f3e b749 be3d
00000040: 4385 bbbe c0ee 95be 8ca0 443c d8eb 8c3c
00000050: 3964 abbe edfc ea3d 0966 d5bd b00b afbc
00000060: 03cb 7e3e 6873 8b3c fe9c c53d 25af adbe
00000070: d742 7fbd eab1 ab3e 49e6 a93c 9d10 ed3d
00000080: 5c44 75be 749a b3bd 1ebd e9bd e364 92be
00000090: 384f f2bd 3a97 7c3d 2e51 aebe fa4d a0be
000000a0: b8f7 66be 7a04 90be c436 cb3d c69c 8bbe
000000b0: c9f8 54bc c61b 1a3d b105 023e 6f72 2ebd
000000c0: d3c4 3ebe b08a 8ebd 9f9f 07be 357f b53e
000000d0: 7391 9abe 9d3e bb3d 2e15 7f3d dd6a b3be
000000e0: 2c95 aa3e 04ce c23c 3d7b c03e bd41 5f3e
000000f0: cb5a c9be f858 82be 0ad1 af3e 113f 3ebe
00000100: 121a 8abe 1088 0b3e 2589 9f3e c5b0 b2bd
00000110: a656 a3be ae07 a73d 300f dcbc f960 0bbe
00000120: f62d 223e 5ef4 e1bd 7319 5dbe b6ce d13d
00000130: 053f 6f3e 8151 c93d bc3e a3be bf22 b83c
00000140: 0fa6 d63d 6b10 a1bd 37d0 18be e24b 193e
00000150: 317d d03d f661 a3be fc2e bb3d 918e 463e
00000160: 95b2 2b3d ce1e 69be 9728 4dbd 5261 103e
00000170: 91f6 af3e 94bc 7a3c 8ca3 aebe da0e c83d
00000180: d933 83be e7f5 20be d970 fcbd 8622 81be
00000190: a2e6 d7be 04bd a6bd 9167 7f3d 48b1 723d
000001a0: a998 84be d55b 983e 487c 9d3e b0cc 263d
000001b0: 52dd b5be a08a 2d3e 7843 17be b84d cb3e
000001c0: 9c74 85bd 7582 5dbe 126b 73be 7747 913e
000001d0: ce29 e3bd 17cd 7d3e 9d3b 1fbe b1e1 cc3c
000001e0: f5df 36be 038d 90be d81d 74be 1a65 573c
000001f0: 1735 343d ccc5 323d 8276 1d3d e2d2 363d
00000200: c1ca a4be 289b a9bd 7f74 303b 17e2 8f3e
00000210: 34fc 33be 32c4 2c3e 54e4 573e fc01 27be
00000220: 21cd 0fbd bd93 c1bc 6dc3 22be e917 13be
00000230: 9c4b 83be 0766 9a3d 7937 1a3e 870e 29bd
00000240: e8a4 4b3e ac2b 98be 91e5 a3be 961e 923e
00000250: 2b6a 983e 588a d43d 3ff6 423e 0649 97be
00000260: 0e21 a3be 8a3e 7dbe a007 c3bd 03cf 98be
00000270: 6e5b 85be 91df 0bbe 78fc 0bbd 444b a6be
00000280: 014c f5bd 8500 373e b7c3 353d e290 933e
00000290: 32ba a33d ccf2 623e 7a86 9abe a89a 3abe
000002a0: bb0e a6bd b656 73be 3544 7cbd 8655 7fbc
000002b0: c07a b7be c1f2 92bd 28c8 0e3d 2ca8 803e
000002c0: 42f7 c6bd 0307 56bd c43b 66be 7ed5 8d3e
000002d0: 8ff5 193e d24a bdbd 6fbb 6e3e c8f3 673e
000002e0: 78b3 f1bd a04f 3f3e 058e ccbd e59c 89bd
000002f0: b35f 45be 5888 8c3e 73bb 943c 5af9 2d3e
00000300: 0bc6 19bd 06e0 173e 6a7a 763e 34c7 bdbe
00000310: 9550 083e a020 83be a57c 4ebe 0be7 50be
00000320: cffb a83e ca82 95be 9b74 973d 5d73 f6bd
00000330: 1422 21bd 3127 3e3e 3895 aa3e 9b2c 693e
00000340: a1d8 8bbe bb11 983e 921e 80bc 5deb 5d3d
00000350: 37fb 8b3e ce57 c2bc 4b1b 9c3e 4e5c afbe
00000360: 38ac c5bd 524e 283e 59f1 0cbe 1237 1ebe
00000370: 2115 fbbc c6f7 c0be 4346 4b3e 5912 b83e
00000380: e5c3 063c 6265 f0bd 99f1 a4bd 6f06 04be
00000390: e253 633e 0099 5ebd 362a 183c abb0 113e
000003a0: e50e 89be ecb7 95be af43 ef3d 8c11 983e
000003b0: 24ed 213e 5b61 fc3d 8794 2e3e 80e8 6e3e
000003c0: 39bf 9ebe 9342 91be d040 c93d 92a1 b73e
000003d0: 586e 883d 6f32 c83b 0dc8 b83d a3a6 6dbe
000003e0: 1c9d 67be 015e 68be 80a8 ad3e b947 c93c
000003f0: 1fb7 d33c b05f 853e 2584 713e 3fb0 16be
-0.23642278 0.27285123 -0.25284144 0.3521646 -0.28930023 0.29686704 0.049436733 0.011649432
0.15498371 -0.10317036 0.20142594 0.2979288 -0.29454136 -0.11065163 0.17179643 0.09291404
-0.36625108 -0.29283714 0.012001168 0.017202303 -0.334749 0.11474023 -0.10419852 -0.021367878
0.2488213 0.017022803 0.096490845 -0.33922687 -0.062319603 0.33534175 0.020739691 0.11575434
-0.23951858 -0.08769694 -0.11413024 -0.28592595 -0.11831516 0.06166766 -0.3404631 -0.3130949
-0.22555435 -0.28128415 0.09922555 -0.27268046 -0.012998768 0.037624143 0.12697484 -0.0425896
-0.1862977 -0.06960046 -0.13244484 0.35448614 -0.30189094 0.09142802 0.062276058 -0.35042468
0.33316934 0.023779877 0.37594023 0.21802421 -0.39327082 -0.25458503 0.34339172 -0.18578745
-0.26973015 0.13626122 0.3115932 -0.08725122 -0.31902045 0.08155762 -0.02686271 -0.13611211
0.15837845 -0.110329375 -0.2159174 0.10244505 0.23363884 0.09829999 -0.318838 0.022477506
0.10480892 -0.078644596 -0.14923178 0.14970353 0.10180128 -0.31910676 0.09139821 0.19390322
0.041918356 -0.22765657 -0.050087538 0.14099625 0.34367803 0.01530375 -0.3410915 0.09768458
-0.25625494 -0.15718804 -0.123262115 -0.25221652 -0.42168146 -0.081415206 0.062354628 0.0592511
-0.2589772 0.29757562 0.30758882 0.04072255 -0.35520416 0.16947412 -0.14771831 0.39707732
-0.06516382 -0.21631797 -0.23771313 0.28374836 -0.11091958 0.24785267 -0.15550084 0.025009962
-0.1785887 -0.28232583 -0.2383951 0.013146663 0.043995943 0.043645665 0.038443096 0.044634707
-0.3218594 -0.08281547 0.0026924906 0.2810218 -0.17576677 0.16871718 0.21083194 -0.1630935
-0.035107736 -0.023630017 -0.15894862 -0.1436459 -0.25643623 0.075389914 0.15060224 -0.04127362
0.19887125 -0.2972082 -0.32011083 0.2853896 0.297685 0.103779495 0.19039248 -0.295479
-0.31861156 -0.24730888 -0.09522939 -0.29845437 -0.26046318 -0.13659503 -0.03417632 -0.32479298
-0.11977387 0.17871292 0.0443761 0.28821474 0.07994498 0.22162932 -0.30180722 -0.18223059
-0.08108278 -0.23763546 -0.061588485 -0.015584355 -0.35835838 -0.07175208 0.034858853 0.25128305
-0.097151294 -0.05225278 -0.22483736 0.27701944 0.1503508 -0.092427865 0.23313688 0.22651589
-0.11801809 0.18682718 -0.099880256 -0.067193784 -0.19274788 0.27447772 0.018155789 0.16989651
-0.037542384 0.14831552 0.24070135 -0.37066042 0.1331199 -0.25610828 -0.20164736 -0.20400636
0.33004615 -0.29201347 0.073952876 -0.120337225 -0.03933914 0.18569638 0.3331697 0.22770922
-0.27313712 0.29701027 -0.015639577 0.054179538 0.273401 -0.02372351 0.30489573 -0.3425011
-0.09651989 0.16436127 -0.13763942 -0.15450695 -0.030649723 -0.37689036 0.19851021 0.35951498
0.008225416 -0.11738087 -0.080538936 -0.12893079 0.22199968 -0.05434513 0.009287408 0.1422755
-0.26769176 -0.29241884 0.116828315 0.29700887 0.15813118 0.123232566 0.17048846 0.23330879
-0.31005266 -0.28371105 0.09826815 0.35865456 0.066616714 0.006109528 0.09022532 -0.23208098
-0.22618526 -0.2269211 0.33917618 0.024570333 0.025844155 0.26049566 0.23585565 -0.1471567

fc1.bias f4 [128]
00000000: dc0e 0c3e 8b1a e73d 9c04 0dbe 7f9a 95be
00000010: 99d1 9b3d ce45 54be 599c d93c 4de4 bd3d
00000020: faea 043e 48a1 a8be 3dc2 96be 6e5a 0ebd
00000030: c640 ab3e aaf7 3b3e fb65 6c3e 6eb5 96be
00000040: d280 1bbe f99e 563e 75b5 763e 46b3 34be
00000050: 08a7 b0be bbb5 203e 50d2 7ebe 747f 713e
00000060: e71e 95be a701 0fbe 11bc 89be eaca 62bd
00000070: 4cb8 453e d2ec 2d3d 42ab a7be 0173 a2bc
00000080: 4bda 853e 5bc3 83be ac1b 88be 2133 3e3e
00000090: 7632 fdbd 04b8 75be 9199 a1bd 7230 a7be
000000a0: 4a3d bdbe 5b04 b53e 41e2 2c3e a14a ffbd
000000b0: bbee b63c 46b2 213e fd9f b03e 1346 873e
000000c0: c779 203e ddf8 fcbd 63be 8dbe 702c a33e
000000d0: e969 9dbe 28ad 2b3e bae3 653e f44b d0bc
000000e0: c500 88be c614 b73e c2e6 1dbe 4ca2 743e
000000f0: 5d88 443e 4add cdbb 2e4e a43d 638c a53e
00000100: 251a 8dbe f5a2 a2be a482 3dbe c4df 413d
00000110: c5c8 97be dbb0 0dbe 43f9 813e 3424 573e
00000120: 3013 d1bd e78e 27be 873e 9cbd 40c5 363e
00000130: c4fc 4e3e faef 31be 928f 08be 364a 7d3e
00000140: 8a32 aebd 85f5 02be b94a 0abe 90ee aabe
00000150: f7f0 6b3e 4be3 4dbe d802 a8be 0a47 93be
00000160: 1b08 8ebe 8e6a fe3d f13d 64be 4e45 223d
00000170: 38ff 8dbc 6b03 813d 57db 9cbe 77f3 9ebe
00000180: cc50 bcbe d0b2 a5be 1c42 243e 4e36 803e
00000190: cd25 a63e 455d 14be de1d 713e 09c0 9ebe
000001a0: 9355 a6be 8c82 f13c 62ea 91be d7d1 51bd
000001b0: 7ae5 9a3d aa26 5c3e f9db 2e3d 5262 23be
000001c0: 2200 8fbd 38a3 97be 1926 afbe c1bc b73e
000001d0: d3ed a53e 090f 083e f5d9 f1bd c46e 3c3c
000001e0: f586 53be 1651 6cbe e9cd 21bd 3e55 96be
000001f0: a8d7 d7bb 1952 7f3e a827 5a3e ecfe 523e
0.13677543 0.112843595 -0.1377129 -0.29219434 0.07608337 -0.20729753 0.02656381 0.092720605
0.12980261 -0.32935548 -0.29445067 -0.03475421 0.33447856 0.18356195 0.23085777 -0.29435295
-0.1518586 0.20959081 0.24092658 -0.17646512 -0.34502435 0.15694325 -0.24884915 0.23583776
-0.2912514 -0.13965474 -0.26901296 -0.055369295 0.19308585 0.042462178 -0.32747847 -0.019830229
0.26143107 -0.25734982 -0.26583612 0.18574192 -0.1236314 -0.23995978 -0.078906186 -0.32654148
-0.36960822 0.35354885 0.16883184 -0.12465406 0.022330632 0.15790662 0.3449706 0.2642065
0.15671454 -0.123521544 -0.27684316 0.3186984 -0.30744866 0.16765273 0.22450152 -0.025426842
-0.26563087 0.35758036 -0.15420058 0.23890036 0.19192643 -0.006282483 0.08022724 0.3233367
-0.2755901 -0.3176495 -0.18506867 0.04733254 -0.29645362 -0.13836996 0.25385484 0.21009904
-0.10208738 -0.16363107 -0.07629114 0.17848682 0.2021361 -0.173767 -0.13336018 0.2473534
-0.08505733 -0.12788971 -0.13505067 -0.33385134 0.2304114 -0.20106237 -0.3281467 -0.28765136
-0.2774056 0.124226674 -0.22289254 0.039616875 -0.017333612 0.0629948 -0.30636093 -0.31045124
-0.36780393 -0.32362986 0.16040844 0.2504143 0.32450715 -0.14488705 0.2354655 -0.31005886
-0.32487163 0.029481195 -0.28499132 -0.05122551 0.075633004 0.21499124 0.04269025 -0.15955475
-0.06982447 -0.29616714 -0.34208754 0.35886195 0.32408008 0.13286985 -0.1180915 0.011501018
-0.20656951 -0.23077807 -0.03950301 -0.2936191 -0.0065869875 0.24933662 0.2130419 0.20605057

fc2.weight f4 [128, 128]
00000000: 735c 32bd 2703 83bd 2111 9abd ff75 613d
00000010: 0857 92bd 0ccd 863d 2283 7f3d 2bb0 313d
00000020: b4de bc3b 6127 a43c 4c6a 8fbd d705 ed3c
00000030: 6c5b c23c c100 b1bd f7fa 8fbc bdb7 b63c
00000040: 8602 d8bc 8789 563d 6d27 b6bc 3be3 033d
00000050: 4981 123d 2a15 7e3d 2949 b4bd bdf7 cf3c
00000060: 6aa3 1fbd f9f7 b0bc e702 333d d93e b2bd
00000070: 5df7 f53b 7817 b0bd e2ef 793d dda2 883d
00000080: bc40 d5bc e647 503d 7dc0 3f3d 264c c2bc
00000090: a908 35bd 4ac1 1d3d e877 b0bc 4fc1 833d
000000a0: 4208 a9bc c089 b4bd c3b9 afbd 421a 32bd
000000b0: b6ed e73c 7b12 76bd 9a20 37bb 6f32 62bd
000000c0: 8105 603a 4a46 efba 3495 a63d c634 013d
000000d0: 6f81 69bd 63dc a8bd 44d7 5ebd 7c1a 363d
000000e0: 52f4 84bd 66bc 7abd abab 1abd cf76 6bbd
000000f0: ab75 cb3b 5427 5bbc 5960 3dbd e721 07bd
00000100: 3838 523d f6f4 833d 4201 47bb 896c 703d
00000110: a760 8b3c 08d9 b0bd 042e 3f3c a709 8f3d
00000120: 8028 453b ab28 89bd 3b16 693d ebc2 883d
00000130: f31e 87bd b90a 463d dda7 663d 1788 723d
00000140: 415f 013d 2f60 bcbd 6354 993d 2e77 bfbc
00000150: 4e6c 5cbd ea0c bdbc 37de a73d 74cb 583d
00000160: 4424 d03c 5a83 bfbd 37ec a0bd ae84 9b3d
00000170: c439 803d e0b6 99bb 541f 6e3c d311 423c
00000180: 671f 1f3d 3b83 9a3d a6d6 87bc 1d8d 86bd
00000190: 2e9c b23c 50c5 34bc 431f 313d c65d 8fbd
000001a0: 825e 2ebd 9f27 a4bd a7e5 7cbd f9f4 7ebd
000001b0: 4851 89bc f0f1 7d3a 8a3a 6f3d 1ef6 a73c
000001c0: 2a4f 6bbd f294 e4bc bf57 7dbc da8f 803a
000001d0: 6ed3 333d a1d6 b4bd d218 5cbd bc9e 94bd
000001e0: 5fd1 1dbc eb0e 33bd 4176 5d3d 4f51 ea3c
000001f0: 1abd 993d e5c2 083d 603e 403c c6b6 0d3d
00000200: 5a46 483d d70a e2bc fb12 0c3d 4259 93bd
00000210: 6c60 c5bd 07ca b7bd ef19 353d ef99 833d
00000220: c7d9 313d 7862 af3d 1bf8 a23d 1434 913d
00000230: 8180 923b 43f8 53bc 7c8c 05bd 4371 80bd
00000240: fa16 89bd 72bf 73bc f0ee 24bc 7b72 bfbb
00000250: cdc6 a3bc ce06 a23d ec28 8e3d 27e8 ebbc
00000260: d271 82bd 72b9 873d bc1e 553d b68c 4e3d
00000270: 3d44 14bd d8a8 713d 29eb 5b3d c5b5 923c
00000280: 6a65 be3a 1907 3bbd 4581 813d 7953 4e3c
00000290: 1fdc 90bd 948e 07bd 5597 44bd 8063 44bd
000002a0: 1385 cc3c 79f7 a53c 3937 75bc e63d b0bd
000002b0: 137f 02bd ff03 9cbd e19c fdbc f45e 8f3d
000002c0: a067 99bd e42a b739 c4d4 84bd 154d 2dbd
000002d0: 30d9 a13d 8a31 0fbd ef91 ab3d 4eb9 b83d
000002e0: 14c6 45bc 5958 9fbc deb6 e8bc 21d1 8d3d
000002f0: 7ac1 9c3c 51c7 913c 3a90 4dbc 509d 97bd
00000300: 032d 8dbc 1496 3bbd f0f1 68bc 6240 d13c
00000310: 4d68 94bc ea86 21ba 1aaf 4d3d dde7 b6bd
00000320: a006 0c3d 1153 123b 8d08 56bc 3528 923a
00000330: 0324 9fbc a1da 143d 0a0c a0bd 8756 6a3d
00000340: 501a 08bc f3b1 133d cd89 46bd 11ef 6f3d
00000350: 4eb3 60bd e904 8e3c 4cf8 bebd 96ad 5fbd
00000360: 3433 283d 391e 6ebd 7eee 093d a87f c03d
00000370: d075 f7bc 10ca 493d 966f 9f3d 3bef f53c
00000380: 366e 55bd 5353 6e3c e62f e7bc 9ffb 9d3d
00000390: 5691 da3b 1f2c 403d dc8b 533d b349 30bd
000003a0: d328 2dba bc3c ff3b 77c2 8a3d cef8 063d
000003b0: c26e 893d 9f40 8b3d 36a9 19bd 6318 cf3c
000003c0: 5a3a 48bd 6341 863d e892 6fbd 5089 623a
000003d0: 83d4 f93c f3e4 69bc 25d8 cb3d 0cbf f23c
000003e0: 9ccb 923d 66e2 cebc 56e9 abbc 8804 813d
000003f0: dee2 66b9 e710 853d a87e 3cbd 1479 46bc
-0.043545198 -0.06397086 -0.07522798 0.05504417 -0.07145506 0.06582078 0.062380917 0.043380897
0.005763853 0.020038309 -0.070026964 0.028933449 0.023725234 -0.08642722 -0.017575724 0.02230441
-0.02636839 0.05237725 -0.022235597 0.032199126 0.035767827 0.062031902 -0.08803017 0.025386686
-0.038974203 -0.021602618 0.04370394 -0.087033935 0.0075062946 -0.08598226 0.061019786 0.06671689
-0.026031844 0.050849818 0.04681443 -0.023717951 -0.044197712 0.038514413 -0.02154155 0.06433355
-0.02063382 -0.08815336 -0.08580353 -0.043482073 0.028311592 -0.060076218 -0.0027943016 -0.05522388
0.0008545742 -0.0018255201 0.08133927 0.03154447 -0.057008203 -0.082451604 -0.054404512 0.04445885
-0.06491913 -0.061214827 -0.03776137 -0.05748635 0.0062090955 -0.013376076 -0.046234462 -0.032991316
0.051323146 0.06443207 -0.003036574 0.058697257 0.01701386 -0.086351454 0.011668686 0.06984263
0.0030083954 -0.0669721 0.056905966 0.06677803 -0.065977 0.04835007 0.05631243 0.059211817
0.03158498 -0.09198033 0.074867986 -0.023372259 -0.053814225 -0.023077447 0.08196681 0.052928403
0.025407918 -0.09351225 -0.078575544 0.07593666 0.06261018 -0.00469099 0.014533836 0.01184507
0.038848307 0.075445615 -0.016581845 -0.06569884 0.021802988 -0.011033371 0.043242704 -0.07000308
-0.0425706 -0.080153696 -0.06174245 -0.062245343 -0.01676239 0.00096872356 0.058405437 0.0205031
-0.057448544 -0.027903054 -0.015462815 0.0009808496 0.043902807 -0.0883 -0.053734608 -0.07256839
-0.0096324375 -0.0437154 0.054067854 0.028603224 0.075067714 0.03338899 0.011733621 0.034598134
0.048895217 -0.02759306 0.03419779 -0.07194759 -0.09637532 -0.089740805 0.044214185 0.06425845
0.04342058 0.08563703 0.079574786 0.07090011 0.0044708853 -0.012937608 -0.03260468 -0.06271603
-0.066938356 -0.014877187 -0.010066733 -0.0058425046 -0.019992257 0.07911454 0.06941399 -0.028797222
-0.06369366 0.06627168 0.052031264 0.05042716 -0.03619789 0.058998913 0.053691063 0.01790894
0.0014526073 -0.045661066 0.06323484 0.012593144 -0.07073235 -0.033094957 -0.047995884 -0.047946453
0.024965798 0.020259606 -0.014966779 -0.08605556 -0.03185947 -0.0761795 -0.030958595 0.07000533
-0.07490468 0.00034936436 -0.06485894 -0.04230984 0.07902753 -0.034959354 0.08377444 0.09019719
-0.012071151 -0.019451307 -0.02840751 0.06924654 0.019135226 0.017795237 -0.012546593 -0.07403052
-0.017233377 -0.045797423 -0.014217839 0.025543395 -0.01811614 -0.00061617664 0.050215818 -0.08930943
0.034186006 0.0022327343 -0.013063562 0.0011150899 -0.019426351 0.036341313 -0.07814796 0.057211425
-0.008307055 0.036058377 -0.04847126 0.0585776 -0.0548585 0.017336326 -0.093247026 -0.054608904
0.041064456 -0.05813429 0.03367471 0.093993485 -0.030207545 0.049264967 0.07784955 0.0300213
-0.05210706 0.014546233 -0.028221082 0.077140085 0.0066701574 0.046917077 0.051647052 -0.043039035
-0.00066055096 0.0077892225 0.067753725 0.032952122 0.067105785 0.06799435 -0.037514888 0.025280183
-0.048883773 0.0655544 -0.05848971 0.0008641677 0.030496841 -0.014275777 0.09953336 0.029632114
0.07167742 -0.02525444 -0.020985287 0.062996924 -0.00022019024 0.064973645 -0.046019226 -0.012113828

fc2.bias f4 [128]
00000000: ebb6 62bd 746a a2bd 78e0 753c db8f 9f3b
00000010: 1891 9a3d 3fc8 483d 0c11 853d a2c7 213d
00000020: 1a66 c93d a210 923b 502b 0bbb 2e28 413d
00000030: 471b 1bbd b46f 7b3d 4188 113c 84f5 6c3c
00000040: b440 a73d b6d4 a73d 9a87 623c 5c99 91bd
00000050: 5bf3 8b3d 5a13 beba d68e 98bd 3deb 3ebd
00000060: 75af 643d 0890 b53d d31e 833c 07ae afbd
00000070: b556 1e3d 122d 9cbd 357a 8e3d 2224 06bd
00000080: c85e cfbd 7c64 3dbd 4caf ab3d 5b98 2dbd
00000090: 860f 58bd 3d57 8b3d 1f9e 03bc 9f7d 09bd
000000a0: 07e1 753d f29d a23d bde6 a5bd 5069 eabc
000000b0: efb1 1dbd c31e 183c 78c7 a4bd baaa 2b3d
000000c0: c8a5 80bd 138f 71bd dd86 6dbd 0791 c9bc
000000d0: caf9 0abd b776 1cbd fcf3 953d 24d5 503d
000000e0: c596 f0bc 4f18 303d d09e 85bd 1cae 72bd
000000f0: c840 d6bb 48f7 9a3d f41a f3bc f6a0 8ebd
00000100: 3f06 35bd cd75 913d d556 cabc 5a9a 273c
00000110: 0aba a5bc fe44 efbc 4ca1 96bc 5776 d5bb
00000120: b202 93bd 9e76 393d cb5e 343b 583e 8ebd
00000130: 86cb babd 6906 3a3d fde7 7a3d 7093 b4bd
00000140: 6fa1 4abd 0704 bcbc 4f31 683d c382 ce3c
00000150: 1558 313d 5242 c53d 30ac a7bd 9e56 52bd
00000160: 3f76 913b 964d babc ff53 bdbd d04b f3bc
00000170: 86bf 58bd ab78 ccbb 17d0 013d 6604 ed3c
00000180: 0362 8d3d ed5f a63c 3299 81bc 1c5d 93bd
00000190: cc71 3d3d 03ac 9d3d 1a5a 98bd 6bbb 3f3d
000001a0: 337a 65bd 4fb8 b0bd 024f 99bd 3ae4 c83d
000001b0: e6c3 91bd 04a7 88bd daf4 0a3d acc2 853d
000001c0: b20d babd 48b2 363d 0411 be3c e0c7 d13d
000001d0: f9dd 94bd a371 213c 6acf 1eb9 3e3d 90bd
000001e0: c192 a7bd 43e1 46bd 4f93 3cbd b9b0 58bd
000001f0: 67e3 98bd 9976 883d a630 1a3c d7d1 983d
-0.055350225 -0.079304606 0.015007131 0.004869444 0.07547206 0.049019095 0.06497392 0.039497025
0.098339275 0.004457549 -0.0021235533 0.04715746 -0.03786781 0.061385825 0.008882583 0.014462832
0.08166638 0.08194868 0.013826275 -0.07109329 0.06833526 -0.0014501617 -0.07449119 -0.04661106
0.05583139 0.088653624 0.01600591 -0.08578115 0.03865691 -0.07625784 0.06956903 -0.032749303
-0.101255 -0.046238407 0.083830446 -0.042381626 -0.05274918 0.06803749 -0.0080333045 -0.033567067
0.060029056 0.07940282 -0.081006505 -0.02861467 -0.03849977 0.009284678 -0.08045858 0.041910864
-0.0628162 -0.058974337 -0.057989944 -0.024605287 -0.033929624 -0.038199153 0.07321927 0.050984517
-0.029368768 0.042991932 -0.06524432 -0.059248075 -0.0065384842 0.075666964 -0.029675938 -0.069642946
-0.04419541 0.07102547 -0.024699608 0.010229671 -0.020230312 -0.029207703 -0.01838746 -0.0065143513
-0.071782485 0.045279138 0.0027522321 -0.06945485 -0.0912085 0.04541627 0.061256398 -0.08817184
-0.04947036 -0.02295114 0.05668765 0.025208836 0.043296892 0.0963179 -0.08187139 -0.051352136
0.004439145 -0.022742074 -0.092445366 -0.029699236 -0.052917026 -0.0062399707 0.03169259 0.028932761
0.0690346 0.020309413 -0.01582012 -0.071954936 0.046251103 0.07698824 -0.074390605 0.046809595
-0.05602474 -0.08628904 -0.07485773 0.09809156 -0.07117443 -0.06672481 0.033924915 0.06531271
-0.090846434 0.044603616 0.023201473 0.10243201 -0.072689004 0.009853753 -0.00015145322 -0.07042931
-0.08182288 -0.04855467 -0.046038922 -0.05290291 -0.074652486 0.06663246 0.009411013 0.07461899

prob.weight f4 [4, 128]
00000000: 3c20 863d 8f39 0d3d 33dd 443c 4c1b 33bd
00000010: 39d7 343d 8b63 69bd 518f 2fbd c456 c1bd
00000020: fda8 6fbc 9919 91bd 8f1a 0c3d e4a0 c63c
00000030: f3be 723d f026 a73c 7c97 d53c 0d59 033d
00000040: 2b5f 58bd 8a7d bfbd c1bb 41bd 5377 88bd
00000050: b1f0 823d 25f0 79bd 24b7 bb3c 6419 d03d
00000060: f1f1 2b3c 019e fa3b 42fe 91bc e046 0d3d
00000070: 9ad5 dfbc a97e 87bd 55bb b8bd 4752 80bd
00000080: bf3f 40bd 21e0 4dbd e9c0 46bd 9ef7 33bd
00000090: 818a 953d 9b20 83bd db7a 943c 80e2 62bd
000000a0: e3d5 82bd c2ed 7dbd 0d39 4d3c 7e74 c0bd
000000b0: d41e 013c 115e a1bd 23ce a63d 3e0f d63c
000000c0: f14e 0e3d 6d78 2e3d 1e71 46bd 1314 9cbd
000000d0: 6677 843d 1c05 34bc a6e8 62bd 3a67 d5bc
000000e0: b028 85bc 619f e0bc 36ce f1bc 2479 44bd
000000f0: a99b ff3c c202 bb3c f1fd dd3c 1b6b a23d
00000100: 214a 533b a0b9 00bd 55dd 4dbd 16f9 db3b
00000110: c753 88bd 56b8 08be 77e1 ab3c d3e2 84bd
00000120: cdbd 91bb a9d8 fa3c 74c0 b6bc 3b24 7e3d
00000130: a352 403d 9787 7e3c e083 6e3c fb00 44bd
00000140: 92c1 523d c2ca 893d 8a01 373d 6adc 98bc
00000150: 7f7c b73c a394 93bd 2483 a53b d46a 73bd
00000160: 9953 5b3c 0060 183d bed1 943b 85bf b1bd
00000170: 3c09 6cbc 0a44 95bd 5622 893d 676d 4a3d
00000180: 41bc fa3a b2d5 3639 112d 1fbd faec 803d
00000190: 7ec9 413c 738c 9dbc 1327 493c 066d 20bd
000001a0: 628a c83c 3725 883d 9070 213d 566c c3bd
000001b0: c306 103d 49ac ba3d 2ce5 69bd 02a9 fbbc
000001c0: 097d d4bc 859e f43a 2b7b b4bd f542 80bd
000001d0: 3c4c 27bc 6981 8b3d 1c4c 6fbd a045 33bd
000001e0: ae75 3cbd 2093 09bd cfa4 2cbc fb65 a83c
000001f0: c6c2 9c3d 6832 1e3d 84c7 03bc bc0a 943c
00000200: e199 9739 d92f 983d b81d 083e 29c8 acbd
00000210: cfe5 a43d d147 f53c 8a1c 54bc 0852 bebd
00000220: 9774 d5bd 0082 0f3c 66e4 9a3c 2e5a 253d
00000230: 1213 aabb 936e 363c 3064 703d 2db8 7c3d
00000240: 247c 2dbc 57fa bfbd 01fc 9b3c 1912 a4bd
00000250: 0685 313b cea7 1dbc 9e61 2ebd cca1 a03c
00000260: e261 963d 47e7 41bc 8f06 9abd 0d97 183d
00000270: ea4e 44bd f8bd 85bd 3f66 6f3d 7fb5 9a3d
00000280: 5caf fc3c 7072 553c c45c a43d 49c1 29bd
00000290: a95a 323d 8a75 90bd 0586 17bd 965a a4bd
000002a0: 767c 5fbd e459 a5bd e1c7 93bd b928 b1bd
000002b0: 3dd4 4dbd 0972 b3bd e9c5 89bb 2933 a9bc
000002c0: 5057 443d ffea 6c3d e6fc 5b3d 76cf f93c
000002d0: 6c43 87bd d3bc 213d c4be adbd 81f7 be3d
000002e0: 1cf7 313c b3b0 063d 9caa 853d 2595 993c
000002f0: a5a9 a2bd f237 24bd 255d be3b 9eda d23d
00000300: c7b8 2b3c e062 f73d 41a4 983d 2326 a03d
00000310: 85e5 d3ba 0e83 d33c 9449 1abd 13e6 5f3b
00000320: 2c34 43bd 53d7 28bd b3d2 0f3d ef64 f4bc
00000330: de00 b83b a598 e3bc 4c3b a43d 1727 40bd
00000340: 23d0 98bd bc53 153d ea50 bd3c 7403 903d
00000350: afad ac3d e980 b23c 0356 dfbc 8829 113c
00000360: 5abd 39bc 233a 8abc 2e94 fe3c f730 3abc
00000370: 7dec 813d bd30 d03d 5804 afbd 53a0 413b
00000380: d6b1 cb3d d352 8cbd 75b3 85bd 565f 11bd
00000390: c4fc 7d3d 39b7 77bd f8fd b73c 5f11 8dbd
000003a0: 57b8 a33b 05e3 4bbd db0c c13d 3795 d93d
000003b0: de5b 203d e25f 7ebd 4bf9 77bc a3b4 9dbc
000003c0: 18ee 58bd be28 8a3c df43 053d 5fd5 0fbd
000003d0: 407e 0239 9eda 773d 51a0 643d ed2a 1e3c
000003e0: 13e5 fcbb 2963 a63d 11ae 07bc bcca de3b
000003f0: 5bc0 79bd 07d0 2c3c 5643 223c 4f38 78bd
0.06549117 0.03447872 0.012015629 -0.043727204 0.044150565 -0.056979697 -0.042861287 -0.09440377
-0.014627692 -0.070849605 0.034205016 0.02424664 0.059264135 0.020404309 0.02607321 0.032067347
-0.052825134 -0.093501166 -0.047298197 -0.06663384 0.063935645 -0.061020035 0.022914477 0.10161093
0.010494695 0.00764823 -0.017821435 0.03449142 -0.027323533 -0.066159554 -0.09020106 -0.06265693
-0.046935793 -0.050262574 -0.048523817 -0.043937318 0.07301808 -0.064027034 0.018124988 -0.05539179
-0.06388452 -0.06199432 0.012525809 -0.09397219 0.007880885 -0.0787927 0.08144786 0.026130315
0.034743253 0.042595316 -0.04844772 -0.07621016 0.06468086 -0.010987546 -0.055397652 -0.026050199
-0.016254753 -0.027419748 -0.029517274 -0.04796709 0.031202154 0.022828463 0.027098628 0.07930585
0.003224023 -0.031427026 -0.050259907 0.006713043 -0.06656604 -0.13351569 0.020981533 -0.06488576
-0.004447675 0.03062089 -0.022308566 0.06204627 0.04695381 0.015535257 0.014557809 -0.047852498
0.051454134 0.06728126 0.044679202 -0.01865979 0.022398232 -0.072060846 0.0050510336 -0.05942805
0.01338663 0.037200928 0.004541605 -0.086791076 -0.0144064985 -0.07288368 0.06696002 0.04942074
0.001912959 0.0001743648 -0.038861338 0.062952 0.011827825 -0.01923201 0.012277382 -0.039166473
0.024480049 0.06647723 0.03941399 -0.09542148 0.0351627 0.09114892 -0.05710332 -0.030720238
-0.025938528 0.0018662965 -0.08812555 -0.06262771 -0.010211047 0.068117924 -0.058422193 -0.04376757
-0.046010666 -0.033587575 -0.01053734 0.02055644 0.076543376 0.03862229 -0.008043174 0.018071525
0.00028915613 0.07431001 0.13292587 -0.08436615 0.08051645 0.029941471 -0.012946257 -0.0929299
-0.104226284 0.008759022 0.018907737 0.040369205 -0.0051902616 0.011134761 0.058689296 0.06169908
-0.010588679 -0.093739204 0.019041063 -0.08011264 0.0027087345 -0.009622527 -0.042573564 0.0196084
0.073428884 -0.011834926 -0.07520782 0.03725343 -0.04792682 -0.06530374 0.05844712 0.07554149
0.030845337 0.013027772 0.08025506 -0.041444097 0.04354349 -0.07053669 -0.036993045 -0.080250904
-0.054562055 -0.08073786 -0.07215858 -0.08650345 -0.050251234 -0.08761985 -0.004204501 -0.020654278
0.04793483 0.057841297 0.05370798 0.030494433 -0.066046566 0.039486717 -0.08483651 0.093245514
0.010862138 0.032883357 0.06526682 0.018747875 -0.079425134 -0.040092416 0.0058094435 0.10295604
0.010481066 0.12079406 0.07453204 0.07819774 -0.0016166425 0.025819328 -0.037667826 0.0034164235
-0.047657177 -0.041220974 0.035113048 -0.029833285 0.0056153378 -0.027782748 0.080191225 -0.04691228
-0.07461574 0.03645681 0.023109872 0.07031909 0.08431565 0.021789985 -0.027262693 0.0088599995
-0.011336649 -0.016873425 0.031076517 -0.011364213 0.06343935 0.10165546 -0.085457504 0.0029545024
0.09946029 -0.06851735 -0.06528369 -0.03549131 0.062008634 -0.06047747 0.022459969 -0.06888079
0.0049963403 -0.04977705 0.0942628 0.106241636 0.03915011 -0.06210316 -0.01513512 -0.019251173
-0.05296144 0.01686513 0.03253543 -0.035115596 0.00012444798 0.060511224 0.055816952 0.009653789
-0.0077177375 0.08124382 -0.008281247 0.00679907 -0.06097446 0.010547644 0.009903749 -0.060600575

prob.bias f4 [4]
00000000: e22d 34bd a581 1dbd 7493 adbc 2367 9c3c
-0.04398907 -0.038453717 -0.021188475 0.019092148
