bs/game/checkpoints/Reinforce_discrete/Reinforce_policy_900.pth (torch_old, 73748 bytes, 6 tensors)

fc1.weight f4 [128, 8]
00000000: 920a 72be cc6b 873e 9554 7abe 7b7c b63e
00000010: ef44 98be 15bc 953e d525 623d bffb cf3c
00000020: 1462 273e 150d 04be 42e1 4e3e 442c 9a3e
00000030: 3761 94be df47 e5bd 7a41 2f3e 8f96 b63d
00000040: b4ae b4be 914d 9dbe 2a29 093d 86e2 053d
00000050: 9d22 b0be de92 c33d e933 a3bd 3912 01bc
00000060: 3c95 863e 2772 d13c 6383 e63d a4b2 afbe
00000070: 2d36 97bd 57f8 a93e b60e a73c a3f0 d93d
00000080: 0ba0 6ebe 6bfa a9bd 74cc f8bd 1c68 86be
00000090: c6b7 eebd cf5e a23d b3c0 b9be e923 a7be
000000a0: fb20 67be d9cc 94be c177 cf3d b6aa 87be
000000b0: 503d a6bc 7802 453d 9304 0e3e 20c8 0fbd
000000c0: 87b9 4fbe aea9 88bd 1962 13be 0d96 a83e
000000d0: c394 a0be 277f c13d afaa 823d 3172 b5be
000000e0: 7346 b13e 8841 913c 8c33 c13e 800c 663e
000000f0: 76e5 bbbe 9ce5 73be ca0d ab3e c9a0 65be
00000100: 2eed 6dbe 5255 103e aa69 aa3e 4501 b2bd
00000110: d7cc 91be 37a4 f03d 96ee a8bc b4aa 12be
00000120: 02cb 243e 0fcb fdbd 5f04 33be 4c5a dd3d
00000130: de56 623e 2e7a b83d bc3e a3be e892 123c
00000140: a720 ea3d bd0f 96bd 63bc 1cbe 9804 093e
00000150: 6ce0 e93d b4a0 a7be 2e51 b83d 437d 6c3e
00000160: 13d7 2a3d febf 65be b829 1dbd 09a0 103e
00000170: 6e18 af3e 4b07 863c 8ca3 aebe 9af7 de3d
00000180: 7445 70be 1d81 17be 5dec e7bd f7cd 6cbe
00000190: fbdf c9be d305 cbbc c9d3 8a3d 6f5e e83c
000001a0: 9e86 5abe 9c19 a03e 23ea af3e bf95 303d
000001b0: 6bd5 a9be f5bc 403e bbee 1dbe ebf4 b83e
000001c0: 6e59 6ebd a556 5ebe 481e 76be c93c 8f3e
000001d0: fdc5 c6bd 0883 883e bc12 19be a5ed 063d
000001e0: 1ea7 3abe 4c63 91be 7f6e 79be 28b5 a93b
000001f0: af27 363d 530e 403d 967d 473d d8e0 323d
00000200: 76c6 a2be ee17 8ebd ba14 8cbb f701 923e
00000210: 5a6b 35be 2ebe 2f3e ff15 5b3e 66b0 2fbe
00000220: 7498 59bc 22a6 9cbc 1fee 11be a717 1dbe
00000230: 6d5e 72be cf03 c93d f6d2 233e aee6 57bd
00000240: 82c4 5b3e bc4d 90be 440d a0be fcdb 923e
00000250: af4a 9c3e 56b5 d53d 4afb 2b3e 1ab9 9bbe
00000260: f111 a4be 60c5 78be 1cfe c6bd de7a 9bbe
00000270: c0d3 84be 7b6c 15be 6517 1bbd 53bc a5be
00000280: 6eaa 01be f213 3c3e 8a1b 483d b297 963e
00000290: 0083 a63d 453e 643e 7a86 9abe b82d 38be
000002a0: 3187 84bd 1881 94be d086 1cbd b0f4 e83b
000002b0: b069 adbe b4cd 45bd 1879 013d 4aac 603e
000002c0: 73ed a5bd ac2d 04bd b3d8 7abe 1331 8d3e
000002d0: 034f 343e 67b4 9cbd 038b 6d3e fafe 7a3e
000002e0: 1b08 cbbd 9fd5 4a3e f64e c7bd fee5 8dbd
000002f0: d966 2ebe 9c27 9c3e a53d b53c b733 263e
00000300: f149 7ebc c8f0 1b3e b627 863e 1938 aebe
00000310: 1d79 0f3e 95f5 65be 48f8 3fbe aa7c 71be
00000320: 23a2 b03e af13 86be 3fc4 c53d 640f ebbd
00000330: 8de5 23bd 4839 413e 2a8e a73e 69ce 483e
00000340: f325 94be 10e9 953e 9c96 abbb 8575 4f3d
00000350: 4212 803e 799f 6bbd 6c57 973e 4e5c afbe
00000360: fa2e b0bd 72a4 323e 046f 0fbe 4684 21be
00000370: 0198 183c 97f8 a1be b75a 403e 2d98 a63e
00000380: fa2c 85bc bf25 0fbe bf1e c7bd 1302 04be
00000390: ced5 4e3e 87ea 9fbd 573d dc3b b82b 273e
000003a0: 9700 88be eaf4 8bbe 48af e03d 7dec 963e
000003b0: a60e 2b3e caca 083e 8270 303e de21 813e
000003c0: 39bf 9ebe 9342 91be d040 c93d 92a1 b73e
000003d0: 586e 883d 6f32 c83b 0dc8 b83d a3a6 6dbe
000003e0: f0c4 5ebe b73b 52be 649f b33e d6a3 cc3b
000003f0: 8bdc 9a3c 682f 8a3e 97c3 723e 3478 09be
-0.23636845 0.2644943 -0.24446328 0.35641846 -0.29740092 0.29245058 0.05521186 0.025388597
0.16346008 -0.12895615 0.20203117 0.30111897 -0.2898042 -0.11195349 0.17114821 0.089154355
-0.35289538 -0.3072324 0.033486523 0.032686733 -0.34401408 0.09549497 -0.079688855 -0.00787788
0.26285732 0.025567127 0.11255529 -0.3431598 -0.0738338 0.3319728 0.020392757 0.10641601
-0.23303239 -0.082997166 -0.12148371 -0.26251304 -0.11656146 0.079282396 -0.3627983 -0.32644585
-0.22571175 -0.29062536 0.10130263 -0.2649743 -0.020292908 0.048098058 0.13868932 -0.035102963
-0.20285617 -0.06672989 -0.1439289 0.3292698 -0.31363496 0.094480805 0.063802116 -0.35438684
0.3462406 0.017731443 0.3773464 0.22465706 -0.36698502 -0.23818058 0.33408958 -0.22424616
-0.23235008 0.14095047 0.3328374 -0.086916484 -0.28476593 0.117500715 -0.02062158 -0.1432293
0.16093066 -0.12392246 -0.17482136 0.108082384 0.2210345 0.09007679 -0.318838 0.008946158
0.11432009 -0.073272206 -0.15306239 0.13380659 0.11419758 -0.32739794 0.08999859 0.23094659
0.041709017 -0.2243652 -0.038369864 0.14123549 0.34198326 0.0163609 -0.3410915 0.1088707
-0.23463994 -0.14795347 -0.113243796 -0.23125444 -0.39428696 -0.02478305 0.06778676 0.028365342
-0.21340415 0.31269538 0.3435832 0.04311156 -0.33170637 0.18822081 -0.154231 0.36124358
-0.058190756 -0.2171274 -0.24034989 0.27976063 -0.09705732 0.2666247 -0.14948553 0.03294148
-0.18227813 -0.2839607 -0.24358557 0.005179066 0.04447144 0.04688866 0.048703752 0.04367146
-0.3179204 -0.06938158 -0.0042749317 0.28517124 -0.17716733 0.17162392 0.2139511 -0.17157134
-0.013280977 -0.019122187 -0.14250992 -0.15341054 -0.23668833 0.098151796 0.15998444 -0.052710228
0.2146168 -0.28184307 -0.3126012 0.2868346 0.3052573 0.10434978 0.16795078 -0.3041466
-0.32044938 -0.24294043 -0.09716436 -0.30367178 -0.25942802 -0.14592163 -0.037864108 -0.32370242
-0.1266267 0.18366984 0.04885439 0.2941261 0.08130455 0.22289379 -0.30180722 -0.1798619
-0.06471098 -0.2900474 -0.038214505 0.007109247 -0.33869696 -0.048291877 0.031609625 0.21940723
-0.081019305 -0.03227012 -0.24496727 0.27576503 0.17608266 -0.076515965 0.2319756 0.24511328
-0.09913655 0.19808052 -0.097318575 -0.06928633 -0.17031421 0.3049897 0.022124121 0.16230665
-0.015520559 0.1522857 0.26202172 -0.34027174 0.14011045 -0.22456963 -0.18747056 -0.23582712
0.344987 -0.26186892 0.096565716 -0.11477545 -0.04001384 0.18869507 0.3272565 0.19609989
-0.28935203 0.29279375 -0.00523646 0.050649185 0.2501393 -0.05752513 0.29558885 -0.3425011
-0.0860271 0.17445543 -0.14007193 -0.15773115 0.009313584 -0.31634971 0.18784605 0.32537976
-0.016256798 -0.13979243 -0.09722661 -0.12891416 0.20198748 -0.078084044 0.0067211795 0.16325271
-0.2656295 -0.27335292 0.10970932 0.294773 0.16704807 0.13358608 0.17230418 0.2522115
-0.31005266 -0.28371105 0.09826815 0.35865456 0.066616714 0.006109528 0.09022532 -0.23208098
-0.21754813 -0.20530592 0.35082543 0.0062451167 0.018903991 0.26989293 0.23707424 -0.1342476

fc1.bias f4 [128]
00000000: f6ae 083e 19df c23d b6f0 13be 9866 94be
00000010: e227 863d a240 5bbe 4dee dc3c 852b af3d
00000020: d0cc 073e 5d29 afbe 9ba3 8cbe 8011 f5bc
00000030: e1fc a73e 33d3 413e 9b4a 743e 1363 94be
00000040: e224 1abe abc3 5d3e b74b 7c3e 2133 2ebe
00000050: 4ba7 adbe aa8a 003e 1b75 63be 3cde 783e
00000060: 0822 9dbe 775f 16be 8c06 8cbe 7195 45bd
00000070: ee00 3c3e 4d6a 693d 42ab a7be 3a17 28bc
00000080: 6e72 8e3e 2788 80be 82ab 87be 3d96 583e
00000090: f350 efbd c899 7abe da86 84bd 0f63 9ebe
000000a0: 6f1d bebe f358 ae3e 0e32 213e 9a75 e5bd
000000b0: 6172 1e3d ef4b 203e ebf1 ab3e d1df 8d3e
000000c0: b959 113e 0987 0cbe ac14 90be 645b 9d3e
000000d0: 154a a6be 15bf 393e 3db7 773e d5a1 d5bc
000000e0: 5f7e 89be a4c2 af3e 2f5d 1fbe 96e6 663e
000000f0: e9cd 543e e837 86bb d185 903d 78bc a23e
00000100: 3b3d 95be 7a6e a4be c450 27be d7a0 823d
00000110: 23e9 94be d0d7 07be 4d4a 853e ed38 353e
00000120: 7ecb c4bd cfcc 3cbe 56dc afbd 3fee 123e
00000130: e7ed 403e 886c 30be 0ad3 01be bf2d 853e
00000140: e2bd a9bd a476 0dbe 04a0 0ebe 0558 b0be
00000150: f6df 753e 88e7 4ebe 58a7 9cbe 4749 88be
00000160: 3c71 88be c126 753d 3cca 7cbe 63b6 0b3d
00000170: 99dc 1ebc c2d4 823d 1fbd 9bbe 3957 9bbe
00000180: dd4c bdbe 477b a3be 6420 1d3e f0a6 873e
00000190: fd9b a23e 2be9 0bbe 989d 803e 9406 aebe
000001a0: 4fe7 a2be 3a4c 533c f332 89be 9f0d b2bd
000001b0: 82b4 9a3d f9c2 5a3e f13c 3a3d 499c 1fbe
000001c0: 51eb 91bd 9ec8 90be 1926 afbe c2f9 ae3e
000001d0: 0b7d a03e 947e f93d b315 e8bd e5b1 953c
000001e0: ff13 4bbe 0c25 64be f94b 8fbd 550a 92be
000001f0: 934d 91bc 0bd9 753e f24f 3d3e 04cf 463e
0.13347992 0.09515209 -0.14447293 -0.28984523 0.06550576 -0.21411374 0.0269691 0.085532226
0.13261724 -0.34211245 -0.2746857 -0.029915571 0.3281012 0.18928222 0.23856585 -0.28981838
-0.15053132 0.21656673 0.24638258 -0.17011692 -0.33916697 0.12552896 -0.22212641 0.24303526
-0.30690026 -0.14684854 -0.27348745 -0.04823822 0.1835973 0.056986142 -0.32747847 -0.010259444
0.27821678 -0.25103876 -0.26498038 0.21151061 -0.11685362 -0.24472725 -0.064710334 -0.3093495
-0.3713183 0.34052238 0.1574175 -0.11204071 0.0386833 0.15653966 0.33583006 0.2770982
0.14194383 -0.13723387 -0.2814077 0.30733788 -0.32478395 0.18139298 0.24190994 -0.026078144
-0.26854226 0.34328187 -0.1556289 0.22548899 0.20781673 -0.00409602 0.070567735 0.31784415
-0.29148278 -0.32115537 -0.16339403 0.06378334 -0.2908412 -0.1326592 0.2603325 0.17697497
-0.096091256 -0.18437503 -0.085869476 0.14348696 0.18840753 -0.17228901 -0.12678161 0.26011464
-0.082881704 -0.13814789 -0.13928229 -0.34442154 0.24011216 -0.2020551 -0.30596423 -0.26618406
-0.2664889 0.05985141 -0.24686521 0.034109484 -0.009696149 0.063882366 -0.30417725 -0.30339983
-0.36972705 -0.3192999 0.15344387 0.2649455 0.31759635 -0.13663165 0.25120234 -0.33989394
-0.318171 0.012896592 -0.26796684 -0.08694004 0.075539604 0.21363439 0.045468275 -0.15586962
-0.07124961 -0.2827806 -0.34208754 0.34174925 0.313454 0.12182346 -0.11332264 0.018273303
-0.19831847 -0.22279757 -0.069969125 -0.28523508 -0.017737186 0.24008577 0.18487528 0.19414908

fc2.weight f4 [128, 128]
00000000: 735c 32bd 2703 83bd 2111 9abd ff75 613d
00000010: 0857 92bd 0ccd 863d 2283 7f3d 2bb0 313d
00000020: b4de bc3b 6127 a43c 4c6a 8fbd d705 ed3c
00000030: 6c5b c23c c100 b1bd f7fa 8fbc bdb7 b63c
00000040: 8602 d8bc 8789 563d 6d27 b6bc 3be3 033d
00000050: 4981 123d 2a15 7e3d 2949 b4bd bdf7 cf3c
00000060: 6aa3 1fbd f9f7 b0bc e702 333d d93e b2bd
00000070: 5df7 f53b 7817 b0bd e2ef 793d dda2 883d
00000080: bc40 d5bc e647 503d 7dc0 3f3d 264c c2bc
00000090: a908 35bd 4ac1 1d3d e877 b0bc 4fc1 833d
000000a0: 4208 a9bc c089 b4bd c3b9 afbd 421a 32bd
000000b0: b6ed e73c 7b12 76bd 9a20 37bb 6f32 62bd
000000c0: 8105 603a 4a46 efba 3495 a63d c634 013d
000000d0: 6f81 69bd 63dc a8bd 44d7 5ebd 7c1a 363d
000000e0: 52f4 84bd 66bc 7abd abab 1abd cf76 6bbd
000000f0: ab75 cb3b 5427 5bbc 5960 3dbd e721 07bd
00000100: 3838 523d f6f4 833d 4201 47bb 896c 703d
00000110: a760 8b3c 08d9 b0bd 042e 3f3c a709 8f3d
00000120: 8028 453b ab28 89bd 3b16 693d ebc2 883d
00000130: f31e 87bd b90a 463d dda7 663d 1788 723d
00000140: 415f 013d 2f60 bcbd 6354 993d 2e77 bfbc
00000150: 4e6c 5cbd ea0c bdbc 37de a73d 74cb 583d
00000160: 4424 d03c 5a83 bfbd 37ec a0bd ae84 9b3d
00000170: c439 803d e0b6 99bb 541f 6e3c d311 423c
00000180: 671f 1f3d 3b83 9a3d a6d6 87bc 1d8d 86bd
00000190: 2e9c b23c 50c5 34bc 431f 313d c65d 8fbd
000001a0: 825e 2ebd 9f27 a4bd a7e5 7cbd f9f4 7ebd
000001b0: 4851 89bc f0f1 7d3a 8a3a 6f3d 1ef6 a73c
000001c0: 2a4f 6bbd f294 e4bc bf57 7dbc da8f 803a
000001d0: 6ed3 333d a1d6 b4bd d218 5cbd bc9e 94bd
000001e0: 5fd1 1dbc eb0e 33bd 4176 5d3d 4f51 ea3c
000001f0: 1abd 993d e5c2 083d 603e 403c c6b6 0d3d
00000200: 3494 153d bd79 bdbc dc74 3c3d f0a2 87bd
00000210: 0f0d 96bd d872 a2bd c911 2b3d 83d6 823d
00000220: 2816 453d e899 9e3d f8a0 a63d 0703 943d
00000230: d554 b43c 823f 62bc bdaf 12bd fe82 8ebd
00000240: 44c9 a4bd 6c7f 72bb c842 42bc acbb 143c
00000250: 8713 e5bc 664d b23d d01c a83d ef01 d2bc
00000260: caf5 3bbd cc79 8b3d e715 343d 99fc 6b3d
00000270: a83d 4ebc 6be0 803d 29eb 5b3d 8449 a13c
00000280: d666 823a e6ad 2bbd e172 843d 7f8e 473c
00000290: 69b7 78bd 16c3 32bd f03e 3cbd e3a5 36bd
000002a0: 3e22 873c 168d 2c3d de80 c8bb 3000 a6bd
000002b0: cc4a c9bc 0089 9dbd 7761 2ebc 7be8 a13d
000002c0: 4132 64bd 32d2 cb3b 02db 1fbd 13d6 01bd
000002d0: 7b87 b33d 7d1f 17bd 9f51 9d3d d8bf aa3d
000002e0: 70b9 8ebb 9e55 27bc 65b1 dbbc bd94 903d
000002f0: ac0a b83c fde8 ad3c 4e73 22bc 2d00 95bd
00000300: c1c6 44bc 2af7 f0bc b66c 08bb 9edd 013d
00000310: 26fd dabc beaa 233c f7cf 6c3d 69a0 a4bd
00000320: 0ade 2b3d 4887 d4bb 18e7 b7bc 5e33 a93c
00000330: b100 ddbc 7693 f63c d4a5 98bd cb1f 613d
00000340: eeaa 63ba af05 4e3d 5802 02bd bfb8 633d
00000350: 58f0 80bd f9f3 903c fa34 92bd 49f9 80bd
00000360: 7ef1 ef3c a493 29bd b835 243d d145 bc3d
00000370: f4c1 66bc f564 533d 2d81 a93d b2a2 d43c
00000380: 918d 70bd 036a ac3c 5af7 11bc 6307 8d3d
00000390: c2d1 043c b46f 513d 2b95 753d cb8d d5bc
000003a0: afd5 433b 6203 993c 49e3 883d 2bf3 313d
000003b0: af52 8a3d 7bba 703d 30f0 0abd 34a1 f63c
000003c0: c81b 3fbd 9720 853d e892 6fbd 09fb 8b3c
000003d0: 0485 123d fe58 daba e57a aa3d 6d83 fd3c
000003e0: 0e43 a53d fe8f 2bbd 865d 90bc 58f0 7e3d
000003f0: 5915 86bc 8365 973d 6a9e d2bc face 653c
-0.043545198 -0.06397086 -0.07522798 0.05504417 -0.07145506 0.06582078 0.062380917 0.043380897
0.005763853 0.020038309 -0.070026964 0.028933449 0.023725234 -0.08642722 -0.017575724 0.02230441
-0.02636839 0.05237725 -0.022235597 0.032199126 0.035767827 0.062031902 -0.08803017 0.025386686
-0.038974203 -0.021602618 0.04370394 -0.087033935 0.0075062946 -0.08598226 0.061019786 0.06671689
-0.026031844 0.050849818 0.04681443 -0.023717951 -0.044197712 0.038514413 -0.02154155 0.06433355
-0.02063382 -0.08815336 -0.08580353 -0.043482073 0.028311592 -0.060076218 -0.0027943016 -0.05522388
0.0008545742 -0.0018255201 0.08133927 0.03154447 -0.057008203 -0.082451604 -0.054404512 0.04445885
-0.06491913 -0.061214827 -0.03776137 -0.05748635 0.0062090955 -0.013376076 -0.046234462 -0.032991316
0.051323146 0.06443207 -0.003036574 0.058697257 0.01701386 -0.086351454 0.011668686 0.06984263
0.0030083954 -0.0669721 0.056905966 0.06677803 -0.065977 0.04835007 0.05631243 0.059211817
0.03158498 -0.09198033 0.074867986 -0.023372259 -0.053814225 -0.023077447 0.08196681 0.052928403
0.025407918 -0.09351225 -0.078575544 0.07593666 0.06261018 -0.00469099 0.014533836 0.01184507
0.038848307 0.075445615 -0.016581845 -0.06569884 0.021802988 -0.011033371 0.043242704 -0.07000308
-0.0425706 -0.080153696 -0.06174245 -0.062245343 -0.01676239 0.00096872356 0.058405437 0.0205031
-0.057448544 -0.027903054 -0.015462815 0.0009808496 0.043902807 -0.0883 -0.053734608 -0.07256839
-0.0096324375 -0.0437154 0.054067854 0.028603224 0.075067714 0.03338899 0.011733621 0.034598134
0.03651829 -0.023129338 0.046009883 -0.06622875 -0.073267095 -0.07932061 0.041765008 0.06388571
0.048116833 0.07744199 0.08136171 0.0722714 0.022013107 -0.013809087 -0.03581213 -0.069585785
-0.08046201 -0.003700222 -0.011856742 0.009077948 -0.027963413 0.08706169 0.082086205 -0.025635688
-0.0458887 0.0681034 0.0439662 0.057613943 -0.012587942 0.06292804 0.053691063 0.019688375
0.000994886 -0.04191389 0.06467224 0.01217997 -0.06072179 -0.04364308 -0.04595846 -0.044591796
0.01649582 0.042126738 -0.006118878 -0.081055045 -0.024571799 -0.07692146 -0.010643355 0.0790567
-0.05571199 0.0062201256 -0.03902722 -0.031698298 0.08766075 -0.036895264 0.076815836 0.083373725
-0.004355602 -0.010213284 -0.026817987 0.070596196 0.022466026 0.021229262 -0.009915186 -0.07275424
-0.012010277 -0.029414732 -0.002081675 0.03170549 -0.026732039 0.009989439 0.05781552 -0.08038408
0.0419598 -0.0064858533 -0.022449061 0.020654377 -0.026977869 0.030099612 -0.07453504 0.05496196
-0.00086848333 0.05029839 -0.031740516 0.05559611 -0.06295842 0.01769446 -0.07139011 -0.06297547
0.029289957 -0.041400567 0.040090293 0.09193004 -0.014084328 0.051609952 0.082765914 0.025956485
-0.05872876 0.021046644 -0.008909071 0.068861745 0.008106651 0.05113192 0.05995671 -0.026068589
0.0029882004 0.01867837 0.06683976 0.043444794 0.06754052 0.05877159 -0.033920467 0.030106165
-0.046657354 0.06500357 -0.05848971 0.017087476 0.035771385 -0.0016658602 0.083242215 0.030946458
0.0806943 -0.04188537 -0.01762272 0.06224093 -0.016367601 0.07392409 -0.025710303 0.014026398

fc2.bias f4 [128]
00000000: ebb6 62bd 03b6 91bd 8657 133c e904 c1bb
00000010: 0fee a03d 797f 413d 0c11 853d 6367 133d
00000020: b158 a83d e404 323b 487f a9b8 be4e 343d
00000030: 6148 d4bc 3bf9 753d 1a09 573c 84f5 6c3c
00000040: c687 ae3d e051 803d d91a ec3b 7b03 8fbd
00000050: a5ce 9a3d c83f e3b9 a495 84bd 0af4 42bd
00000060: 57bb 423d 9d25 b33d e2fe 0b3c 7cc2 9fbd
00000070: 2063 243d 239a 84bd 78d7 6d3d 2224 06bd
00000080: c85e cfbd 7c64 3dbd 2eb6 a63d 00a2 15bd
00000090: b471 2bbd 1c18 773d 59b3 01bc da82 07bd
000000a0: 07e1 753d d06a 7e3d bde6 a5bd 18bd 3cbd
000000b0: dca6 15bd 3cdb ab3b 0b86 a3bd db63 4c3d
000000c0: ea88 75bd 138f 71bd 38c6 6cbd 0791 c9bc
000000d0: c319 03bd b776 1cbd 697d 8a3d 59f0 293d
000000e0: a948 2fbd 4ea7 2f3d 0e18 96bd 1cae 72bd
000000f0: d6b2 cf39 6e79 9c3d f41a f3bc d70b 8bbd
00000100: d766 38bd 7878 843d d556 cabc e69e d53b
00000110: 0aba a5bc 53d8 4fbd 3b2d 2ebc 3b7f 86bc
00000120: b202 93bd 51fa 333d e6f8 8dbb 51ed 9cbd
00000130: 4dbe b6bd ee02 433d 2d9b 803d 018b b1bd
00000140: 247b 13bd c39d d0bc a637 8d3d 1195 ae3c
00000150: 1558 313d a157 b93d 30ac a7bd 0953 1bbd
00000160: 3b0e c2bb 6ecf 2dbc 1473 b3bd 7cb3 25bd
00000170: 86bf 58bd 300d a1bc f1f4 063d dbf5 ff3c
00000180: 6e95 803d c037 db3c d4e8 75bc b11b 91bd
00000190: d736 3e3d 88a3 a93d 9876 80bd 3e39 373d
000001a0: 337a 65bd 4fb8 b0bd a258 87bd f67d a93d
000001b0: 6c93 8abd b14f 6abd 83b2 1b3d 38ff 8b3d
000001c0: 7aaa a9bd 6d16 383d 011e 2b3c 5125 a23d
000001d0: 8d96 94bd a371 213c 5457 06bc fdf9 8dbd
000001e0: c192 a7bd 4759 4ebd 0178 3abd a768 52bd
000001f0: 67e3 98bd 1bd5 a33d 7d5d 12bc 7ba1 b13d
-0.055350225 -0.07114794 0.008993035 -0.005890478 0.07857906 0.047240708 0.06497392 0.03598727
0.082200415 0.002716356 -8.082256e-05 0.044020407 -0.02591342 0.060052138 0.013124729 0.014462832
0.085219905 0.062656164 0.007205349 -0.06983086 0.075589456 -0.00043344335 -0.06473854 -0.047596015
0.047541942 0.087474085 0.0085446555 -0.07800767 0.040133595 -0.06474712 0.058066815 -0.032749303
-0.101255 -0.046238407 0.08140217 -0.03653145 -0.041856483 0.060325727 -0.007916295 -0.033083774
0.060029056 0.062113583 -0.081006505 -0.04607877 -0.036536083 0.0052446406 -0.07984551 0.049899917
-0.059945025 -0.058974337 -0.057806224 -0.024605287 -0.03200699 -0.038199153 0.06762201 0.04148898
-0.042793903 0.042884164 -0.07328807 -0.059248075 0.0003961536 0.076403484 -0.029675938 -0.06789368
-0.04501995 0.0646829 -0.024699608 0.0065191863 -0.020230312 -0.050743412 -0.010630901 -0.01641809
-0.071782485 0.043939892 -0.0043326495 -0.07662452 -0.08923016 0.047610216 0.062795974 -0.08669091
-0.036006108 -0.025465852 0.0689538 0.021311315 0.043296892 0.09049917 -0.08187139 -0.037920985
-0.0059221066 -0.010608537 -0.08762184 -0.040454373 -0.052917026 -0.019659609 0.032948438 0.031245163
0.062785015 0.026759982 -0.015009124 -0.0708536 0.046439018 0.08283144 -0.0627262 0.044732325
-0.05602474 -0.08628904 -0.06608702 0.08275978 -0.067664 -0.057204906 0.03801204 0.068357885
-0.08284469 0.044943262 0.010444165 0.07917274 -0.07255278 0.009853753 -0.008199532 -0.06932447
-0.08182288 -0.05037811 -0.0455246 -0.051369336 -0.074652486 0.07999631 -0.008933422 0.08673378

prob.weight f4 [4, 128]
00000000: 3c20 863d 4e00 103d f4e5 873c dd55 09bd
00000010: 40c0 473d b2a2 46bd 518f 2fbd 6cb6 a0bd
00000020: d090 af3b 5d92 80bd b5b3 823c e4ec b23c
00000030: 03f8 5e3d 1925 2d3d 0acd e03c 0d59 033d
00000040: 52d8 05bd 0419 91bd f7d1 21bd 80ab 60bd
00000050: 1aa6 403d d2b2 85bd 4cc6 e43c 5588 a53d
00000060: e7ed ad3c 0713 653b b789 1dbb 04a0 113d
00000070: 496e cabc 5036 a1bd eb77 a0bd 4752 80bd
00000080: bf3f 40bd 21e0 4dbd 6602 2abd 2d42 5bbd
00000090: c0b0 833d 4901 2bbd 12e3 943c b817 75bd
000000a0: e3d5 82bd 24e2 1ebd 0d39 4d3c af8c 98bd
000000b0: 30b2 6b3b d6f6 9fbd d0b9 a73d a92e ec3c
000000c0: e9ff 083d 6d78 2e3d b382 46bd 1314 9cbd
000000d0: 0a95 8c3d 1c05 34bc eb4a 1dbd 7a7e 7bbc
000000e0: 8513 cabb e7a2 e0bc a02d f2bb 2479 44bd
000000f0: 4ebd 143d b7f7 ba3c f1fd dd3c 374f 973d
00000100: b1a3 0f3c 74a5 f0bc 55dd 4dbd 91b1 143c
00000110: c753 88bd 9a18 dcbd db40 ea3c 2a86 54bd
00000120: cdbd 91bb 5e0c e43c 6746 6dbc 7ee3 703d
00000130: eaa9 303d 2af5 e33c 96b4 813c d904 46bd
00000140: d322 563d 9838 6c3d 6e16 3c3d 8677 1dbc
00000150: 7f7c b73c bb53 70bd 2483 a53b 3f67 3cbd
00000160: d1b3 7a3c 7bca 203d 7369 2b3b 61f4 9dbd
00000170: 3c09 6cbc 7e9d 5bbd 5fc8 8b3d e0f9 523d
00000180: 8bc9 363c f1d5 f5bb cb0a 31bd 6f44 893d
00000190: 1732 413c e289 89bc b556 3e3c 2336 afbc
000001a0: 628a c83c 3725 883d 48f1 233d c9a5 a6bd
000001b0: d5f2 133d adeb bd3d 71b4 6abd edf9 06bd
000001c0: 0ec3 6cbd 8c89 3a3b 8a16 98bd 1c57 d6bc
000001d0: ab57 27bc 6981 8b3d 1d35 48bd e801 32bd
000001e0: ae75 3cbd 88d1 bebc 4552 2abc 2acf c63c
000001f0: c6c2 9c3d dbe4 343d cffe f43c edbe 083d
00000200: e199 9739 98b6 8f3d e16e e43d 2ee6 83bd
00000210: a1a2 a03d 9b56 b43c 8a1c 54bc 494e a8bd
00000220: 40a9 c6bd 5cbd 2dbb 7e15 e83c 0bb8 c53c
00000230: b5fa 70bc 7821 cbbb d65d 6d3d 2db8 7c3d
00000240: 62c4 6fbc a480 abbd a508 a43c 71bd acbd
00000250: c919 573c a1e1 8fbc 706e 76bd bb10 8d3c
00000260: 0cd3 543d e360 95bc 6ac0 9bbd 6e5e 0b3d
00000270: e2e0 2dbd 4396 89bd 21b9 9b3d 7fb5 9a3d
00000280: 5caf fc3c 7072 553c f649 693d fbc2 33bd
00000290: d363 503d 405d 3dbd 73a2 17bd b596 a2bd
000002a0: 767c 5fbd 0b1f 9bbd e1c7 93bd 5168 88bd
000002b0: 1145 40bd df62 b2bd f0f6 8dbb e21f b2bc
000002c0: 98ce 513d ffea 6c3d 1eed 5b3d 76cf f93c
000002d0: 3e92 8abd d3bc 213d c199 a6bd 7051 b23d
000002e0: 5f99 8c3c e2aa 063d 7cef 563d 2595 993c
000002f0: cdac a8bd d561 24bd 255d be3b 349d b83d
00000300: 39f2 9c3b a2b8 c43d 41a4 983d 0fb4 8d3d
00000310: 85e5 d3ba 6e2f a53c 0a16 36bd 1115 143c
00000320: 2c34 43bd c980 4abd 76e8 0b3c 89c7 00bd
00000330: 73a2 24bc e201 10bd 80da 8d3d b98f 3fbd
00000340: e517 acbd 9b6f bd3c c9fc a53c 2ee9 863d
00000350: afad ac3d 6abb 123d 0356 dfbc b1c9 95bb
00000360: 5196 8ebb 6978 d7bc 3adb f03c 2bef e7bb
00000370: 7dec 813d 80a2 b23d d4af b1bd 2c79 773b
00000380: f70b c13d 59c0 9cbd 6a74 89bd dfc7 0ebd
00000390: 674d 7e3d 315c 7fbd 0761 a73c 023b 73bd
000003a0: 57b8 a33b 05e3 4bbd 228f b13d 6f80 d33d
000003b0: 2719 223d ad4b a3bd 84b8 82bc 0408 b9bc
000003c0: 7a64 2ebd 9782 b43c d69f cf3c f2d2 6cbd
000003d0: c1ee a939 9eda 773d eb63 833d fdc5 293c
000003e0: 13e5 fcbb 618b a13d d4d7 07bc 436f 80b9
000003f0: 5bc0 79bd d4cc f13b 3427 f5bb 9bc5 7ebd
0.06549117 0.03515654 0.016589142 -0.03352915 0.04876733 -0.048495002 -0.042861287 -0.07847294
0.005357839 -0.062779166 0.015954832 0.021841474 0.05443574 0.042271707 0.02744152 0.032067347
-0.032677002 -0.070848495 -0.03950688 -0.054851055 0.047033407 -0.06528248 0.027926587 0.08082644
0.021231605 0.0034953968 -0.0024038383 0.035552993 -0.024710791 -0.078716874 -0.078353725 -0.06265693
-0.046935793 -0.050262574 -0.041506194 -0.053529907 0.06430197 -0.041749272 0.018174682 -0.059837073
-0.06388452 -0.038789883 0.012525809 -0.07448708 0.0035964362 -0.07810752 0.08189738 0.028830843
0.03344718 0.042595316 -0.04846449 -0.07621016 0.068643644 -0.010987546 -0.038401525 -0.015349979
-0.0061668777 -0.027421428 -0.007390693 -0.04796709 0.036313348 0.022823198 0.027098628 0.07388156
0.008767054 -0.02937577 -0.050259907 0.009075538 -0.06656604 -0.1074688 0.028595379 -0.05188576
-0.004447675 0.027837928 -0.014482117 0.058810703 0.043130793 0.027826864 0.01583318 -0.048344467
0.052279305 0.05767116 0.045919828 -0.009611016 0.022398232 -0.0586736 0.0050510336 -0.0459969
0.015301661 0.0392556 0.0026155382 -0.07712627 -0.0144064985 -0.053616993 0.06825327 0.05150783
0.01115645 -0.0075023104 -0.043223184 0.06702506 0.0117917275 -0.01678938 0.011617352 -0.02138812
0.024480049 0.06647723 0.040025026 -0.0813709 0.036120255 0.09273467 -0.05730099 -0.03295319
-0.057803206 0.0028463332 -0.07426174 -0.026164584 -0.010213773 0.068117924 -0.048878778 -0.04345885
-0.046010666 -0.023293272 -0.010395591 0.024268705 0.076543376 0.044163566 0.029906658 0.033385206
0.00028915613 0.07017249 0.11153961 -0.06440388 0.07843519 0.022013953 -0.012946257 -0.08218057
-0.097002506 -0.0026510572 0.02833056 0.02413561 -0.014708211 -0.006199058 0.057950817 0.06169908
-0.014634224 -0.083741456 0.020023653 -0.084345706 0.013128706 -0.017563643 -0.060163915 0.017219892
0.051959082 -0.018234676 -0.076050594 0.034025602 -0.042450793 -0.06718113 0.0760367 0.07554149
0.030845337 0.013027772 0.0569553 -0.04388712 0.05087645 -0.04623151 -0.037020158 -0.07938901
-0.054562055 -0.0757428 -0.07215858 -0.06660522 -0.046940867 -0.087102644 -0.0043324158 -0.021743719
0.051222414 0.057841297 0.05369293 0.030494433 -0.06766175 0.039486717 -0.08134795 0.08706939
0.017162977 0.03287781 0.052474484 0.018747875 -0.08236084 -0.040132362 0.0058094435 0.09014359
0.0047896174 0.096055284 0.07453204 0.06919109 -0.0016166425 0.020164218 -0.04445461 0.009038226
-0.047657177 -0.049439225 0.00853931 -0.03144029 -0.010048497 -0.035158046 0.06926441 -0.046767924
-0.08402995 0.023124507 0.020262139 0.06587444 0.08431565 0.035823263 -0.027262693 -0.0045711626
-0.004351415 -0.026302533 0.02940141 -0.0070780716 0.06343935 0.08722401 -0.08676115 0.0037761433
0.0942611 -0.07653875 -0.06711657 -0.03485858 0.062085535 -0.06234378 0.020432008 -0.059382446
0.0049963403 -0.04977705 0.086698785 0.10327231 0.03957477 -0.079734184 -0.015957125 -0.02258683
-0.04257629 0.022034926 0.02534477 -0.05781836 0.00032412077 0.060511224 0.06415542 0.0103621455
-0.0077177375 0.078879125 -0.0082912035 -0.0002449696 -0.06097446 0.0073791537 -0.00748148 -0.06220017

prob.bias f4 [4]
00000000: 3501 c4bc 204d 2dbd 3116 0dbd d9a4 993c
-0.023926357 -0.04230988 -0.03444499 0.018755363
