bs/game/checkpoints/Reinforce_discrete/Reinforce_policy_1200.pth (torch_old, 73748 bytes, 6 tensors)

fc1.weight f4 [128, 8]
0	0xbe717405	-0.23579414
1	0x3e8b47d3	0.27203235
2	0xbe776e54	-0.2416318
3	0x3eb4b14f	0.35291526
4	0xbe96f5a0	-0.29484272
5	0x3e95616a	0.29175884
6	0x3d7a60f9	0.061127637
7	0x3c0194fa	0.007909054
8	0x3e2bc14b	0.16772954
9	0xbdf2bb53	-0.118521355
10	0x3e5235f3	0.20528392
11	0x3e973f22	0.29540354
12	0xbe952143	-0.2912694
13	0xbde734c6	-0.112893626
14	0x3e270fb5	0.16314586
15	0x3db94a44	0.09047368
16	0xbeb4beab	-0.35301718
17	0xbe9b863c	-0.3037585
18	0x3cd3805a	0.025818039
19	0x3d08af57	0.033370342
20	0xbeab08a6	-0.33405036
21	0x3de06778	0.10957235
22	0xbdca7401	-0.09885407
23	0xbd162cbe	-0.036663763
24	0x3e82c89d	0.2554368
25	0x3cc462b2	0.023972843
26	0x3dd584e3	0.10425737
27	0xbeb10f0d	-0.34581795
28	0xbd8329ae	-0.06404434
29	0x3ea88816	0.32916325
30	0x3cb93e2a	0.02261265
31	0x3de32bbe	0.110923275
32	0xbe7d6ad7	-0.24747787
33	0xbdb385c6	-0.0876575
34	0xbe095036	-0.13409504
35	0xbe8a2e5f	-0.26988503
36	0xbde90e40	-0.11379671
37	0x3d869de6	0.065730855
38	0xbeb3360f	-0.3500218
39	0xbea5a661	-0.323535
40	0xbe6bb99c	-0.23020023
41	0xbe8e3634	-0.2777573
42	0x3dc48333	0.09595337
43	0xbe8cb645	-0.2748281
44	0xbc997559	-0.018732714
45	0x3d24487b	0.040108185
46	0x3df96b3d	0.12178657
47	0xbd4b9ea0	-0.049711823
48	0xbe49a135	-0.19690402
49	0xbd91b2b8	-0.07114166
50	0xbe11548c	-0.14192408
51	0x3eacb47d	0.33731452
52	0xbea157f6	-0.3151242
53	0x3dbafa49	0.09129769
54	0x3d766034	0.06015034
55	0xbeb36add	-0.35042468
56	0x3eb98693	0.36235484
57	0x3cc66e88	0.024222627
58	0x3ec8e5c6	0.39237803
59	0x3e521136	0.20514378
60	0xbec0b358	-0.37636828
61	0xbe71df31	-0.23620297
62	0x3ea6fc80	0.32614517
63	0xbe59a72b	-0.21255176
64	0xbe6b96d7	-0.2300676
65	0x3e10eebf	0.14153574
66	0x3ead1234	0.3380295
67	0xbdc1e0af	-0.09466683
68	0xbe95bc67	-0.29245302
69	0x3de83d95	0.11339871
70	0xbd18ad1f	-0.037274476
71	0xbe11e5a2	-0.14247754
72	0x3e304e1c	0.17217296
73	0xbde8399e	-0.113391146
74	0xbe42f4cf	-0.190387
75	0x3dd3cc3d	0.1034169
76	0x3e70ee50	0.23528409
77	0x3dcfd780	0.10148525
78	0xbea33ebc	-0.318838
79	0x3cc3a3b2	0.023881767
80	0x3de9b071	0.11410607
81	0xbd96f71a	-0.0737135
82	0xbe147852	-0.14499024
83	0x3e0a9837	0.13534628
84	0x3dd6d9ee	0.104907855
85	0xbeaa4f03	-0.33263406
86	0x3dd1d1cf	0.10245096
87	0x3e5fbd63	0.21849589
88	0x3d60eb40	0.054911852
89	0xbe640ba3	-0.22270064
90	0xbd1317d6	-0.035911404
91	0x3e09cbac	0.13456601
92	0x3eb2c294	0.34914076
93	0x3cb3211c	0.021866374
94	0xbeaea38c	-0.3410915
95	0x3de93671	0.11387337
96	0xbe6c6dd2	-0.23088768
97	0xbe1bd2d6	-0.15217146
98	0xbde5d797	-0.11222761
99	0xbe7da35f	-0.24769352
100	0xbecc13aa	-0.39858752
101	0xbd069355	-0.03285535
102	0x3d52a8ff	0.0514307
103	0x3ccb1f48	0.02479519
104	0xbe5bcc01	-0.2146454
105	0x3e9f359a	0.31095582
106	0x3eae1baf	0.34005496
107	0x3d06e0a5	0.03292908
108	0xbeaa6a4a	-0.33284217
109	0x3e44ac6a	0.19206396
110	0xbe297150	-0.16547132
111	0x3ebe2de6	0.37144393
112	0xbd97a53f	-0.07404565
113	0xbe623571	-0.22090699
114	0xbe76b440	-0.24092197
115	0x3e8a906e	0.27063316
116	0xbdde4cf6	-0.10854523
117	0x3e816ef6	0.2527997
118	0xbe155fe2	-0.14587358
119	0x3cddf4aa	0.027094204
120	0xbe372bf9	-0.17887868
121	0xbe8f3937	-0.2797334
122	0xbe770267	-0.2412201
123	0x3c12abcc	0.008952092
124	0x3d3b01fe	0.045656197
125	0x3d32bb7d	0.043635834
126	0x3d306d02	0.043072708
127	0x3d20df43	0.03927542
128	0xbea02de6	-0.31285018
129	0xbdadd6f2	-0.08488263
130	0xbbc1bfa4	-0.005912738
131	0x3e922920	0.28547
132	0xbe29e6ea	-0.16591993
133	0x3e3572f9	0.1771964
134	0x3e58ef96	0.21185145
135	0xbe21a2ae	-0.15784714
136	0xbb49b6b1	-0.0030779059
137	0xbcc11369	-0.023568826
138	0xbe0abebc	-0.13549322
139	0xbe19d6b0	-0.15023303
140	0xbe716ee1	-0.23577453
141	0x3dd22c5f	0.10262369
142	0x3e122383	0.14271359
143	0xbd5ac977	-0.053414788
144	0x3e5561a3	0.20838027
145	0xbe92da5a	-0.28682214
146	0xbea1f59a	-0.31632692
147	0x3e936402	0.28787237
148	0x3e9d9f18	0.3078544
149	0x3de4a3d3	0.111640595
150	0x3e38b8a1	0.1803918
151	0xbe95a910	-0.29230547
152	0xbe9f6316	-0.31130284
153	0xbe803bef	-0.25045726
154	0xbdb57cba	-0.0886168
155	0xbe976a9b	-0.2957352
156	0xbe82635d	-0.25466433
157	0xbe08f373	-0.13374119
158	0xbd2b3515	-0.04179867
159	0xbea9722e	-0.33094925
160	0xbdf75087	-0.12075906
161	0x3e384171	0.17993714
162	0x3d2d803b	0.04235862
163	0x3e93f1a1	0.28895286
164	0x3db42278	0.08795637
165	0x3e6be714	0.23037368
166	0xbe9a867a	-0.30180722
167	0xbe30bed8	-0.17260301
168	0xbd697903	-0.05700017
169	0xbe8af55d	-0.27140322
170	0xbcfe1a9d	-0.03101855
171	0x38752dd2	5.8455225e-05
172	0xbeb15070	-0.3463168
173	0xbd3b90e2	-0.045792468
174	0x3c9024a7	0.017595602
175	0x3e5eaf8e	0.21746656
176	0xbdbdd82c	-0.09269747
177	0xbd2f439b	-0.042789083
178	0xbe767a98	-0.24070203
179	0x3e8906d2	0.26763016
180	0x3e25d6be	0.16195199
181	0xbdb8b564	-0.090189725
182	0x3e762c89	0.24040426
183	0x3e70b382	0.23505977
184	0xbdd7b586	-0.1053267
185	0x3e436fd7	0.19085632
186	0xbdc4e2b8	-0.09613556
187	0xbd8ab85c	-0.06773445
188	0xbe3a84ac	-0.18214673
189	0x3e941475	0.28921857
190	0x3c5330d4	0.0128900595
191	0x3e1ec665	0.15505369
192	0xbd123f93	-0.03570516
193	0x3e16fade	0.14744136
194	0x3e774f49	0.24151339
195	0xbeb66890	-0.3562665
196	0x3e0d5c94	0.13804847
197	0xbe6fb5fc	-0.23409265
198	0xbe4d4227	-0.20044766
199	0xbe702f08	-0.23455441
200	0x3eae4c3c	0.34042537
201	0xbe896af0	-0.268394
202	0x3db7201c	0.08941671
203	0xbdfa2725	-0.122144975
204	0xbd169443	-0.036762487
205	0x3e42a3b0	0.19007754
206	0x3ea64f14	0.32482207
207	0x3e59433c	0.21217054
208	0xbe9418f4	-0.28925288
209	0x3e9a6213	0.3015295
210	0xbbc8b278	-0.0061247908
211	0x3d4ea7f7	0.050453153
212	0x3e819543	0.2530919
213	0xbd4744c6	-0.04864957
214	0x3e9d5277	0.30726978
215	0xbeaf5c4e	-0.3425011
216	0xbd8ab17b	-0.06772133
217	0x3e310916	0.17288622
218	0xbe01e557	-0.12685142
219	0xbe1c3d05	-0.15257652
220	0x3bccf256	0.0062544746
221	0xbe9f21eb	-0.31080565
222	0x3e3471dc	0.17621559
223	0x3ea49e3d	0.32151976
224	0xbc6ddfd0	-0.014518693
225	0xbe087805	-0.13327034
226	0xbdc918dc	-0.09819195
227	0xbdf9ea92	-0.12202944
228	0x3e5b04e4	0.21388584
229	0xbda138c1	-0.07872153
230	0x3c9e71ff	0.019341467
231	0x3e26bfa9	0.1628405
232	0xbe88a8b2	-0.26691204
233	0xbe940193	-0.2890745
234	0x3ddf10c4	0.1089187
235	0x3e945456	0.28970593
236	0x3e28b0df	0.16473721
237	0x3e0834c8	0.13301384
238	0x3e34f9f1	0.1767347
239	0x3e809c27	0.25119135
240	0xbe9ebf39	-0.31005266
241	0xbe914293	-0.28371105
242	0x3dc940d0	0.09826815
243	0x3eb7a192	0.35865456
244	0x3d886e58	0.066616714
245	0x3bc8326f	0.006109528
246	0x3db8c80d	0.09022532
247	0xbe6da6a3	-0.23208098
248	0xbe67b1ed	-0.22626467
249	0xbe610c6a	-0.21977392
250	0x3eb1ad1d	0.34702387
251	0x3cc4deed	0.02403208
252	0x3c80bee9	0.015716033
253	0x3e81d2c8	0.25356126
254	0x3e661324	0.22468239
255	0xbe0ca5fe	-0.13735196

fc1.bias f4 [128]
0	0x3e0d5ed3	0.13805704
1	0x3dd76148	0.10516602
2	0xbe19465c	-0.14968246
3	0xbe92f7fc	-0.28704822
4	0x3d8614ad	0.06546912
5	0xbe53a519	-0.20668449
6	0x3ce16e35	0.027518371
7	0x3dc83f7d	0.097777344
8	0x3e0ba167	0.13635789
9	0xbea7e7de	-0.32794088
10	0xbe8c1ba0	-0.27364826
11	0xbccd3294	-0.025048532
12	0x3eaa2654	0.33232367
13	0x3e46b335	0.194043
14	0x3e6f63af	0.2337787
15	0xbe95ce35	-0.29258886
16	0xbe1d557e	-0.15364644
17	0x3e589afb	0.2115287
18	0x3e7d17e4	0.24716145
19	0xbe3864dd	-0.18007226
20	0xbead7571	-0.33878663
21	0x3e08ef67	0.13372575
22	0xbe6b0b54	-0.2295354
23	0x3e72858d	0.23683758
24	0xbe9a2331	-0.30104974
25	0xbe0cae44	-0.13738352
26	0xbe87c214	-0.26515257
27	0xbd5c0bc4	-0.053722158
28	0x3e3ae067	0.18249665
29	0x3d610b4f	0.054942425
30	0xbea7ab42	-0.32747847
31	0xbcd859b7	-0.026409967
32	0x3e8aed55	0.27134195
33	0xbe7bc6cf	-0.24587558
34	0xbe872cd5	-0.26401392
35	0x3e4e6f8c	0.2015974
36	0xbddc37da	-0.1075284
37	0xbe7cb1dd	-0.24677224
38	0xbd88ea01	-0.06685258
39	0xbea54cc5	-0.32285133
40	0xbebdee6f	-0.37095973
41	0x3eafee28	0.34361386
42	0x3e2753fc	0.16340631
43	0xbde09227	-0.10965376
44	0x3d05f37e	0.032702915
45	0x3e182497	0.14857708
46	0x3ead95fd	0.33903494
47	0x3e8b242b	0.2717603
48	0x3e15b23a	0.1461877
49	0xbe00fb9b	-0.1259598
50	0xbe90ffa1	-0.2832003
51	0x3ea09411	0.31362966
52	0xbea95b4a	-0.3307746
53	0x3e323ece	0.1740677
54	0x3e708240	0.23487186
55	0xbcad7d7a	-0.021177996
56	0xbe889c48	-0.26681733
57	0x3eb0ec24	0.3455516
58	0xbe193d3e	-0.14964768
59	0x3e6141db	0.21997778
60	0x3e5608b0	0.20901752
61	0xbb363cd1	-0.0027807245
62	0x3d9abe08	0.07555777
63	0x3ea39352	0.31948334
64	0xbe8a7f6a	-0.27050334
65	0xbea25c3c	-0.31710994
66	0xbe300363	-0.17188792
67	0x3d8c7978	0.06859106
68	0xbe91bc55	-0.28463998
69	0xbe0df5e2	-0.13863328
70	0x3e82dcd6	0.2555911
71	0x3e37a056	0.17932257
72	0xbdba2777	-0.090895586
73	0xbe2c8c2b	-0.16850345
74	0xbda6433a	-0.08118291
75	0x3e296ea5	0.16546114
76	0x3e4c7dae	0.19969818
77	0xbe2aec22	-0.1669164
78	0xbe024953	-0.12723283
79	0x3e856dce	0.26060337
80	0xbda106a6	-0.07862596
81	0xbe0a155d	-0.13484712
82	0xbe0603a7	-0.13087331
83	0xbeb0b156	-0.34510297
84	0x3e736d01	0.2377205
85	0xbe4cfeeb	-0.20019118
86	0xbea70907	-0.32624075
87	0xbe8c8653	-0.2744623
88	0xbe83cea7	-0.257436
89	0x3dc14e91	0.094388135
90	0xbe720954	-0.23636371
91	0x3d1c6e89	0.038191352
92	0xbc2a0f96	-0.010379693
93	0x3d77b0e0	0.060471416
94	0xbe9b2d5f	-0.30308053
95	0xbe9cc7fc	-0.30621326
96	0xbebc5152	-0.36780792
97	0xbea0e058	-0.3142116
98	0x3e1e0381	0.15431024
99	0x3e86dd92	0.2634092
100	0x3ea606dd	0.3242711
101	0xbe05bfbe	-0.13061425
102	0x3e7a6f4b	0.24456517
103	0xbeaf8fac	-0.342893
104	0xbe9f7a0c	-0.31147802
105	0x3cbd911e	0.023140486
106	0xbe8a205f	-0.26977822
107	0xbdaa87e5	-0.08326701
108	0x3dc83481	0.09775639
109	0x3e5bf0ba	0.21478549
110	0x3d4998b3	0.04921789
111	0xbe223ae7	-0.15842782
112	0xbd8807ed	-0.06642137
113	0xbe94eb22	-0.29085642
114	0xbeaf2619	-0.34208754
115	0x3eb1f3d7	0.34756348
116	0x3ea2e2ab	0.3181356
117	0x3e0534d2	0.1300843
118	0xbdddf8d9	-0.108384795
119	0x3ca0ac89	0.019613521
120	0xbe47527b	-0.19465058
121	0xbe5f7c11	-0.21824671
122	0xbd842978	-0.06453222
123	0xbe8fae44	-0.28062642
124	0xbc24fccb	-0.010070036
125	0x3e7ec939	0.24881448
126	0x3e4318ce	0.19052431
127	0x3e4bf4d5	0.19917615

fc2.weight f4 [128, 128]
0	0xbd325c73	-0.043545198
1	0xbd830327	-0.06397086
2	0xbd9a1121	-0.07522798
3	0x3d6175ff	0.05504417
4	0xbd925708	-0.07145506
5	0x3d86cd0c	0.06582078
6	0x3d7f8322	0.062380917
7	0x3d31b02b	0.043380897
8	0x3bbcdeb4	0.005763853
9	0x3ca42761	0.020038309
10	0xbd8f6a4c	-0.070026964
11	0x3ced05d7	0.028933449
12	0x3cc25b6c	0.023725234
13	0xbdb100c1	-0.08642722
14	0xbc8ffaf7	-0.017575724
15	0x3cb6b7bd	0.02230441
16	0xbcd80286	-0.02636839
17	0x3d568987	0.05237725
18	0xbcb6276d	-0.022235597
19	0x3d03e33b	0.032199126
20	0x3d128149	0.035767827
21	0x3d7e152a	0.062031902
22	0xbdb44929	-0.08803017
23	0x3ccff7bd	0.025386686
24	0xbd1fa36a	-0.038974203
25	0xbcb0f7f9	-0.021602618
26	0x3d3302e7	0.04370394
27	0xbdb23ed9	-0.087033935
28	0x3bf5f75d	0.0075062946
29	0xbdb01778	-0.08598226
30	0x3d79efe2	0.061019786
31	0x3d88a2dd	0.06671689
32	0xbcd540bc	-0.026031844
33	0x3d5047e6	0.050849818
34	0x3d3fc07d	0.04681443
35	0xbcc24c26	-0.023717951
36	0xbd3508a9	-0.044197712
37	0x3d1dc14a	0.038514413
38	0xbcb077e8	-0.02154155
39	0x3d83c14f	0.06433355
40	0xbca90842	-0.02063382
41	0xbdb489c0	-0.08815336
42	0xbdafb9c3	-0.08580353
43	0xbd321a42	-0.043482073
44	0x3ce7edb6	0.028311592
45	0xbd76127b	-0.060076218
46	0xbb37209a	-0.0027943016
47	0xbd62326f	-0.05522388
48	0x3a600581	0.0008545742
49	0xbaef464a	-0.0018255201
50	0x3da69534	0.08133927
51	0x3d0134c6	0.03154447
52	0xbd69816f	-0.057008203
53	0xbda8dc63	-0.082451604
54	0xbd5ed744	-0.054404512
55	0x3d361a7c	0.04445885
56	0xbd84f452	-0.06491913
57	0xbd7abc66	-0.061214827
58	0xbd1aabab	-0.03776137
59	0xbd6b76cf	-0.05748635
60	0x3bcb75ab	0.0062090955
61	0xbc5b2754	-0.013376076
62	0xbd3d6059	-0.046234462
63	0xbd0721e7	-0.032991316
64	0x3d523838	0.051323146
65	0x3d83f4f6	0.06443207
66	0xbb470142	-0.003036574
67	0x3d706c89	0.058697257
68	0x3c8b60a7	0.01701386
69	0xbdb0d908	-0.086351454
70	0x3c3f2e04	0.011668686
71	0x3d8f09a7	0.06984263
72	0x3b452880	0.0030083954
73	0xbd8928ab	-0.0669721
74	0x3d69163b	0.056905966
75	0x3d88c2eb	0.06677803
76	0xbd871ef3	-0.065977
77	0x3d460ab9	0.04835007
78	0x3d66a7dd	0.05631243
79	0x3d728817	0.059211817
80	0x3d015f41	0.03158498
81	0xbdbc602f	-0.09198033
82	0x3d995463	0.074867986
83	0xbcbf772e	-0.023372259
84	0xbd5c6c4e	-0.053814225
85	0xbcbd0cea	-0.023077447
86	0x3da7de37	0.08196681
87	0x3d58cb74	0.052928403
88	0x3cd02444	0.025407918
89	0xbdbf835a	-0.09351225
90	0xbda0ec37	-0.078575544
91	0x3d9b84ae	0.07593666
92	0x3d8039c4	0.06261018
93	0xbb99b6e0	-0.00469099
94	0x3c6e1f54	0.014533836
95	0x3c4211d3	0.01184507
96	0x3d1f1f67	0.038848307
97	0x3d9a833b	0.075445615
98	0xbc87d6a6	-0.016581845
99	0xbd868d1d	-0.06569884
100	0x3cb29c2e	0.021802988
101	0xbc34c550	-0.011033371
102	0x3d311f43	0.043242704
103	0xbd8f5dc6	-0.07000308
104	0xbd2e5e82	-0.0425706
105	0xbda4279f	-0.080153696
106	0xbd7ce5a7	-0.06174245
107	0xbd7ef4f9	-0.062245343
108	0xbc895148	-0.01676239
109	0x3a7df1f0	0.00096872356
110	0x3d6f3a8a	0.058405437
111	0x3ca7f61e	0.0205031
112	0xbd6b4f2a	-0.057448544
113	0xbce494f2	-0.027903054
114	0xbc7d57bf	-0.015462815
115	0x3a808fda	0.0009808496
116	0x3d33d36e	0.043902807
117	0xbdb4d6a1	-0.0883
118	0xbd5c18d2	-0.053734608
119	0xbd949ebc	-0.07256839
120	0xbc1dd15f	-0.0096324375
121	0xbd330eeb	-0.0437154
122	0x3d5d7641	0.054067854
123	0x3cea514f	0.028603224
124	0x3d99bd1a	0.075067714
125	0x3d08c2e5	0.03338899
126	0x3c403e60	0.011733621
127	0x3d0db6c6	0.034598134
128	0x3d39bd9c	0.04534684
129	0xbca6f1f2	-0.02037904
130	0x3d2eba56	0.042658173
131	0xbd4f98f0	-0.050682962
132	0xbdb753e1	-0.089515455
133	0xbdbc18da	-0.091844276
134	0x3d3d1613	0.04616363
135	0x3d9d44e9	0.07679159
136	0x3d69dace	0.057093434
137	0x3dc26a3a	0.09492917
138	0x3daf4cab	0.08559545
139	0x3dadc5c6	0.08484988
140	0x3c5780af	0.013153239
141	0xbacaa658	-0.0015460951
142	0xbcc89b8b	-0.024488231
143	0xbd85cf65	-0.06533698
144	0xbd909154	-0.07058969
145	0xbbdcbf3e	-0.006736665
146	0x3a7ad6ae	0.0009568733
147	0xbb572900	-0.0032830834
148	0xbca54425	-0.020174095
149	0x3dab8e4d	0.08376751
150	0x3d9b7855	0.07591311
151	0xbc9db4d3	-0.019251263
152	0xbd3363d6	-0.043796383
153	0x3da6464a	0.08118875
154	0x3d4c9e4d	0.049955655
155	0x3d58a23c	0.052889094
156	0xbcab7529	-0.02092989
157	0x3d8cb5a0	0.0687058
158	0x3d5beb29	0.053691063
159	0x3cf496aa	0.029856998
160	0xba249b32	-0.00062792294
161	0xbcc629fc	-0.024189942
162	0x3d876b3b	0.066122495
163	0x3cbd8368	0.023133948
164	0xbd56ff5f	-0.052489635
165	0xbcf47bbd	-0.02984416
166	0xbd239e84	-0.039946094
167	0xbd27c8ab	-0.040962856
168	0x3cffac7e	0.03121018
169	0x3d1c1b81	0.038112167
170	0x3b269f71	0.0025424624
171	0xbd8ad799	-0.06779403
172	0xbcf24c1e	-0.029577311
173	0xbd6af8da	-0.05736623
174	0xbcb7b631	-0.022425743
175	0x3d9f4ff1	0.077789195
176	0xbd8ce55e	-0.06879686
177	0x3bfe5395	0.0077614286
178	0xbd4e5b68	-0.05038014
179	0xbceb4b6b	-0.028722486
180	0x3d9f0f0d	0.077665426
181	0xbcfa8f45	-0.030585894
182	0x3dace024	0.08441189
183	0x3dbd6013	0.0924684
184	0xbbca163c	-0.0061672013
185	0xbc65cdde	-0.014026133
186	0xbc71cd5a	-0.014758432
187	0x3db7beae	0.08971916
188	0x3d052d3e	0.03251385
189	0x3ceb6921	0.028736653
190	0x3ae6b5a9	0.0017601746
191	0xbd66f107	-0.056382205
192	0xbc3f24b6	-0.011666467
193	0xbd16bc3f	-0.03680062
194	0xbbb2bd55	-0.005454699
195	0x3d340fe2	0.04396046
196	0xbc9fcd4f	-0.019507078
197	0x3b67140b	0.003525975
198	0x3d829640	0.06376314
199	0xbda93f50	-0.08264029
200	0x3d25676e	0.04038184
201	0x3b8dfba3	0.004332976
202	0xbc85ae96	-0.0163186
203	0x3c04998c	0.008093249
204	0xbc5f1022	-0.013614686
205	0x3d22a1d5	0.039705116
206	0xbd74a003	-0.05972291
207	0x3d89512a	0.06704934
208	0x3b427407	0.0029671208
209	0x3d3328ea	0.04374019
210	0xbd2c85bf	-0.042119738
211	0x3d8a0d1e	0.06740783
212	0xbd6a2055	-0.05715974
213	0x3d07eb8e	0.033183627
214	0xbda8b9ad	-0.0823854
215	0xbd745389	-0.059649978
216	0x3d464209	0.04840282
217	0xbd431eef	-0.047636922
218	0x3d606824	0.054786816
219	0x3dc47902	0.09593393
220	0xbc535662	-0.012899013
221	0x3d6f4f61	0.05842531
222	0x3da6331e	0.081152186
223	0x3d0f9c50	0.03506118
224	0xbd583372	-0.052783437
225	0x3ca71e50	0.020400196
226	0xbc5e1d34	-0.013556767
227	0x3da657c4	0.08122209
228	0x3ca0d8af	0.019634573
229	0x3d414480	0.047184467
230	0x3d7c25cf	0.061559495
231	0xbd199410	-0.03749472
232	0x3c882e00	0.016623497
233	0x3c966cc8	0.018362418
234	0x3d95be99	0.07311744
235	0x3d2eef1f	0.042708512
236	0x3d98ed44	0.0746713
237	0x3d970301	0.0737362
238	0xbd079a7d	-0.033106316
239	0x3d43602b	0.047699135
240	0xbd069aba	-0.032862402
241	0x3d995803	0.0748749
242	0xbd6f92e8	-0.05848971
243	0x3cb28d3c	0.021795861
244	0x3d333cf9	0.04375932
245	0xbb9232c9	-0.0044616205
246	0x3db88b33	0.09010925
247	0x3d347453	0.044056248
248	0x3da7b420	0.08188653
249	0xbcfd4e2d	-0.030921066
250	0x3ad78e40	0.0016445592
251	0x3da237fc	0.079208344
252	0xbb855c88	-0.0040698685
253	0x3db10e7b	0.0864534
254	0xbced7801	-0.028987886
255	0x3baee04d	0.0053367973

fc2.bias f4 [128]
0	0xbd62b6eb	-0.055350225
1	0xbd880834	-0.066421896
2	0x3c611c87	0.013739712
3	0xbb88ad90	-0.004171081
4	0x3da3635e	0.07977937
5	0x3d614d05	0.055005092
6	0x3d85110c	0.06497392
7	0x3d16ec57	0.036846485
8	0x3db301ff	0.08740615
9	0x3c0cae91	0.008586542
10	0xbbc0a392	-0.005878874
11	0x3d2e00ee	0.042481355
12	0xbceee98e	-0.029164102
13	0x3d6858a5	0.056725163
14	0x3c3356a5	0.010945951
15	0x3c6cf584	0.014462832
16	0x3dad956d	0.08475766
17	0x3d909d61	0.07061268
18	0x3c7c4648	0.015397616
19	0xbd8e399a	-0.069445804
20	0x3d97a1af	0.074038856
21	0xb96459e0	-0.00021777255
22	0xbd8bc90e	-0.068254575
23	0xbd4329e1	-0.04764736
24	0x3d4927df	0.04911029
25	0x3dba2a9d	0.09090159
26	0x3c11909b	0.008884574
27	0xbdafae07	-0.08578115
28	0x3d29e83f	0.041481253
29	0xbd83f5ae	-0.06443344
30	0x3d85198a	0.06499012
31	0xbd062422	-0.032749303
32	0xbdcf5ec8	-0.101255
33	0xbd3d647c	-0.046238407
34	0x3db074ac	0.086160034
35	0xbd2095fb	-0.039205533
36	0xbd3d78e7	-0.04625788
37	0x3d856088	0.065125525
38	0xbc039e1f	-0.0080333045
39	0xbcf264fd	-0.02958917
40	0x3d75e107	0.060029056
41	0x3d837046	0.06417899
42	0xbda5e6bd	-0.081006505
43	0xbd14051c	-0.036137685
44	0xbd148f2a	-0.036269344
45	0x3bd65dac	0.0065419283
46	0xbda4c778	-0.08045858
47	0x3d418535	0.047246177
48	0xbd7aafa3	-0.061202656
49	0xbd718f13	-0.058974337
50	0xbd6cc638	-0.057806224
51	0xbcc99107	-0.024605287
52	0xbd05cbe0	-0.032665133
53	0xbd1c76b7	-0.038199153
54	0x3d8d4e5d	0.06899712
55	0x3d3ecbdd	0.046581138
56	0xbd24f7ea	-0.04027549
57	0x3d2fa74e	0.042884164
58	0xbd92076e	-0.07130323
59	0xbd72ae1c	-0.059248075
60	0xbc12490a	-0.008928547
61	0x3d9afbf5	0.07567588
62	0xbcf31af4	-0.029675938
63	0xbd8f1e14	-0.06988159
64	0xbd31a4f2	-0.043370195
65	0x3d8ed139	0.069735
66	0xbcca56d5	-0.024699608
67	0x3c142dd0	0.009044126
68	0xbca5ba0a	-0.020230312
69	0xbd2479fe	-0.040155403
70	0xbc5eed8c	-0.01360644
71	0xbb795408	-0.0038044471
72	0xbd9302b2	-0.071782485
73	0x3d25cb5e	0.04047715
74	0xbba1d68c	-0.004938906
75	0xbd9a09b0	-0.07521379
76	0xbdbff520	-0.09372926
77	0x3d3b0170	0.045655668
78	0x3d90afe3	0.07064798
79	0xbdb3ddd8	-0.08782548
80	0xbd184251	-0.03717262
81	0xbcb7e25e	-0.022446807
82	0x3d79bc93	0.060970854
83	0x3ce48620	0.027895987
84	0x3d315815	0.043296892
85	0x3dcd7681	0.100323685
86	0xbda7ac30	-0.08187139
87	0xbd1b5309	-0.037920985
88	0xbbf80024	-0.007568376
89	0xbc627ac5	-0.013823216
90	0xbdb60e81	-0.08889485
91	0xbd0baf13	-0.03410251
92	0xbd58bf86	-0.052917026
93	0xbc4de64f	-0.012567117
94	0x3d08dfa0	0.03341639
95	0x3cfff5db	0.031245163
96	0x3d8e76f6	0.06956284
97	0x3cd7e483	0.02635408
98	0xbc8672fb	-0.016412249
99	0xbd91891f	-0.07106232
100	0x3d3d71cc	0.046251103
101	0x3da737b4	0.081649214
102	0xbd8d555a	-0.06901045
103	0x3d324acc	0.043528363
104	0xbd657a33	-0.05602474
105	0xbdb0b84f	-0.08628904
106	0xbd829e5b	-0.0637786
107	0x3dc03b90	0.09386361
108	0xbd8ce57a	-0.06879707
109	0xbd7f78f4	-0.06237121
110	0x3d0af4da	0.033924915
111	0x3d8a5845	0.06755117
112	0xbda3857f	-0.07984447
113	0x3d35e694	0.04440935
114	0x3c8d1dc7	0.017226113
115	0x3db35343	0.08756115
116	0xbd952f0b	-0.07284363
117	0x3c2171a3	0.009853753
118	0x3a862114	0.0010233247
119	0xbd8d1bfe	-0.06890105
120	0xbda792c1	-0.08182288
121	0xbd2c3d24	-0.042050496
122	0xbd3910ae	-0.045181923
123	0xbd5bf4b3	-0.05370016
124	0xbd98e367	-0.074652486
125	0x3d9f33c8	0.07773548
126	0x3b2b61ed	0.0026150898
127	0x3d9c8933	0.07643356

prob.weight f4 [4, 128]
0	0x3d86203c	0.06549117
1	0x3d0517c7	0.03249338
2	0x3c83220d	0.016007448
3	0xbd246ca7	-0.04014268
4	0x3d31c394	0.04339941
5	0xbd5c5c3c	-0.0537989
6	0xbd2f8f51	-0.042861287
7	0xbdaef8b8	-0.08543533
8	0xba41d8fa	-0.0007394698
9	0xbd9334d0	-0.071878076
10	0x3d0abc48	0.033870965
11	0x3cd5b266	0.026086044
12	0x3d772a55	0.060343105
13	0x3d1001a9	0.035157833
14	0x3cdd3c3e	0.027006265
15	0x3d03590d	0.032067347
16	0xbd337adc	-0.04381834
17	0xbda19b9f	-0.078910105
18	0xbd270471	-0.04077572
19	0xbd74e572	-0.05978913
20	0x3d71b93e	0.05901455
21	0xbd79e76a	-0.06101171
22	0x3d0e7618	0.03478059
23	0x3dc7ad8f	0.097499005
24	0x3ca36002	0.019943241
25	0x3c177469	0.009244063
26	0xbbd5870d	-0.0065163434
27	0x3d0d46e0	0.03449142
28	0xbcb86866	-0.022510719
29	0xbd93fdaa	-0.07226117
30	0xbda66eab	-0.08126577
31	0xbd805247	-0.06265693
32	0xbd403fbf	-0.046935793
33	0xbd4de021	-0.050262574
34	0xbd36265c	-0.044470176
35	0xbd4655f5	-0.04842182
36	0x3d96b113	0.07357993
37	0xbd81c4f0	-0.06336391
38	0x3c947adb	0.018124988
39	0xbd6f8538	-0.058476657
40	0xbd82d5e3	-0.06388452
41	0xbd3a4614	-0.045476988
42	0x3c4d390d	0.012525809
43	0xbdaf2c2e	-0.085533485
44	0x3bff77e5	0.007796275
45	0xbd926013	-0.07147231
46	0x3da6ce23	0.08144786
47	0x3cdf6608	0.027270332
48	0x3d0c61a7	0.034272816
49	0x3d2e786d	0.042595316
50	0xbd4682b3	-0.04846449
51	0xbd9c1413	-0.07621016
52	0x3d8b739e	0.068091616
53	0xbc34051c	-0.010987546
54	0xbd38bd05	-0.045102138
55	0xbca70f41	-0.020393016
56	0xbbe884b0	-0.0070958957
57	0xbce0a2e7	-0.027421428
58	0xbc6c0b2b	-0.0144069595
59	0xbd447924	-0.04796709
60	0x3d0f8144	0.035035387
61	0x3cbb02bc	0.022828452
62	0x3cddfdf1	0.027098628
63	0x3d9843c4	0.074348
64	0x3bd51916	0.0065032346
65	0xbce25d03	-0.027632242
66	0xbd4ddd55	-0.050259907
67	0x3bfe7949	0.007765923
68	0xbd8853c7	-0.06656604
69	0xbdeaf8e3	-0.114732526
70	0x3ce6fb7b	0.028196087
71	0xbd7b2a7e	-0.06131982
72	0xbb91bdcd	-0.004447675
73	0x3d015080	0.03157091
74	0xbc3a9a5c	-0.011389341
75	0x3d71540a	0.058918037
76	0x3d3ecefa	0.046584107
77	0x3cc4728a	0.023980398
78	0x3c557b17	0.013029835
79	0xbd4539ef	-0.048150953
80	0x3d56bf42	0.05242849
81	0x3d856bf1	0.06514729
82	0x3d3bc921	0.04584611
83	0xbc90cf6e	-0.017677035
84	0x3cb77c7f	0.022398232
85	0xbd8995c4	-0.06718019
86	0x3ba58324	0.0050510336
87	0xbd3c673f	-0.0459969
88	0x3c84a122	0.016190115
89	0x3d261189	0.040544067
90	0x3b32b14b	0.002726632
91	0xbda11817	-0.07865923
92	0xbc6c093c	-0.0144064985
93	0xbd5d01c2	-0.053956755
94	0x3d8c244e	0.06842862
95	0x3d52f9e0	0.05150783
96	0x3baadc7c	0.005214272
97	0xbb9f59f8	-0.00486302
98	0xbd322551	-0.04349262
99	0x3d8d4a26	0.06898908
100	0x3c41c97e	0.011827825
101	0xbc8d0709	-0.017215269
102	0x3c4b48ff	0.01240754
103	0xbcfa8b5c	-0.03058403
104	0x3cc88a62	0.024480049
105	0x3d882537	0.06647723
106	0x3d126d3b	0.0357487
107	0xbdb45545	-0.08805326
108	0x3d13da76	0.036097012
109	0x3dc07645	0.09397558
110	0xbd69e52c	-0.05710332
111	0xbd06e6af	-0.03293484
112	0xbcf55c14	-0.029951133
113	0x3b033177	0.0020018497
114	0xbd9d70fa	-0.07687564
115	0xbcf3ba2e	-0.029751863
116	0xbc244921	-0.010027201
117	0x3d8b8169	0.068117924
118	0xbd5bccc8	-0.05366209
119	0xbd2fbe78	-0.042906255
120	0xbd3c75ae	-0.046010666
121	0xbce2c9dd	-0.027684147
122	0xbc2a37d2	-0.010389285
123	0x3cc6de73	0.024275994
124	0x3d9cc2c6	0.076543376
125	0x3d1a2092	0.037628718
126	0x3cf98478	0.030458674
127	0x3cccd4ef	0.025003878
128	0x399799e1	0.00028915613
129	0x3d97d850	0.07414305
130	0x3df6925b	0.12039634
131	0xbd76dc70	-0.06026882
132	0x3db3bee9	0.087766476
133	0x3cdbd495	0.026834765
134	0xbc541c8a	-0.012946257
135	0xbda3059c	-0.07960054
136	0xbdb6e2e6	-0.08929996
137	0x3abbf106	0.0014338798
138	0x3c9413bf	0.018075822
139	0x3cfddc94	0.030988969
140	0xbc46e9ba	-0.012140686
141	0x3b90f789	0.0044240397
142	0x3d6d1f66	0.057891272
143	0x3d7cb82d	0.06169908
144	0xbc517934	-0.012785245
145	0xbda4287f	-0.080155365
146	0x3cc84d14	0.024450816
147	0xbda2cb14	-0.0794889
148	0x3b43d156	0.0029879413
149	0xbca23966	-0.01980276
150	0xbd5059e8	-0.05086699
151	0x3c7dc12e	0.015487952
152	0x3d6edade	0.058314197
153	0xbc9ba22a	-0.018998224
154	0xbd93ccb1	-0.07216776
155	0x3d18970d	0.03725343
156	0xbd3a7e27	-0.045530465
157	0xbd941b83	-0.0723181
158	0x3d9ea728	0.07746726
159	0x3d9ab57f	0.07554149
160	0x3cfcaf5c	0.030845337
161	0x3c557270	0.013027772
162	0x3d7f7d08	0.0623751
163	0xbd30a053	-0.043121647
164	0x3d618702	0.055060394
165	0xbd345b34	-0.04403229
166	0xbd178605	-0.036993045
167	0xbda56e58	-0.08077687
168	0xbd5f7c76	-0.054562055
169	0xbd8d6107	-0.06903272
170	0xbd93c7e1	-0.07215858
171	0xbd85a1bd	-0.0652499
172	0xbd4c3a4e	-0.04986029
173	0xbdadf7cb	-0.084945284
174	0xbb89c5e9	-0.004204501
175	0xbcb2705a	-0.021782089
176	0x3d457d38	0.04821512
177	0x3d6ceaff	0.057841297
178	0x3d5bed1e	0.05369293
179	0x3cf9cf76	0.030494433
180	0xbd8abc9d	-0.067742564
181	0x3d21bcd3	0.039486717
182	0xbda0a3fb	-0.07843777
183	0x3dc7be44	0.09753087
184	0x3cb8fb22	0.022580687
185	0x3d06aae2	0.03287781
186	0x3d74c9e9	0.05976287
187	0x3c999525	0.018747875
188	0xbd9a6f46	-0.07540755
189	0xbd2437f2	-0.040092416
190	0x3bbe5d25	0.0058094435
191	0x3dce0d22	0.10061099
192	0x3bf47043	0.0074596717
193	0x3dcda7b4	0.100417525
194	0x3d98a441	0.07453204
195	0x3d9b8893	0.07594409
196	0xbad3e585	-0.0016166425
197	0x3cdf12d9	0.027230667
198	0xbd196f45	-0.03745963
199	0x3c52d489	0.012868055
200	0xbd43342c	-0.047657177
201	0xbd2fbc03	-0.04290391
202	0x3c88157b	0.016611805
203	0xbd0049db	-0.031320434
204	0x3ba3b3fa	0.00499582
205	0xbcfce97f	-0.030873058
206	0x3d98d80c	0.07463083
207	0xbd3e6784	-0.04648544
208	0xbda2cba8	-0.079490006
209	0x3ce35e42	0.027754907
210	0x3ca86f6c	0.020560943
211	0x3d948466	0.072518155
212	0x3dacadaf	0.08431565
213	0x3d15fbea	0.036617197
214	0xbcdf5603	-0.027262693
215	0xbb95c9b1	-0.0045711626
216	0x380ba6ba	3.329546e-05
217	0xbca4dd4d	-0.020125056
218	0x3cf828c1	0.03029287
219	0x3977f2eb	0.0002364625
220	0x3d81ec7d	0.06343935
221	0x3dbbc1ed	0.09167848
222	0xbdb1d1e0	-0.086826086
223	0x3b77792c	0.0037761433
224	0x3dcd04d7	0.10010689
225	0xbd992b96	-0.074790165
226	0xbd8c8216	-0.068607494
227	0xbd0a586a	-0.033775724
228	0x3d7dfcc4	0.062008634
229	0xbd806f00	-0.062711716
230	0x3caafed3	0.020873463
231	0xbd69b9e6	-0.057062052
232	0x3ba3b857	0.0049963403
233	0xbd4be305	-0.04977705
234	0x3dbc5a30	0.091968894
235	0x3ddf4e69	0.109036274
236	0x3d23fce0	0.040036082
237	0xbd86cf01	-0.065824516
238	0xbc77f94b	-0.01513512
239	0xbc862ab0	-0.016377777
240	0xbd55bd79	-0.05218265
241	0x3c985a7a	0.01859783
242	0x3d0929a7	0.03348699
243	0xbd341c3d	-0.043972243
244	0x387add32	5.981065e-05
245	0x3d77da9e	0.060511224
246	0x3d8ef452	0.06980194
247	0x3c2d2b95	0.010569473
248	0xbbfce513	-0.0077177375
249	0x3da65277	0.08121198
250	0xbc07c10a	-0.00828577
251	0xba7d5110	-0.00096632633
252	0xbd79c05b	-0.06097446
253	0x3c58aa49	0.013224193
254	0xbc38479b	-0.011247541
255	0xbd693180	-0.056931973

prob.bias f4 [4]
0	0xbd111314	-0.035418585
1	0xbd12174c	-0.03566675
2	0xbd0cf519	-0.03441343
3	0x3caa2b6b	0.020772656
