bs/game/checkpoints/Reinforce_discrete/Reinforce_policy_1500.pth (torch_old, 73748 bytes, 6 tensors)

fc1.weight f4 [128, 8]
00000000: 95ae 68be cd67 893e 1763 73be 5bd1 b73e
00000010: 9337 94be 0d50 993e d75c 8c3d c9e4 773c
00000020: 241c 233e 87a4 e6bd 92ef 4d3e cd6f 983e
00000030: c698 93be 84c1 dabd 9e71 243e be62 b73d
00000040: 2553 b9be dd8b 97be b3e3 993c dd38 c23c
00000050: c15b abbe 1af5 e53d 30ea c9bd f32d bdbc
00000060: cb0c 7c3e 79ab 9a3c 3198 c63d fe4d b0be
00000070: 70a2 87bd f8c4 aa3e 3b19 153d 44bf 013e
00000080: 57c0 76be b96c aabd 46c3 f7bd 4ffc 91be
00000090: 2d1f f2bd c659 843d 0214 aebe 4d13 a2be
000000a0: 18b0 66be dcd7 92be 6676 d03d 2237 87be
000000b0: 5e7a 98bc 2141 133d 6664 f83d 0b44 52bd
000000c0: 8b3f 43be 98b7 83bd 5cca 13be 814a b23e
000000d0: c16f 99be a226 cc3d f0b7 623d dd6a b3be
000000e0: 60e1 ad3e cc46 c13c 7480 c03e b218 5d3e
000000f0: 300c c4be 194f 7dbe 826f a93e b8a8 4dbe
00000100: 96e9 86be 556d 0d3e b374 a13e 118a babd
00000110: 95d1 9fbe 9b70 c03d 3407 11bd e381 0ebe
00000120: e71f 273e f53b e7bd 7db4 51be 8120 ce3d
00000130: 9008 713e 3a23 ce3d bc3e a3be 70ec bd3c
00000140: ea41 dd3d 4eb3 abbd 5bed 1abe 5802 123e
00000150: 84f6 d73d 8fed a3be 318c c23d 0f27 4d3e
00000160: 4b0a 3c3d f5ce 6cbe 9cd3 3cbd 589b 0f3e
00000170: d53a b13e 4662 8b3c 8ca3 aebe ff21 cb3d
00000180: 1d47 82be ad2c 1ebe ce14 01be 822f 82be
00000190: 0bb7 d6be 6ad5 8cbd 5829 843d fd7b 3c3d
000001a0: 2c8e 7fbe ae0c 9b3e 5432 a13e eb10 1b3d
000001b0: a848 b3be a6a3 343e 510a 21be 051d c73e
000001c0: 1236 99bd 25c7 61be 728b 75be d53b 893e
000001d0: b326 e2bd c7a2 803e 89c6 16be f35c 113d
000001e0: cadb 38be 27a7 90be 1800 77be ab12 103c
000001f0: 1ee9 3d3d 4d43 393d e9cc 473d 618d 403d
00000200: 8666 abbe cc3e b6bd de0d 43bc 3e6c 873e
00000210: aaff 34be 9f73 353e cf6c 673e 4844 22be
00000220: faf2 dabc 61ce c1bc fe0b 1bbe a97a 1cbe
00000230: 9965 80be fe20 a93d 24b5 1a3e 5337 35bd
00000240: 4077 4a3e 9d1b 96be debe a3be 64fd 943e
00000250: eaad 973e 8658 d53d 0e52 3e3e 189b 97be
00000260: e484 a1be 6f26 79be 52d2 babd f794 99be
00000270: 35fc 83be 9060 08be 92f9 2abd 98ef acbe
00000280: e222 f4bd d942 363e 0d5d 2d3d cd5c 943e
00000290: 78ae a33d 4711 623e 7a86 9abe d023 3dbe
000002a0: bb45 9bbd 1c1a 75be aa39 5fbd 7897 4dbc
000002b0: b84d b3be 5219 81bd cbc9 8d3c e645 6c3e
000002c0: 217b d3bd 6e7c 4ebd a371 71be 4ec3 883e
000002d0: 33be 1d3e 49cb b9bd 4d68 6d3e 44b7 6e3e
000002e0: 3688 ebbd 1afc 403e 1539 ccbd fc54 94bd
000002f0: 8ca2 42be 6fc8 8f3e beda 9e3c b95c 293e
00000300: c75a 23bd c7f8 113e ccf5 723e 7d11 babe
00000310: ee42 023e 6a4b 84be 50ed 42be c66d 53be
00000320: 5bad a83e 5545 92be c12b a03d e19d efbd
00000330: c31e 3ebd a170 3d3e 966d ac3e b3b9 633e
00000340: 4ade 88be 6ab3 983e fbfd 20ba ad63 6d3d
00000350: 18f6 893e 0bdd c9bc 2af5 993e 4e5c afbe
00000360: 9ad1 b9bd 9179 2c3e b0dd 0ebe 59e1 20be
00000370: 6fab 99bc 77ff b5be 4ab6 443e e5c3 ae3e
00000380: f620 073c d4d5 05be ed71 9abd c03c 01be
00000390: 3d68 603e 0674 72bd e9f1 8c3c ca69 1e3e
000003a0: b76e 87be 9494 96be ca9a f13d 7372 983e
000003b0: 9a84 223e 1826 fe3d 77a8 293e d457 713e
000003c0: 39bf 9ebe 9342 91be d040 c93d 92a1 b73e
000003d0: 586e 883d 6f32 c83b 0dc8 b83d a3a6 6dbe
000003e0: b9ea 67be 14e7 67be 46b7 ae3e 6740 b23c
000003f0: ee68 be3c 4c01 863e 5be0 6b3e 6131 10be
-0.22722848 0.26837006 -0.23768269 0.35901913 -0.2894865 0.29943886 0.06853645 0.01513023
0.15928704 -0.1126185 0.2011092 0.29772797 -0.28827494 -0.106814414 0.16058967 0.089543805
-0.36196247 -0.29598895 0.018785333 0.023708755 -0.3346844 0.1122839 -0.09859121 -0.0230932
0.24614255 0.018880593 0.09696997 -0.34434503 -0.06622779 0.333534 0.036401015 0.12670618
-0.2409681 -0.083215185 -0.12097792 -0.2851281 -0.118223526 0.064624354 -0.3399964 -0.3165535
-0.22528112 -0.28680313 0.10178833 -0.2640925 -0.018613037 0.035950784 0.121285245 -0.051334422
-0.19067208 -0.06431502 -0.14432663 0.34822467 -0.29968074 0.09968306 0.055351198 -0.35042468
0.3396101 0.023593329 0.37598002 0.21591452 -0.38290548 -0.24737205 0.33092886 -0.20083892
-0.26350087 0.13811238 0.31534347 -0.09108365 -0.31214586 0.09396478 -0.03540726 -0.13916735
0.16320764 -0.11290733 -0.20479007 0.100647934 0.23538423 0.10065313 -0.318838 0.023184031
0.10803588 -0.08383809 -0.15129606 0.14258707 0.10545066 -0.3201718 0.09499396 0.20034431
0.045908254 -0.23125823 -0.046100244 0.14024103 0.34615198 0.017014634 -0.3410915 0.099185936
-0.2544488 -0.1544673 -0.12605593 -0.2542687 -0.41936526 -0.06876643 0.06453198 0.046016682
-0.24956578 0.3028311 0.3148371 0.03785793 -0.3501637 0.17640552 -0.15726592 0.38889328
-0.07481016 -0.22048624 -0.23978975 0.2680346 -0.110425375 0.2512419 -0.14724173 0.035489034
-0.18052593 -0.28252527 -0.2412113 0.008793513 0.046364896 0.0452302 0.048779402 0.04700983
-0.33476657 -0.08898696 -0.011905162 0.2644977 -0.17675653 0.17719887 0.22600101 -0.1584636
-0.026727188 -0.02365798 -0.15141293 -0.15281166 -0.25077513 0.08258246 0.15108162 -0.044242214
0.19772053 -0.29317942 -0.31981558 0.29099572 0.29624873 0.10417275 0.18585989 -0.29610515
-0.315467 -0.24331068 -0.09122147 -0.29996464 -0.25778356 -0.13318086 -0.041741915 -0.33776546
-0.11920716 0.17798938 0.04232507 0.2897705 0.07992262 0.22076903 -0.30180722 -0.18470693
-0.075816594 -0.23935741 -0.054498352 -0.01254832 -0.35020232 -0.063036576 0.017308136 0.23073539
-0.10326219 -0.050411634 -0.23578505 0.26711506 0.15404586 -0.09071977 0.23184319 0.23312098
-0.115005895 0.18846169 -0.09971825 -0.07242772 -0.19007319 0.28082606 0.019391414 0.16539277
-0.039881494 0.14255057 0.23726577 -0.36341467 0.12720844 -0.25838786 -0.1903584 -0.20647344
0.3294476 -0.2856852 0.078208454 -0.11700035 -0.046416055 0.18499996 0.33677357 0.22238807
-0.26732093 0.29824382 -0.00061413617 0.057956386 0.26945567 -0.024641534 0.30069858 -0.3425011
-0.090731815 0.16843249 -0.13951755 -0.15710963 -0.018758504 -0.35546467 0.19210163 0.3413383
0.008247605 -0.1306985 -0.07541261 -0.1262083 0.21914764 -0.05919268 0.017205196 0.15470043
-0.26451656 -0.2941023 0.11797102 0.29774818 0.15870896 0.124096096 0.1656817 0.2356866
-0.31005266 -0.28371105 0.09826815 0.35865456 0.066616714 0.006109528 0.09022532 -0.23208098
-0.22648133 -0.22646743 0.34124202 0.021759225 0.023243394 0.26172864 0.23034804 -0.14081337

fc1.bias f4 [128]
00000000: 4e62 083e 4344 d93d 29f7 10be 0f06 93be
00000010: a48c 9d3d 3b6f 5ebe a6eb ea3c 1b6b bd3d
00000020: 5b7c 073e 06a5 a7be d05a 94be 3d8d 05bd
00000030: 0bf5 ab3e e5e8 3f3e 7bc9 6f3e 16d9 94be
00000040: 2c83 0dbe 5853 5b3e e89b 743e ec8a 33be
00000050: 3605 b1be 82b2 1b3e edc0 78be fc0e 743e
00000060: 15fd 98be 317f 14be d452 89be a99d 57bd
00000070: f01f 3e3e b0d3 2f3d 42ab a7be 3c53 c4bc
00000080: aa1a 873e 2e31 82be 584b 88be 72c4 473e
00000090: 8eba e6bd a328 77be 5d36 96bd 78bf a4be
000000a0: 2e5f bcbe 2511 b33e 4712 283e db1c fabd
000000b0: 614e b03c fdff 1c3e f4a8 b03e fd99 8a3e
000000c0: 50c1 1f3e 74f9 05be 299e 91be 031a a13e
000000d0: f091 a2be de26 2d3e eaf2 663e 4690 f6bc
000000e0: cdc8 86be b60d b83e 14cf 19be 1272 683e
000000f0: 8a33 453e 25b7 9fbb da13 973d 27ca a53e
00000100: d88e 89be 00ab a2be 0c79 3dbe 3d7c 513d
00000110: 4b24 96be 49cf 11be f405 813e e32c 4e3e
00000120: 43c7 d4bd bcb5 2fbe 0668 8fbd d0ab 393e
00000130: 67a5 4e3e e3ab 31be 9f87 06be 25cc 823e
00000140: fc88 a2bd b050 06be 01fb 04be a2ca aebe
00000150: bfca 6d3e d53c 4cbe 10b4 a7be 2758 91be
00000160: 8fee 8abe 68bb f83d 299b 6cbe 9124 1e3d
00000170: 605d debc a87c 7e3d d9d7 9dbe f2b9 9cbe
00000180: 4903 b8be 5cdd a4be 467d 243e 1c44 813e
00000190: d77f a43e 7c05 09be d2a8 713e 48a8 a3be
000001a0: 3ec3 a5be 4e95 df3c b082 91be e5f2 5dbd
000001b0: b5c9 a33d 45b4 583e fd4b 243d d0a3 25be
000001c0: 3d2a 81bd e42d 96be 1926 afbe 144c b53e
000001d0: 2a70 a53e 60ae 043e 9711 ecbd 19ca 853c
000001e0: a4ef 55be 4064 67be f744 49bd c9fe 95be
000001f0: e475 00bc 3e8e 7d3e e2e3 4e3e 163e 573e
0.1331875 0.10608723 -0.14156784 -0.2871556 0.07692841 -0.21722119 0.028676819 0.09248944
0.13231032 -0.3274309 -0.28975534 -0.0326054 0.3358539 0.18741186 0.23416702 -0.29071873
-0.1381957 0.21418512 0.23887599 -0.17533463 -0.34574288 0.15204814 -0.24292345 0.23833841
-0.29880586 -0.14501645 -0.26821005 -0.05264059 0.1856687 0.04292649 -0.32747847 -0.02396547
0.2638753 -0.25428146 -0.26619983 0.19508532 -0.11266051 -0.24136595 -0.07334588 -0.3217733
-0.36791366 0.34974018 0.16413222 -0.12212535 0.021521749 0.15332027 0.345039 0.2707061
0.15601087 -0.1308344 -0.2844098 0.31465158 -0.31751966 0.16909358 0.22553602 -0.030098092
-0.26325074 0.3594796 -0.150204 0.22699764 0.19257942 -0.0048741275 0.07376833 0.32380792
-0.26866794 -0.31771088 -0.18503207 0.051143873 -0.29324564 -0.1423923 0.25199854 0.2013431
-0.10389569 -0.1715917 -0.07002263 0.18131948 0.20180283 -0.17350726 -0.13137673 0.25546375
-0.07936284 -0.13116717 -0.12986375 -0.34138972 0.23221873 -0.1994508 -0.32754564 -0.28387567
-0.2713513 0.1214512 -0.23106064 0.03860909 -0.027144134 0.0621306 -0.3082874 -0.30610615
-0.35940006 -0.32200134 0.16063413 0.25247276 0.32128784 -0.13380998 0.23599556 -0.31964326
-0.3237552 0.027292874 -0.2842002 -0.05418672 0.07997457 0.21162517 0.04011153 -0.16175771
-0.063068844 -0.29331887 -0.34208754 0.35409606 0.32312137 0.12957144 -0.115267925 0.01633172
-0.20892197 -0.22596836 -0.049138036 -0.29295948 -0.007840607 0.24761292 0.20204118 0.21019778

fc2.weight f4 [128, 128]
00000000: 735c 32bd 2703 83bd 2111 9abd ff75 613d
00000010: 0857 92bd 0ccd 863d 2283 7f3d 2bb0 313d
00000020: b4de bc3b 6127 a43c 4c6a 8fbd d705 ed3c
00000030: 6c5b c23c c100 b1bd f7fa 8fbc bdb7 b63c
00000040: 8602 d8bc 8789 563d 6d27 b6bc 3be3 033d
00000050: 4981 123d 2a15 7e3d 2949 b4bd bdf7 cf3c
00000060: 6aa3 1fbd f9f7 b0bc e702 333d d93e b2bd
00000070: 5df7 f53b 7817 b0bd e2ef 793d dda2 883d
00000080: bc40 d5bc e647 503d 7dc0 3f3d 264c c2bc
00000090: a908 35bd 4ac1 1d3d e877 b0bc 4fc1 833d
000000a0: 4208 a9bc c089 b4bd c3b9 afbd 421a 32bd
000000b0: b6ed e73c 7b12 76bd 9a20 37bb 6f32 62bd
000000c0: 8105 603a 4a46 efba 3495 a63d c634 013d
000000d0: 6f81 69bd 63dc a8bd 44d7 5ebd 7c1a 363d
000000e0: 52f4 84bd 66bc 7abd abab 1abd cf76 6bbd
000000f0: ab75 cb3b 5427 5bbc 5960 3dbd e721 07bd
00000100: 3838 523d f6f4 833d 4201 47bb 896c 703d
00000110: a760 8b3c 08d9 b0bd 042e 3f3c a709 8f3d
00000120: 8028 453b ab28 89bd 3b16 693d ebc2 883d
00000130: f31e 87bd b90a 463d dda7 663d 1788 723d
00000140: 415f 013d 2f60 bcbd 6354 993d 2e77 bfbc
00000150: 4e6c 5cbd ea0c bdbc 37de a73d 74cb 583d
00000160: 4424 d03c 5a83 bfbd 37ec a0bd ae84 9b3d
00000170: c439 803d e0b6 99bb 541f 6e3c d311 423c
00000180: 671f 1f3d 3b83 9a3d a6d6 87bc 1d8d 86bd
00000190: 2e9c b23c 50c5 34bc 431f 313d c65d 8fbd
000001a0: 825e 2ebd 9f27 a4bd a7e5 7cbd f9f4 7ebd
000001b0: 4851 89bc f0f1 7d3a 8a3a 6f3d 1ef6 a73c
000001c0: 2a4f 6bbd f294 e4bc bf57 7dbc da8f 803a
000001d0: 6ed3 333d a1d6 b4bd d218 5cbd bc9e 94bd
000001e0: 5fd1 1dbc eb0e 33bd 4176 5d3d 4f51 ea3c
000001f0: 1abd 993d e5c2 083d 603e 403c c6b6 0d3d
00000200: 76c9 403d b2d6 e8bc 592e 1c3d efc8 83bd
00000210: f1c4 c5bd 22d7 b7bd 0606 323d 8074 873d
00000220: 0dc2 453d 6295 be3d d923 9a3d 0864 a43d
00000230: 33ba 8c3b 1929 07bc 10a9 e4bc 1d1c 82bd
00000240: 481c 89bd 1b06 6ebc db50 01bb 2515 c5bb
00000250: 8cfa 90bc 2a51 9f3d 7687 8b3d e9a0 d2bc
00000260: 7bea 6dbd f25d 933d b69f 4c3d f3e6 413d
00000270: 4320 01bd dad2 853d 29eb 5b3d 216a ca3c
00000280: aa92 b8ba 172d 1ebd 5e9a 7f3d a257 793c
00000290: 3c79 7dbd b24d 07bd b15f 3abd cb45 35bd
000002a0: b4bc f63c b778 c33c d856 0fbc b46e a8bd
000002b0: f1fa ffbc 1f6d 89bd 3007 02bd 02d4 8f3d
000002c0: 1cb8 9bbd 4123 dbba 7bce 7dbd 65b3 1dbd
000002d0: f93e 9b3d c55e 0fbd 0d84 a83d 53bf b83d
000002e0: aba5 77bc 338f b1bc b6db b7bc 45ae a43d
000002f0: 4040 e73c 397c a53c 6981 bcbb eb5f 88bd
00000300: 631b 77bc 32ef 3cbd d893 1bbc d37d 043d
00000310: 2458 cabc 5172 f1ba fed3 603d dd61 bbbd
00000320: aacb fd3c 4d81 783b aff8 5ebc 1b70 8eb7
00000330: 5f46 6bbc 6b0a 1c3d 5c5c 8fbd 3ccf 753d
00000340: b441 a3bb 293b 113d a052 4abd fe9c 873d
00000350: 7ea0 67bd 8811 cc3c b833 b3bd 9a2b 6bbd
00000360: 188a 373d b429 6fbd 12ac 303d bf94 bd3d
00000370: b69d cbbc eb1b 6f3d a5d9 9f3d 1694 053d
00000380: 1516 57bd 65f0 323c a60f e2bc e655 a03d
00000390: d85a 503c 3137 373d 1c67 623d b5db 2ebd
000003a0: 4ca4 333b 8a84 1c3c d24e 7f3d b7a5 033d
000003b0: fdf3 8f3d f027 923d 6138 2bbd 02ba 0f3d
000003c0: da96 2fbd 0b0d 943d e892 6fbd a071 113c
000003d0: 80bc 123d 520e 5bbc 36e1 c13d 74ec 0f3d
000003e0: df4f 903d ac38 01bd 4616 1fbc 67d6 8e3d
000003f0: 27c1 d339 0ed7 913d e133 22bd 298c ffbb
-0.043545198 -0.06397086 -0.07522798 0.05504417 -0.07145506 0.06582078 0.062380917 0.043380897
0.005763853 0.020038309 -0.070026964 0.028933449 0.023725234 -0.08642722 -0.017575724 0.02230441
-0.02636839 0.05237725 -0.022235597 0.032199126 0.035767827 0.062031902 -0.08803017 0.025386686
-0.038974203 -0.021602618 0.04370394 -0.087033935 0.0075062946 -0.08598226 0.061019786 0.06671689
-0.026031844 0.050849818 0.04681443 -0.023717951 -0.044197712 0.038514413 -0.02154155 0.06433355
-0.02063382 -0.08815336 -0.08580353 -0.043482073 0.028311592 -0.060076218 -0.0027943016 -0.05522388
0.0008545742 -0.0018255201 0.08133927 0.03154447 -0.057008203 -0.082451604 -0.054404512 0.04445885
-0.06491913 -0.061214827 -0.03776137 -0.05748635 0.0062090955 -0.013376076 -0.046234462 -0.032991316
0.051323146 0.06443207 -0.003036574 0.058697257 0.01701386 -0.086351454 0.011668686 0.06984263
0.0030083954 -0.0669721 0.056905966 0.06677803 -0.065977 0.04835007 0.05631243 0.059211817
0.03158498 -0.09198033 0.074867986 -0.023372259 -0.053814225 -0.023077447 0.08196681 0.052928403
0.025407918 -0.09351225 -0.078575544 0.07593666 0.06261018 -0.00469099 0.014533836 0.01184507
0.038848307 0.075445615 -0.016581845 -0.06569884 0.021802988 -0.011033371 0.043242704 -0.07000308
-0.0425706 -0.080153696 -0.06174245 -0.062245343 -0.01676239 0.00096872356 0.058405437 0.0205031
-0.057448544 -0.027903054 -0.015462815 0.0009808496 0.043902807 -0.0883 -0.053734608 -0.07256839
-0.0096324375 -0.0437154 0.054067854 0.028603224 0.075067714 0.03338899 0.011733621 0.034598134
0.047067128 -0.028422687 0.038130138 -0.064348094 -0.09656704 -0.0897658 0.043462776 0.066140175
0.048280764 0.09305836 0.07526369 0.08026892 0.0042946576 -0.008249545 -0.027912647 -0.063530184
-0.06694847 -0.014527823 -0.0019732032 -0.0060144835 -0.017697595 0.07779153 0.068129465 -0.025711494
-0.058084946 0.07195653 0.049957 0.04733939 -0.031524908 0.06534357 0.053691063 0.02470881
-0.0014081795 -0.03861722 0.062403075 0.015218647 -0.061883196 -0.03303308 -0.045501415 -0.044256013
0.030119278 0.023861272 -0.0087487325 -0.0822424 -0.031247588 -0.06710266 -0.031745136 0.07022859
-0.076034755 -0.001671888 -0.061964493 -0.038501162 0.075803705 -0.03500249 0.08228312 0.09020867
-0.015115182 -0.021674728 -0.022443634 0.08041052 0.028228879 0.020200836 -0.0057527316 -0.0665892
-0.015082213 -0.046126552 -0.009495698 0.032346558 -0.024700232 -0.001842091 0.05488967 -0.09149525
0.030980904 0.0037918866 -0.0136090955 -1.6979922e-05 -0.0143600395 0.038095873 -0.07000038 0.060012087
-0.0049821977 0.03545681 -0.049395204 0.06621741 -0.05654954 0.024910703 -0.08750099 -0.05741463
0.04480943 -0.05838938 0.04313285 0.09256887 -0.024855476 0.058376234 0.07805184 0.03261193
-0.052511293 0.010921572 -0.027595352 0.07828884 0.012716971 0.04473037 0.055274114 -0.042689998
0.002741116 0.009553084 0.06233103 0.03214046 0.07028959 0.07136524 -0.041801814 0.0350895
-0.042868473 0.0722905 -0.05848971 0.008877188 0.0358243 -0.013370113 0.09466784 0.03513761
0.07046484 -0.031548187 -0.0097099 0.06974488 0.00040388966 0.071210966 -0.039600257 -0.007798691

fc2.bias f4 [128]
00000000: ebb6 62bd 7ce4 9abd 6fe8 833c df7b 393a
00000010: ed65 9b3d e0b1 513d 0c11 853d caa1 183d
00000020: 8be9 c03d f2bd fd3b eb6e aebb b8c0 3b3d
00000030: 6b45 16bd 525c 733d a9cd 103c 84f5 6c3c
00000040: 6f2d ae3d a197 9c3d 281d 753c df27 94bd
00000050: acc7 8d3d 06f2 ac39 400d 98bd 42b8 5bbd
00000060: d7f2 573d 255d b63d 52e0 1d3c 07ae afbd
00000070: 0502 213d e74e 9abd 8ffa 8a3d 2224 06bd
00000080: c85e cfbd 7c64 3dbd 361b b53d 7ffc 2cbd
00000090: cca8 5abd e49d 843d 1f9e 03bc f167 09bd
000000a0: 07e1 753d f6a1 953d bde6 a5bd 63ea 08bd
000000b0: 0130 0cbd 41fe f83b 78c7 a4bd 3701 2d3d
000000c0: 6bc8 7dbd 138f 71bd 38c6 6cbd 0791 c9bc
000000d0: 1728 0abd b776 1cbd 8fd2 8d3d 7004 503d
000000e0: d98a 07bd 4f18 303d 9c5d 8bbd 1cae 72bd
000000f0: 9b19 26bc 48f7 9a3d f41a f3bc 8c40 87bd
00000100: c631 31bd 981d 963d d556 cabc 0b4b 0f3c
00000110: 0aba a5bc 6b93 04bd 3ea0 8bbc c1c3 0ebc
00000120: b202 93bd 0074 273d b499 d939 db77 98bd
00000130: 55f0 bbbd 777c 373d 994d 853d aa85 b4bd
00000140: 3bb3 42bd 95b4 95bc eb79 693d 2afc d83c
00000150: 1558 313d b071 c53d 30ac a7bd 9e56 52bd
00000160: a385 d2ba 135c aabc 63ec bcbd d8a6 09bd
00000170: 86bf 58bd 4f52 b2bb 79c9 023d 6604 ed3c
00000180: 6ed0 8f3d f55d c03c d0e0 77bc 6b84 97bd
00000190: cc71 3d3d 3386 953d 4f29 93bd 60b7 353d
000001a0: 337a 65bd 4fb8 b0bd c364 95bd b76f c73d
000001b0: 3b07 91bd 4916 8abd daf4 0a3d 44de 843d
000001c0: b20d babd 265d 3a3d 8fb8 aa3c 10be c63d
000001d0: f9dd 94bd a371 213c e127 d239 a805 8fbd
000001e0: c192 a7bd 5901 3bbd 4f93 3cbd 3f71 56bd
000001f0: 67e3 98bd c94c 8c3d 23db fa3b e75f 9d3d
-0.055350225 -0.07563111 0.016102044 0.0007075648 0.075878 0.051195025 0.06497392 0.03726367
0.09419545 0.0077435905 -0.005323281 0.045838088 -0.036687296 0.059414215 0.008838096 0.014462832
0.085047595 0.076461084 0.014960565 -0.07234167 0.0692285 0.00032986718 -0.07424402 -0.05364252
0.052721824 0.08904485 0.009636002 -0.08578115 0.039308567 -0.07534581 0.067860715 -0.032749303
-0.101255 -0.046238407 0.08843081 -0.042232987 -0.053383633 0.06475428 -0.0080333045 -0.033546392
0.060029056 0.07306282 -0.081006505 -0.033426654 -0.034225468 0.007598669 -0.08045858 0.042237487
-0.06195871 -0.058974337 -0.057806224 -0.024605287 -0.03372964 -0.038199153 0.069249265 0.050785482
-0.0330914 0.042991932 -0.06804964 -0.059248075 -0.010137941 0.075666964 -0.029675938 -0.06604108
-0.04326036 0.07329863 -0.024699608 0.008745919 -0.020230312 -0.03236715 -0.017044183 -0.008713664
-0.071782485 0.04088211 0.00041503983 -0.074447356 -0.09176699 0.044796433 0.06508941 -0.08814557
-0.04753421 -0.018274585 0.057001036 0.026487429 0.043296892 0.09640825 -0.08187139 -0.051352136
-0.0016061555 -0.020795858 -0.09224775 -0.03360638 -0.052917026 -0.005441941 0.03193042 0.028932761
0.07022177 0.023482302 -0.015129283 -0.073983036 0.046251103 0.07300987 -0.07185613 0.044364333
-0.05602474 -0.08628904 -0.072946094 0.09738105 -0.07081457 -0.06742532 0.033924915 0.06487706
-0.090846434 0.04549899 0.020839958 0.0970422 -0.072689004 0.009853753 0.00040084033 -0.06983501
-0.08182288 -0.045655582 -0.046038922 -0.052354094 -0.074652486 0.06850583 0.0076555177 0.076843075

prob.weight f4 [4, 128]
00000000: 3c20 863d 4a23 0f3d 487a 333c ecb9 3bbd
00000010: fa5f 263d 90d0 5fbd 518f 2fbd aec2 b6bd
00000020: 2cac 72bc a816 91bd e9c1 0d3d 3639 ab3c
00000030: c8b9 743d 15a6 c03c 276c d53c 0d59 033d
00000040: 77d1 2ebd d03a bbbd 7a99 43bd cbde 80bd
00000050: 31b3 823d 61dd 85bd 8088 bd3c c705 bd3d
00000060: a497 513c 62a3 4c3c 8047 5bbc e046 0d3d
00000070: 1ecf f7bc 2c40 84bd cef9 bdbd 4752 80bd
00000080: bf3f 40bd 21e0 4dbd cc0a 3cbd 0419 34bd
00000090: ac60 943d 2b68 79bd db7a 943c c095 63bd
000000a0: e3d5 82bd f241 7ebd 0d39 4d3c f431 bfbd
000000b0: 6334 ea3b a7bd 90bd 23ce a63d 2d2f d63c
000000c0: 9de3 0d3d 6d78 2e3d b382 46bd 1314 9cbd
000000d0: b3bd 853d 1c05 34bc 9fd3 52bd 134b e6bc
000000e0: eda1 b0bc 619f e0bc a361 e8bc 2479 44bd
000000f0: d067 083d c202 bb3c f1fd dd3c 9fb5 9a3d
00000100: 831d 793b 16ca fcbc 55dd 4dbd b292 853b
00000110: c753 88bd ec14 07be c232 d03c 61a5 72bd
00000120: cdbd 91bb 8ebd f83c bffa aebc 9573 763d
00000130: 7d50 343d cb7e b13c 415f 863c 4acc 44bd
00000140: 2661 523d 96b3 883d 5aa0 3c3d edc1 9abc
00000150: 7f7c b73c 3203 8dbd 2483 a53b d46a 73bd
00000160: 232a fa3b 8e9c 1a3d 1b7c 923b 4d05 b8bd
00000170: 3c09 6cbc 443f 93bd 8288 883d 676d 4a3d
00000180: f15d ff3a 6cff e939 331c 2abd d26f 8b3d
00000190: 7ec9 413c 96a9 86bc 2e8d 663c 79b1 0dbd
000001a0: 628a c83c 3725 883d 485a 1e3d 3082 c2bd
000001b0: 921d 133d d199 b73d 2ce5 69bd e153 09bd
000001c0: 097d d4bc 85ed 42ba 2e6e b9bd a829 7ebd
000001d0: 3c4c 27bc 6981 8b3d 4b45 73bd ec87 33bd
000001e0: ae75 3cbd b1d5 fabc cfa4 2cbc f797 b73c
000001f0: c6c2 9c3d f295 233d f7c4 9ebb a159 b93c
00000200: e199 9739 55e7 973d 5817 043e 4c8c 99bd
00000210: cf85 a73d c6e4 f23c 8a1c 54bc 68b7 aebd
00000220: a539 c0bd c19c aa3b 0b7a 8e3c 7773 173d
00000230: 0aa7 dabb 9199 2f3c e7a6 703d 2db8 7c3d
00000240: edfc 15bc 675e aebd 6288 ae3c d113 a0bd
00000250: be09 463a e854 66bc c3c5 2ebd 6ae3 683c
00000260: 8450 8e3d a2ba 58bc 7dc2 91bd 0d97 183d
00000270: 08c4 3dbd 6f67 86bd 6a6a 873d 7fb5 9a3d
00000280: 5caf fc3c 7072 553c b99e 983d 57b0 29bd
00000290: 07fa 363d b0dd 7bbd 0586 17bd 7a25 a4bd
000002a0: 767c 5fbd c832 94bd e1c7 93bd 8b26 9cbd
000002b0: c650 4fbd a418 abbd e9c5 89bb be62 a8bc
000002c0: 23ed 463d ffea 6c3d 1eed 5b3d 76cf f93c
000002d0: a3ad 87bd d3bc 213d 1d48 a2bd 4186 c13d
000002e0: 2a1f 853c b3b0 063d 4eec 853d 2595 993c
000002f0: d54e 9abd f237 24bd 255d be3b e623 cd3d
00000300: 6d11 1c3c 3a10 ec3d 41a4 983d aa1f 9e3d
00000310: 85e5 d3ba b3ce ec3c 1052 0fbd e9ab 003c
00000320: 2c34 43bd 22fa 29bd fc56 003d 2792 f1bc
00000330: 9a40 0f3c 50cb d2bc b247 9d3d 9831 3fbd
00000340: 8805 9abd ac8e fe3c 95ae b83c f9ba 913d
00000350: afad ac3d 2e14 ee3c 0356 dfbc 8829 113c
00000360: 03de debb ec64 82bc 3d08 ff3c fe0c d6bb
00000370: 7dec 813d cdad ce3d 8617 afbd 53a0 413b
00000380: c499 cb3d b546 92bd e09e 89bd 64ab 07bd
00000390: c4fc 7d3d 4904 78bd 6089 c53c 84ae 80bd
000003a0: 57b8 a33b 05e3 4bbd 5f02 bc3d 25c4 dc3d
000003b0: 1acc 223d f94d 79bd 4bf9 77bc d55d 95bc
000003c0: 18ee 58bd 5860 cf3c 5032 0b3d db81 00bd
000003d0: 407e 0239 9eda 773d 42e3 793d 4253 203c
000003e0: 13e5 fcbb fde5 a73d 11ae 07bc 5f2b 063a
000003f0: 5bc0 79bd 33e4 2c3c ae9e 373c c25b 6bbd
0.06549117 0.034945764 0.010954447 -0.045831606 0.040618874 -0.05464226 -0.042861287 -0.08923851
-0.014811557 -0.070843995 0.034608755 0.020901304 0.059747487 0.023516694 0.026052548 0.032067347
-0.04268023 -0.09142077 -0.04775379 -0.062924944 0.06381834 -0.06536365 0.023136377 0.092296176
0.012792502 0.012490125 -0.013383746 0.03449142 -0.030250128 -0.06457552 -0.09276162 -0.06265693
-0.046935793 -0.050262574 -0.045908734 -0.04396917 0.07245001 -0.060890358 0.018124988 -0.055562735
-0.06388452 -0.06207461 0.012525809 -0.093357 0.0071473583 -0.07067423 0.08144786 0.026145542
0.034640897 0.042595316 -0.04846449 -0.07621016 0.06530323 -0.010987546 -0.05147135 -0.02811197
-0.021561587 -0.027419748 -0.02836687 -0.04796709 0.03330213 0.022828463 0.027098628 0.07554173
0.0038011975 -0.03085808 -0.050259907 0.0040763253 -0.06656604 -0.13191575 0.025414828 -0.05923975
-0.004447675 0.030363824 -0.0213598 0.06016882 0.044022072 0.021666905 0.016402842 -0.048046388
0.05136218 0.06674878 0.04605136 -0.0188913 0.022398232 -0.06885375 0.0050510336 -0.05942805
0.0076344176 0.03774696 0.004470361 -0.08985386 -0.0144064985 -0.07189801 0.06666662 0.04942074
0.0019482953 0.00044631527 -0.0415308 0.068084374 0.011827825 -0.016438287 0.014071746 -0.03459308
0.024480049 0.06647723 0.038660318 -0.094974875 0.035916872 0.08964885 -0.05710332 -0.03352726
-0.025938528 -0.0007435906 -0.09054218 -0.062051445 -0.010211047 0.068117924 -0.059392255 -0.043830797
-0.046010666 -0.030619474 -0.01053734 0.02241133 0.076543376 0.03993792 -0.0048452574 0.022625746
0.00028915613 0.0741717 0.1289953 -0.07497463 0.08179819 0.029650103 -0.012946257 -0.08531076
-0.09385995 0.005206675 0.017392179 0.03697535 -0.0066727446 0.010717765 0.05875292 0.06169908
-0.0091545405 -0.085140996 0.021305267 -0.0781628 0.0007554552 -0.014058329 -0.04266907 0.014214376
0.06948951 -0.0132280905 -0.07117174 0.03725343 -0.046329528 -0.06562697 0.06612094 0.07554149
0.030845337 0.013027772 0.07452149 -0.041427936 0.04467204 -0.061490715 -0.036993045 -0.080149606
-0.054562055 -0.07236248 -0.07215858 -0.07624539 -0.05061414 -0.08354309 -0.004204501 -0.020554896
0.048565995 0.057841297 0.05369293 0.030494433 -0.066249155 0.039486717 -0.07923911 0.09449435
0.016250212 0.032883357 0.06539212 0.018747875 -0.07534567 -0.040092416 0.0058094435 0.10016613
0.009525639 0.115265325 0.07453204 0.07720883 -0.0016166425 0.028907156 -0.03499037 0.007853487
-0.047657177 -0.04149831 0.031332955 -0.029488636 0.00874343 -0.025731713 0.076796904 -0.046678156
-0.07520586 0.03107389 0.022544185 0.0711574 0.08431565 0.029062357 -0.027262693 0.0088599995
-0.006801368 -0.015917264 0.031131858 -0.0065323105 0.06343935 0.100917436 -0.085494086 0.0029545024
0.09941438 -0.071423925 -0.06719756 -0.033122435 0.062008634 -0.06055096 0.024113357 -0.06283286
0.0049963403 -0.04977705 0.0918014 0.10779599 0.039745428 -0.060865376 -0.01513512 -0.01823322
-0.05296144 0.025314495 0.03398353 -0.03137384 0.00012444798 0.060511224 0.061007746 0.009785475
-0.0077177375 0.08198164 -0.008281247 0.0005118157 -0.06097446 0.010552454 0.011207266 -0.057460554

prob.bias f4 [4]
00000000: 146e 27bd 7fb7 13bd e82f d6bc 7f5f 973c
-0.040876463 -0.036063667 -0.02614589 0.018478153
