bs/game/checkpoints/Reinforce_discrete/Reinforce_policy_300.pth (torch_old, 73750 bytes, 6 tensors)

fc1.weight f4 [128, 8]
-0.086885706 -0.118361026 0.20351605 0.05163167 0.09433166 -0.039987396 -0.049524367 0.20697565
0.13739121 -0.07777216 -0.043587342 0.23908529 -0.04529217 -0.089821994 -0.0320713 -0.13300239
0.09397114 -0.17291175 -0.20201178 -0.0803937 -0.13791189 -0.32087728 0.31024665 0.022989541
-0.31000936 -0.23829883 0.35316956 0.28435633 0.14468907 -0.029919486 -0.30470157 0.16299121
0.11755881 -0.14788729 -0.007002583 0.18346217 0.004044071 0.3051251 -0.15777887 0.19066748
0.21657477 0.31999406 -0.26463023 -0.21616733 -0.2542828 0.2464679 0.15875003 -0.11652389
0.25633788 0.20126277 -0.07441029 -0.029558925 -0.11085844 0.08708638 0.027814137 0.3100207
-0.07930325 0.04567374 -0.26584423 -0.26129538 0.09041428 0.120530665 0.32113457 0.24180496
-0.022892268 0.24789205 0.10310575 -0.023692455 0.1731684 0.08328699 -0.1742435 0.1605026
-0.29065064 -0.0005210857 0.24239762 0.30093268 0.31173903 -0.24015686 0.10404972 -0.06253894
0.13547833 -0.18821524 -0.16057038 0.044694707 -0.28153884 -0.08332655 -0.08042806 0.29093847
0.082012296 0.264228 0.34746146 -0.07458202 0.016182687 0.17407373 -0.2838125 -0.06914483
-0.015658507 0.26582494 0.041248772 -0.24171902 -0.33402884 0.015929263 -0.07485461 -0.29039845
-0.029742124 -0.26796 0.21350569 0.21408947 -0.08648833 0.04016413 0.32025552 -0.16737643
-0.24141037 0.24315125 -0.1575391 0.26504877 -0.054359894 0.011121651 -0.2630882 -0.27725917
0.13767952 0.13077438 -0.15560387 0.08292808 -0.31194007 -0.034327235 -0.14618075 0.26389349
-0.034939885 0.20369601 -0.32315767 -0.17757867 0.049505543 0.08121844 -0.082025796 0.046586215
-0.08587458 -0.24165952 -0.25179902 0.09686951 -0.2855254 -0.14083312 -0.31262922 0.06705481
0.3360988 0.008175961 0.05356878 0.09291598 -0.07003498 -0.12131112 -0.052143354 -0.12074571
0.20910598 -0.17787898 -0.031527046 0.24901171 0.08568233 0.05270357 0.17946717 -0.26927766
-0.3206027 -0.057635564 -0.18332765 0.24919061 0.1666592 -0.21589315 0.011842669 -0.10860148
-0.24105062 -0.07666532 -0.14063607 0.13536184 0.19984335 -0.33475885 -0.05289576 -0.120951876
-0.25671273 -0.12643984 0.23134136 0.19777404 -0.11825716 0.34310147 -0.32497203 -0.15568292
-0.2993861 0.07639626 -0.08605262 -0.13810931 -0.06570445 0.32599866 -0.0783317 -0.20070316
0.25062895 0.23459265 0.28701577 0.032905746 0.00073099305 0.33796903 -0.055924587 -0.3252838
-0.2927015 -0.16313052 -0.055561658 0.2237656 -0.01777322 0.03332867 -0.24747285 -0.32957444
-0.13533 -0.019098675 -0.07436011 0.23784563 0.0823833 -0.123012505 0.13263956 0.27334332
0.3004262 0.29431415 0.084426455 0.19122933 0.08649865 0.29989928 -0.23740308 0.049940266
0.07167335 -0.12538607 0.32989243 -0.352514 -0.06736421 0.1467196 0.26322794 -0.20862858
-0.2005653 -0.29576334 0.125888 -0.15765846 -0.010714255 -0.16135526 0.047208827 0.15999158
-0.006546441 -0.21404962 -0.1182657 0.0342781 0.26310146 0.28813896 -0.26316082 0.09608361
0.334982 -0.2689324 0.074623086 -0.33725035 -0.3281487 -0.2783756 -0.13929877 0.0060341116
00000000: 22f1 b1bd 4467 f2bd 8366 503e bb7b 533d
00000010: f530 c13d d3c9 23bd 10da 4abd 6df1 533e
00000020: 48b0 0c3e 0347 9fbd a488 32bd c6d2 743e
00000030: 4884 39bd 98f4 b7bd 325d 03bd c731 08be
00000040: f173 c03d c70f 31be 2ddc 4ebe 74a5 a4bd
00000050: c638 0dbe 074a a4be a6d8 9e3e 9054 bc3c
00000060: 8cb9 9ebe 9c04 74be a4d2 b43e 2797 913e
00000070: 5f29 143e b619 f5bc d801 9cbe 2be7 263e
00000080: acc2 f03d c46f 17be ec75 e5bb 82dd 3b3e
00000090: 2084 843b 5b39 9c3e c990 21be 563e 433e
000000a0: c7c5 5d3e 43d6 a33e 9d7d 87be f85a 5dbe
000000b0: 5b31 82be 1562 7c3e 5e8f 223e 14a4 eebd
000000c0: b83e 833e d417 4e3e 6c64 98bd 8f25 f2bc
000000d0: c009 e3bd 585a b23d 79da e33c 08bb 9e3e
000000e0: be69 a2bd 6314 3b3d bc1c 88be 82c8 85be
000000f0: 1f2b b93d c8d8 f63d c06b a43e b89b 773e
00000100: 9188 bbbc 6ad7 7d3e 1c29 d33d ae16 c2bc
00000110: 0f53 313e 5f92 aa3d e36c 32be cb5a 243e
00000120: 29d0 94be 7899 08ba 1537 783e d913 9a3e
00000130: 429c 9f3e aeeb 75be 0518 d53d 6a14 80bd
00000140: d5ba 0a3e 7fbb 40be 906c 24be cc11 373d
00000150: dc25 90be 1ca7 aabd 77b7 a4bd e3f5 943e
00000160: 10f6 a73d e448 873e 78e6 b13e 75be 98bd
00000170: 8e91 843c 6240 323e df4f 91be ce9b 8dbd
00000180: 4546 80bc 351a 883e 79f4 283d 3185 77be
00000190: d405 abbe 167e 823c 604d 99bd 1baf 94be
000001a0: c1a5 f3bc 0e32 89be 3ca1 5a3e 453a 5b3e
000001b0: cb20 b1bd 2583 243d 88f8 a33e ba64 2bbe
000001c0: 4834 77be a4fc 783e ee51 21be 79b4 873e
000001d0: 7ba8 5ebd 9637 363c 7fb3 86be eaf4 8dbe
000001e0: dcfb 0c3e b8e9 053e 9f56 1fbe 32d6 a93d
000001f0: 9cb6 9fbe b79a 0cbd 68b0 15be 0c1d 873e
00000200: 201d 0fbd b095 503e ec74 a5be 2fd7 35be
00000210: 53c6 4a3d da55 a63d 24fd a7bd 30d1 3e3d
00000220: 03df afbd 9875 77be cdeb 80be 8663 c63d
00000230: 6330 92be 8f36 10be f010 a0be 0854 893d
00000240: 2415 ac3e 77f4 053c f06a 5b3d bc4a be3d
00000250: 806e 8fbd f771 f8bd 4594 55bd 8749 f7bd
00000260: e11f 563e e825 36be 8122 01bd edfc 7e3e
00000270: 387a af3d b3df 573d 3ec6 373e c3de 89be
00000280: 0926 a4be 4513 6cbd 3eba 3bbe d32b 7f3e
00000290: b6a8 2a3e 1813 5dbe c107 423c 746a debd
000002a0: f9d5 76be b502 9dbd e702 10be 4b9c 0a3e
000002b0: bca3 4c3e 8365 abbe 39a9 58bd 9eb5 f7bd
000002c0: da6f 83be 7279 01be c0e4 6c3e 4785 4a3e
000002d0: cf30 f2bd ffaa af3e bc62 a6be 586b 1fbe
000002e0: 2349 99be a475 9c3d 5b3c b0bd 876c 0dbe
000002f0: 0e90 86bd 4ce9 a63e 5f6c a0bd 2185 4dbe
00000300: 7052 803e 0e39 703e bbf3 923e 2dc8 063d
00000310: 1da0 3f3a 470a ad3e 2e11 65bd 998b a6be
00000320: f9dc 95be b00b 27be 9f94 63bd cf22 653e
00000330: 2599 91bc a583 083d 8669 7dbe fbbd a8be
00000340: f393 0abe d374 9cbc 1d4a 98bd ce8d 733e
00000350: 93b8 a83d fbed fbbd aad2 073e a8f3 8b3e
00000360: 76d1 993e 58b0 963e c7e7 ac3d 9fd1 433e
00000370: 3426 b13d 668c 993e cb19 73be 2a8e 4c3d
00000380: 7ac9 923d 3565 00be a9e7 a83e b77c b4be
00000390: 3ff6 89bd aa3d 163e d0c5 863e bba2 55be
000003a0: fd60 4dbe 4b6e 97be c9e8 003e 3871 21be
000003b0: d88a 2fbc 503a 25be 0b5e 413d d5d4 233e
000003c0: 8783 d6bb d32f 5bbe 4a35 f2bd 3167 0c3d
000003d0: 3cb5 863e f386 933e 04bd 86be 7cc7 c43d
000003e0: c382 ab3e 82b1 89be fdd3 983d 14ac acbe
000003f0: 1b03 a8be 3f87 8ebe 56a4 0ebe ccb9 c53b

fc1.bias f4 [128]
0.02369397 -0.09742622 -0.27607405 -0.018789954 0.09937303 -0.17582785 -0.18186648 -0.32216287
0.08854274 0.2463091 -0.1939277 -0.050081927 -0.20844151 -0.32504085 0.033945538 -0.08244334
-0.104447715 0.21465145 0.23690762 0.2734288 -0.33970022 0.101576224 0.038192775 -0.17452319
-0.16775876 -0.18548223 0.16528845 0.2161813 0.03158479 0.15911195 0.018637354 -0.31037888
0.31763086 -0.28511906 0.11486623 0.36617693 -0.12469198 0.032165617 0.045470558 -0.13318403
-0.2391028 -0.17984182 0.27006006 0.20531946 0.09519086 -0.18107341 -0.025806947 0.1474154
-0.08875451 0.016683772 -0.012974939 -0.257556 0.052112453 0.29151422 0.21636881 0.28077942
-0.29877108 0.24314359 0.11032936 0.34002647 0.31327832 -0.21890102 0.08012382 0.04214167
0.021799784 -0.27638552 0.28546315 0.10647628 -0.28213304 0.07820293 -0.3410773 -0.15926853
0.33199537 -0.26540813 0.3433696 -0.12029903 -0.25278947 -0.013718535 0.13105471 0.094980486
-0.17686886 -0.0038699158 -0.056707814 0.24672233 0.044417847 -0.32774714 0.08821696 0.028507447
-0.20638287 0.17829712 -0.32194197 0.23272248 -0.08821446 -0.29943904 -0.21790607 0.18472195
-0.23678559 -0.3602419 0.20805901 0.15376933 -0.23709184 0.099557474 0.10122289 -0.35847437
-0.0789158 -0.077367 -0.34607902 0.29095733 0.31225568 0.12761135 0.034258667 -0.3114127
0.030438665 0.27376616 0.030750185 0.28031245 -0.14573076 0.07412376 0.110150576 0.13518262
-0.32630438 0.22891858 0.09250792 -0.16095698 0.10548989 -0.2177477 0.13158795 -0.104394965
00000000: db19 c23c 6687 c7bd 9459 8dbe 64ed 99bc
00000010: 1684 cb3d 370c 34be 353b 3abe 88f2 a4be
00000020: e555 b53d 7438 7c3e fc94 46be b522 4dbd
00000030: b171 55be c16b a6be 7a0a 0b3d 0ed8 a8bd
00000040: afe8 d5bd 97cd 5b3e e997 723e dcfe 8b3e
00000050: 30ed adbe 3207 d03d 0770 1c3d 35b6 32be
00000060: f4c8 2bbe 0eef 3dbe 6041 293e a15e 5d3e
00000070: 0e5f 013d 3eee 223e 5dad 983c fbe9 9ebe
00000080: 83a0 a23e 20fb 91be fc3e eb3d 8b7b bb3e
00000090: 825e ffbd 18c0 033d 563f 3a3d 6561 08be
000000a0: 5dd7 74be 7428 38be 5045 8a3e 443f 523e
000000b0: 6df3 c23d 4f6b 39be 1769 d3bc 10f4 163e
000000c0: edc4 b5bd 68ac 883c d794 54bc 61de 83be
000000d0: de73 553d 5a41 953e c98f 5d3e 52c2 8f3e
000000e0: 86f8 98be a2fa 783e 5cf4 e13d f317 ae3e
000000f0: 0466 a03e 9727 60be f517 a43d be9c 2c3d
00000100: 7695 b23c 6782 8dbe 3a28 923e 3c10 da3d
00000110: be73 90be dc28 a03d afa1 aebe 4a17 23be
00000120: 4cfb a93e 93e3 87be 24ce af3e 565f f6bd
00000130: 9f6d 81be b5c3 60bc 3533 063e 2185 c23d
00000140: 1c1d 35be 6a9e 7dbb 7446 68bd c7a4 7c3e
00000150: 7def 353d 79ce a7be 18ab b43d 7388 e93c
00000160: 0856 53be 8593 363e 94d5 a4be cd4e 6e3e
00000170: c8a9 b4bd 1350 99be c522 5fbe c027 3d3e
00000180: ec77 72be a071 b8be 6c0d 553e b575 1d3e
00000190: 34c8 72be cae4 cb3d f24d cf3d f489 b7be
000001a0: 9b9e a1bd 9772 9ebd 4531 b1be 5cf8 943e
000001b0: fadf 9f3e 8dac 023e d152 0c3d 7c71 9fbe
000001c0: 825a f93c 142b 8c3e d0e7 fb3c 1d85 8f3e
000001d0: 723a 15be 33ce 973d a096 e13d 506d 0a3e
000001e0: 5e11 a7be a269 6a3e cb74 bd3d e8d1 24be
000001f0: 150b d83d 41f9 5ebe febe 063e 07cd d5bd

fc2.weight f4 [128, 128]
-0.07094039 -0.06946362 0.07207659 -0.077499926 0.02001198 -0.07480488 -0.019093677 0.06670832
0.026941862 -0.06749722 -0.0055851196 0.067640714 0.068921804 -0.057543647 -0.06242889 -0.011997741
-0.053986553 0.04354449 -0.08730948 -0.040191416 -0.008562667 -0.047969516 -0.08960665 -0.0008248574
0.038664877 0.001102989 0.0133704385 -0.02848813 -0.02810567 0.039285418 0.0036292565 0.014020822
-0.09044479 -0.02726326 -0.023515292 -0.015135807 0.065409765 0.08243552 -0.05992606 0.044942364
-0.009360833 -0.012285076 -0.08608474 -0.016568089 -0.038949814 -0.057631653 -0.062239304 -0.08074934
0.013438477 -0.0630565 0.05672176 -0.098159626 -0.07125363 0.044027753 -0.06786229 -0.03115738
0.010423943 0.007298747 -0.06391509 0.08744441 -0.008444803 0.01796821 0.10699651 0.07138397
-0.0028614516 -0.06748838 0.06797207 0.056365926 0.05338416 0.07126411 -0.058648523 0.00976556
0.07509126 -0.035332486 0.040788684 0.043340907 -0.037118148 0.036097784 0.009906954 0.060222976
0.04129649 0.029683772 0.0062902095 -0.021901214 0.041004695 -0.049186926 -0.079579115 0.023951327
0.010439096 0.0808171 -0.016483113 0.03229367 0.068166144 -0.010556616 -0.05034349 -0.10371222
0.057806548 -0.014377943 0.016327137 0.05423228 -0.09771083 0.07126854 -0.008667432 0.051019218
0.040563032 -0.04378735 -0.060969483 0.04786623 0.0011535982 -0.001415003 -0.05555644 -0.04011425
7.697697e-05 0.028642261 -0.011609637 -0.005682737 -0.083167195 0.011226132 0.012976597 0.09586502
-0.03638492 -0.031815495 -0.07693302 -0.02669122 -0.060147174 0.083675794 -0.07429496 -0.0049513495
-0.057076875 0.051428046 0.014062043 -0.032535702 -0.041035574 0.057965245 -0.06846883 0.08167735
-0.031736113 -0.06403459 0.077245384 0.050962336 -0.062867485 0.08410954 -0.0246697 0.028941428
-0.006572158 -0.07674381 -0.063680924 -0.03235265 0.04659609 -0.059605096 0.044638768 -0.02286574
0.078224055 0.0823628 0.0798327 -0.02422583 -0.005222648 0.006112146 0.055292882 0.002745214
-0.07716477 -0.04760164 0.05359134 -0.030791275 -0.06812672 -0.023161706 -0.015043643 -0.045684677
0.003260396 0.048107117 0.010892358 0.03487777 -0.069939576 0.042212017 0.0688352 0.01576563
0.06767162 -0.034518678 -0.063994296 -0.03167405 -0.029421829 -0.037931256 -0.07800771 0.051215965
0.017374195 -0.058248788 0.055741586 -0.08518798 -0.05101362 -0.026914587 -0.008533051 -0.065337986
-0.025942376 -0.061008353 -0.028028898 0.018735508 0.051399536 0.020511996 0.06071069 -0.046467815
-0.07107319 -0.03750983 -0.078517035 -0.059454903 -0.015950853 0.087306194 -0.017285876 0.051621143
0.04184046 0.04654667 -0.008238539 0.031090297 0.034820028 0.06967574 0.033702012 0.082972296
-0.004372209 0.04594647 -0.013817749 0.0052597052 0.051831413 0.030202325 -0.04926189 0.05327815
0.010662984 -0.060894694 -0.043473776 0.04464016 -0.059650496 -0.079423934 -0.010032467 0.03357415
-0.045052104 -0.016744016 0.0696874 0.031123044 -0.0628963 -0.06777662 -0.033633407 -0.0076922
-0.08257038 0.020243479 0.009729294 -0.07263483 0.0016567294 -0.031274162 0.056031063 0.037301257
-0.010249576 0.084902 -0.0342234 0.019304372 -0.07577894 -0.070127256 0.045936093 -0.01563076
00000000: 3249 91bd f142 8ebd e49c 933d 48b8 9ebd
00000010: 2af0 a33c 4d33 99bd 586a 9cbc 5f9e 883d
00000020: 2eb5 dc3c fc3b 8abd 6103 b7bb 3787 8a3d
00000030: e026 8d3d e3b2 6bbd 70b5 7fbd 2c92 44bc
00000040: 0121 5dbd b55b 323d 50cf b2bd c19f 24bd
00000050: 6e4a 0cbc af7b 44bd b183 b7bd 3e3b 58ba
00000060: 105f 1e3d 2b92 903a af0f 5b3c f05f e9bc
00000070: dd3d e6bc bfe9 203d d2d8 6d3b 97b7 653c
00000080: 1e3b b9bd 3357 dfbc 24a3 c0bc 2dfc 77bc
00000090: 8ef5 853d f4d3 a83d 0775 75bd 7c15 383d
000000a0: 2e5e 19bc 5847 49bc 324d b0bd cdb9 87bc
000000b0: d789 1fbd 2b0f 6cbd a4ee 7ebd e95f a5bd
000000c0: 0f2d 5c3c c423 81bd 1455 683d ea07 c9bd
000000d0: 6ced 91bd 7256 343d 62fb 8abd c33d ffbc
000000e0: 30c9 2a3c 542a ef3b eae5 82bd 0e16 b33d
000000f0: 125c 0abc 1132 933c fc20 db3d c231 923d
00000100: 3187 3bbb 5937 8abd f134 8b3d f5df 663d
00000110: 59a9 5a3d ebf2 913d 6f39 70bd baff 1f3c
00000120: 72c9 993d ccb8 10bd 0912 273d 3c86 313d
00000130: 3309 18bd 45db 133d c750 223c 5eac 763d
00000140: 8226 293d 622b f33c 1a1e ce3b 2d6a b3bc
00000150: 8af4 273d 3b78 49bd 60fa a2bd 9335 c43c
00000160: be08 2b3c 7083 a53d 9807 87bc 5e46 043d
00000170: b19a 8b3d a8f5 2cbc fa34 4ebd 1367 d4bd
00000180: 8fc6 6c3d 7791 6bbc 7dc0 853c ab22 5e3d
00000190: 9e1c c8bd 3ef5 913d d801 0ebc 87f9 503d
000001a0: 6c25 263d 5d5a 33bd 23bb 79bd 610f 443d
000001b0: 5534 973a 9f77 b9ba 268f 63bd d74e 24bd
000001c0: b26e a138 2da3 ea3c 5936 3ebc 4136 babb
000001d0: 9053 aabd cfed 373c cb9b 543c e154 c43d
000001e0: 5b08 15bd f750 02bd 0f8f 9dbd 8ca7 dabc
000001f0: e25c 76bd 375e ab3d f527 98bd ee3e a2bb
00000200: 71c9 69bd 37a6 523d 7c64 663c 2844 05bd
00000210: eb14 28bd f76c 6d3d 6339 8cbd 7446 a73d
00000220: bafd 01bd 9124 83bd d432 9e3d e2bd 503d
00000230: abc0 80bd 9f41 ac3d 1c18 cabc 9316 ed3c
00000240: 425b d7bb dc2b 9dbd 256b 82bd 3684 04bd
00000250: 8bdb 3e3d 7924 74bd 24d7 363d ef50 bbbc
00000260: ef33 a03d d4ad a83d 547f a33d 3f75 c6bc
00000270: bf22 abbb 6648 c83b ca7a 623d 0ce9 333b
00000280: 9008 9ebd f0f9 42bd 9882 5b3d fc3d fcbc
00000290: 0686 8bbd 9ebd bdbc 9d79 76bc db1f 3bbd
000002a0: 5eac 553b f80b 453d dc75 323c fedb 0e3d
000002b0: 7b3c 8fbd 82e6 2c3d 78f9 8c3d ec26 813c
000002c0: 6b97 8a3d 7563 0dbd 710f 83bd a6bc 01bd
000002d0: 0c06 f1bc ce5d 1bbd 82c2 9fbd d5c7 513d
000002e0: 5454 8e3c 4896 6ebd 4a51 643d 0977 aebd
000002f0: a8f3 50bd fb7b dcbc 36ce 0bbc eccf 85bd
00000300: 1b85 d4bc e5e3 79bd dc9c e5bc 357b 993c
00000310: 5288 523d c608 a83c c6ab 783d 0955 3ebd
00000320: d28e 91bd e8a3 19bd 8acd a0bd fc86 73bd
00000330: 5dab 82bc 97cd b23d 1c9b 8dbc b170 533d
00000340: e760 2b3d b9a7 3e3d f0fa 06bc 14b1 fe3c
00000350: 729f 0e3d 28b2 8e3d 1f0b 0a3d 61ed a93d
00000360: bf44 8fbb 5e32 3c3d d763 62bc 9b59 ac3b
00000370: 2d4d 543d de6a f73c d6c6 49bd 303a 5a3d
00000380: ccb3 2e3c b76c 79bd 8f11 32bd 9ad8 363d
00000390: 1454 74bd 04a9 a2bd 375f 24bc 0c85 093d
000003a0: 8e88 38bd bf2a 89bc 44b8 8e3d c1f5 fe3c
000003b0: c6cf 80bd 78ce 8abd 2fc3 09bd da0e fcbb
000003c0: a91a a9bd a7d5 a53c 9e67 1f3c 92c1 94bd
000003d0: 9d26 d93a 5619 00bd d480 653d 34c9 183d
000003e0: d6ed 27bc 1ae1 ad3d d62d 0cbd 3424 9e3c
000003f0: fd31 9bbd e19e 8fbd 7c27 3c3d 140c 80bc

fc2.bias f4 [128]
0.045187194 0.02407705 -0.06416219 -0.03454561 -0.005151905 -0.005868031 -0.04830196 -0.072493136
-0.014985604 -0.084952526 -0.029067447 0.06401424 -0.06834133 -0.07371225 -0.05185221 -0.035289522
0.0033774197 -0.067650765 0.014588883 -0.0071925526 -0.053734306 -0.013180435 0.078384265 0.08194627
0.0032550811 -0.012624604 0.046358947 -0.0848565 0.069398485 0.059530124 -0.018834902 0.0034633493
-0.07708503 0.07380434 0.0646129 -0.052624263 0.060373805 -0.10082511 0.003770938 0.020296676
0.084640086 -0.0735586 -0.037300862 0.038432576 0.070085675 -0.038095344 -0.009550971 0.02470621
0.011695128 0.060188748 -0.045231696 0.06517742 -0.00928543 0.0059869345 0.090143695 -0.005566247
0.034657735 0.008326468 -0.067168064 -0.052018974 0.06411757 0.006125105 -0.020498121 -0.04594381
-0.058764514 -0.07072098 -0.05427001 -0.014892254 0.06287443 0.08330537 0.05017817 0.0016084872
0.082175136 -0.011990339 0.01843032 -0.0379709 0.08112023 0.020907909 0.03944157 0.07847824
0.061367184 0.071950555 0.07697477 0.07254066 -0.089126155 0.0831052 -0.050823864 -0.08382676
0.041076254 -0.06298967 -0.025500972 -0.07798438 -0.026232552 0.099341586 -0.015518328 0.04563279
0.015254467 0.014935979 0.046271835 -0.072308496 -0.07274016 0.07060268 0.018308863 0.08014463
-0.062677175 -0.08532314 -0.0091409525 -0.011933264 0.025175434 0.061391436 0.063391134 -0.054127548
0.04741328 -0.01787209 0.051336434 -0.05996563 0.05028933 0.053794883 -0.066847526 -0.03740646
-0.061266303 -0.043495756 0.0631234 -0.044339083 -0.019856997 -0.024756022 0.014568113 -0.027965762
00000000: 3516 393d 3c3d c53c 7767 83bd b37f 0dbd
00000010: 50d1 a8bb 9d48 c0bb 47d8 45bd 4877 94bd
00000020: 2e86 75bc 97fb adbd db1e eebc e619 833d
00000030: 8af6 8bbd 73f6 96bd fc62 54bd bf8b 10bd
00000040: b357 5d3b 7c8c 8abd 3606 6f3c 81af ebbb
00000050: 8118 5cbd c0f2 57bc ee87 a03d 72d3 a73d
00000060: 3353 553b 6dd7 4ebc e1e2 3d3d 3fc9 adbd
00000070: cb20 8e3d dcd5 733d a74b 9abc 5cf9 623b
00000080: c2de 9dbd bb26 973d c553 843d 8a8c 57bd
00000090: 864a 773d 657d cebd d721 773b 3745 a63c
000000a0: c857 ad3d e4a5 96bd cac8 18bd 7a6b 1d3d
000000b0: 1489 8f3d dd09 1cbd ad7b 1cbc ad64 ca3c
000000c0: ec9c 3f3c 7a88 763d df44 39bd bd7b 853d
000000d0: eb21 18bc 0c2e c43b 429d b83d 1065 b6bb
000000e0: 45f5 0d3d bd6b 083c 698f 89bd d911 55bd
000000f0: 1350 833d 1bb5 c83b adeb a7bc 942f 3cbd
00000100: 0fb3 70bd 29d6 90bd 3b4a 5ebd a4fe 73bc
00000110: 4fc4 803d 019c aa3d a087 4d3d e0d3 d23a
00000120: 704b a83d 2073 44bc 2ffb 963c 6087 1bbd
00000130: 5d22 a63d 1047 ab3c 7c8d 213d 33b9 a03d
00000140: 285c 7b3d d05a 933d f3a4 9d3d 3390 943d
00000150: c687 b6bd 0f33 aa3d af2c 50bd 5dad abbd
00000160: 933f 283d ba00 81bd 6ae7 d0bc 46b6 9fbd
00000170: a6e5 d6bc 9a73 cb3d 9640 7ebc 73e9 3a3d
00000180: dfed 793c 09b6 743c 8987 3d3d 7a16 94bd
00000190: cbf8 94bd 2398 903d 78fc 953c de22 a43d
000001a0: e45c 80bd e6bd aebd efc3 15bc bd83 43bc
000001b0: b63c ce3c 9675 7b3d 36d3 813d d9b4 5dbd
000001c0: 6d34 423d 7d68 92bc 2746 523d 859e 75bd
000001d0: 2ffc 4d3d 0658 5c3d 5be7 88bd 8437 19bd
000001e0: 60f2 7abd 9b28 32bd d746 813d e69c 35bd
000001f0: 24ab a2bc 24cd cabc 18af 6e3c 7418 e5bc

prob.weight f4 [4, 128]
-0.087575264 -0.078657374 -0.021703936 0.04613172 -0.022357574 -0.01604752 -0.063942544 0.01746109
0.044494387 0.048152544 0.07205975 -0.05732967 0.007286328 0.038134642 -0.03215129 0.031976715
-0.020553496 0.066112645 0.06036442 -0.06655504 -0.06722886 0.03611403 0.08900487 0.07207635
0.024312291 -0.024250412 0.04276805 -0.012686154 -0.04445511 0.015901105 -0.05898124 0.08217649
0.067782216 0.051422376 0.081269726 0.060749765 0.017360816 0.08358188 0.065734856 -0.04214007
0.059525236 0.062173802 -0.07888753 -0.0130337905 -0.06891559 0.026972372 0.05233942 -0.02085536
-0.052068714 -0.032142 -0.029375482 0.06024145 -0.033308268 0.0005415552 -0.01810939 0.08257068
0.034662522 0.061805405 0.035299677 0.077201106 -0.056226637 0.011532455 0.06473982 -0.011174408
0.08037707 0.01451839 -0.047684968 0.07389058 0.004598433 -0.0031550888 -0.04191935 -0.051068645
-0.07620308 -0.06433526 0.04488191 -0.034222007 0.014458902 -0.0006545975 -0.0417841 0.07534386
-0.0510083 0.031281568 -0.06602249 0.016036501 0.014155903 -0.042697214 0.06405805 -0.04765375
-0.007508668 -0.052357923 -0.009662102 0.0028398235 0.023297671 0.024697687 0.06537686 -0.00275883
-0.0744338 -0.03341486 0.03234933 -0.0076746345 0.07548363 0.01719645 -0.01170662 -0.0011779012
0.03286213 -0.021025643 0.100957096 0.03495362 -0.07312825 -0.008862238 -0.026323942 0.012897518
0.02755998 -0.0015357917 0.051065248 -0.011031279 0.024709482 0.033238783 0.0745663 -0.047637496
-0.0021372274 -0.0532114 0.03228164 -0.020045104 -0.05100565 -0.030138314 -0.04637479 0.018022938
-0.043076824 -0.005558263 0.011014125 0.045834817 -0.028735604 -0.048264366 0.030385297 0.054554082
-0.07578019 0.07673717 0.014627898 -0.052431118 -0.04436881 0.09608686 -0.07284141 -0.0226075
0.026264377 -0.06750913 0.03556998 0.06794292 -0.057650153 -0.046741087 0.035328764 0.066935726
0.021543477 0.035783935 0.026027456 0.035292953 -0.041530937 0.03820285 0.071647435 -0.008695867
-0.03937153 0.039822374 -0.00045973374 0.03898072 0.024105828 0.011631534 -0.007885135 -0.00025299148
-0.10018374 -0.05353851 0.058142677 -0.071718976 0.033732127 0.06375133 0.061498143 -0.015234619
0.038349528 0.08022219 -0.013229512 0.005073465 -0.035445683 -0.06494381 0.09843734 0.058221538
-0.042588513 0.06551108 0.0581655 0.015948374 0.07490288 0.07190406 0.03874372 0.07664325
-0.0025715963 -0.049238544 -0.0968094 -0.019229762 -0.050698277 -0.051673297 0.013043872 -0.010078961
0.027146097 -0.025640903 0.08261357 -0.0742672 0.050700054 0.09513158 -0.02388101 -0.102096036
0.022077933 0.003704817 -0.051541194 0.07662386 0.07585637 0.037467103 0.0013556462 0.04911624
-0.043487474 -0.023798743 -0.05778846 0.02618847 -0.07171688 0.09235751 -0.05944448 -0.022555895
0.09194592 -0.016860668 -0.07763372 0.04614437 -0.02198339 -0.008175376 0.079080306 0.06865855
-0.027314156 -0.04714676 -0.07263421 -0.006381261 0.046474714 0.0048428318 -0.04566177 -0.08685032
-0.04758336 0.039648645 -0.018941998 -0.006368963 0.07728383 -0.021098338 -0.0034013665 -0.012451998
0.016875142 0.11747214 0.094796516 -0.06157151 -0.055908356 0.005212956 0.07084594 0.03809734
00000000: a95a b3bd 1e17 a1bd 74cc b1bc 9df4 3c3d
00000010: 3b27 b7bc 1776 83bc 4ff4 82bd 8f0a 8f3c
00000020: bf3f 363d 9a3b 453d 1094 933d 84d2 6abd
00000030: 26c2 ee3b 1233 1c3d 12b1 03bd 04fa 023d
00000040: ce5f a8bc 1166 873d af40 773d 024e 88bd
00000050: 49af 89bd 4eec 133d 2f48 b63d c49c 933d
00000060: 922a c73c cda8 c6bc 8d2d 2f3d 96d9 4fbc
00000070: 9016 36bd 0943 823c 5096 71bd 264c a83d
00000080: 67d1 8a3d 45a0 523d be70 a63d bfd4 783d
00000090: 4538 8e3c fa2c ab3d ff9f 863d 119b 2cbd
000000a0: bcd0 733d f5a9 7e3d c98f a1bd ae8b 55bc
000000b0: 9e23 8dbd 2af5 dc3c dc61 563d dcd8 aabc
000000c0: 0146 55bd 54a7 03bd daa4 f0bc bdbf 763d
000000d0: 406e 08bd 27f7 0d3a 255a 94bc d11a a93d
000000e0: 4afa 0d3d aa27 7d3d 6596 103d 9d1b 9e3d
000000f0: e74d 66bd 9ff2 3c3c 5096 843d dd14 37bc
00000100: bc9c a43d 8bde 6d3c 5051 43bd f253 973d
00000110: 74ae 963b 9bc5 4ebb a0b3 2bbd 5b2d 51bd
00000120: 5c10 9cbd 34c2 83bd 18d6 373d 602c 0cbd
00000130: 08e5 6c3c 4b99 2bba ce25 2bbd e24d 9a3d
00000140: 14ee 50bd 1a21 003d cd36 87bd fb5e 833c
00000150: 29ee 673c 46e3 2ebd de30 833d 9430 43bd
00000160: 460b f6bb 4375 56bd cb4d 1ebc 551c 3a3b
00000170: c2da be3c ce52 ca3c 4ee4 853d 7dcd 34bb
00000180: c070 98bd 05de 08bd bb80 043d 807b fbbb
00000190: 2997 9a3d 92df 8c3c 20cd 3fbc ce63 9aba
000001a0: 719a 063d f83d acbc 98c2 ce3d 872b 0f3d
000001b0: 44c4 95bd ec32 11bc 4fa5 d7bc 1d50 533c
000001c0: 78c5 e13c 9e4c c9ba cb29 513d 8abc 34bc
000001d0: 8a6b ca3c 6425 083d 37b6 983d 891f 43bd
000001e0: ba10 0cbb 32f4 59bd c139 043d a135 a4bc
000001f0: 4deb 50bd a0e4 f6bc 7ef3 3dbd d7a4 933c
00000200: 5371 30bd 1722 b6bb 9774 343c 4abd 3b3d
00000210: ee66 ebbc dbb0 45bd 96ea f83c 1a74 5f3d
00000220: a532 9bbd 6128 9d3d daa9 6f3c 03c2 56bd
00000230: 12bc 35bd 30c9 c43d e12d 95bd 5d33 b9bc
00000240: 6428 d73c 3a42 8abd d4b1 113d a825 8b3d
00000250: 9122 6cbd 9573 3fbd e5b4 103d 9915 893d
00000260: f27b b03c 2d92 123d 8837 d53c 588f 103d
00000270: 581c 2abd 977a 1c3d e4bb 923d 1c79 0ebc
00000280: 0b44 21bd c91c 233d 6b08 f1b9 3faa 1f3d
00000290: 9679 c53c 3192 3e3c a730 01bc f1a3 84b9
000002a0: 222d cdbd 324b 5bbd 0427 6e3d 66e1 92bd
000002b0: b32a 0a3d 0f90 823d 7ae5 7b3d a09a 79bc
000002c0: 6514 1d3d 884b a43d 98c0 58bc 4f3f a63b
000002d0: 7e2f 11bd 4301 85bd 8499 c93d b579 6e3d
000002e0: 4b71 2ebd ac2a 863d f33e 6e3d 2aa6 823c
000002f0: ae66 993d 7042 933d bcb1 1e3d 23f7 9c3d
00000300: 3a88 28bb 5bae 49bd 0244 c6bd bc87 9dbc
00000310: ffa8 4fbd 61a7 53bd f7b5 553c 3a22 25bc
00000320: 7e61 de3c df0c d2bc 4e31 a93d 6719 98bd
00000330: dcaa 4f3d 59d4 c23d 1ca2 c3bc ba17 d1bd
00000340: c8dc b43c 84cc 723b dc1c 53bd f8ec 9c3d
00000350: 965a 9b3d 1b77 193d f0af b13a 1c2e 493d
00000360: ec1f 32bd 95f5 c2bc 98b3 6cbd 3489 d63c
00000370: 4de0 92bd ef25 bd3d 0e7c 73bd 24c7 b8bc
00000380: 244e bc3d 621f 8abc 6efe 9ebd e101 3d3d
00000390: 8316 b4bc 03f2 05bc dbf4 a13d db9c 8c3d
000003a0: f0c1 dfbc f61c 41bd 3fc1 94bd e619 d1bb
000003b0: 455c 3e3d 9eb0 9e3b d607 3bbd 95de b1bd
000003c0: c5e6 42bd 9e66 223d 402c 9bbc bcb2 d0bb
000003d0: fc46 9e3d 6cd6 acbc 76e9 5ebb 7703 4cbc
000003e0: bd3d 8a3c 3c95 f03d ad24 c23d 6832 7cbd
000003f0: 2900 65bd 72d1 aa3b ad17 913d f50b 1c3d

prob.bias f4 [4]
-0.04571762 -0.039610796 -0.031172514 0.037015907
00000000: 6642 3bbd ee3e 22bd 805d ffbc fe9d 173d
