bs/game/checkpoints/Reinforce_discrete/Reinforce_policy_2100.pth (torch_old, 73748 bytes, 6 tensors)

fc1.weight f4 [128, 8]
0	0xbe7713cc	-0.24128646
1	0x3e8c2751	0.27373746
2	0xbe80e1d7	-0.25172302
3	0x3eb5775e	0.35442632
4	0xbe9ac505	-0.3022844
5	0x3e933fbc	0.28759563
6	0x3c990c2c	0.018682562
7	0x3b621839	0.00344993
8	0x3e0be4f6	0.1366156
9	0xbd62dfc0	-0.055389166
10	0x3e5d50b2	0.21612814
11	0x3e969ab9	0.2941492
12	0xbeacb40d	-0.33731118
13	0xbe0839ed	-0.13303347
14	0x3e2973a3	0.16548018
15	0x3dbc1234	0.091831595
16	0xbebd68e6	-0.36994094
17	0xbe93f3b6	-0.28896874
18	0x3c5f8435	0.01364236
19	0x3c690fa3	0.0142249195
20	0xbeacb2cc	-0.3373016
21	0x3df452f5	0.11929885
22	0xbdbcbb8f	-0.092154615
23	0xbcc3740c	-0.023859046
24	0x3e864ca1	0.26230338
25	0x3d0b7765	0.03404941
26	0x3dcc4883	0.09974768
27	0xbeba19c5	-0.36347786
28	0xbd1806bb	-0.037115794
29	0x3eb8a76b	0.3606523
30	0x3c879dfb	0.016554823
31	0x3dea7f70	0.11450088
32	0xbe5c63e1	-0.21522476
33	0xbdb24376	-0.087042734
34	0xbdcd57a6	-0.10026483
35	0xbea53d2e	-0.3227324
36	0xbdc2f355	-0.09519068
37	0x3d9d6c49	0.076866694
38	0xbeac71cc	-0.3368057
39	0xbe9ee416	-0.3103339
40	0xbe6efabf	-0.2333784
41	0xbe88bdd5	-0.2670733
42	0x3dbf43fb	0.09339138
43	0xbe8d59a5	-0.27607456
44	0xbc92e9d9	-0.017933773
45	0x3d38773e	0.045035593
46	0x3e07990f	0.13241981
47	0xbd75f32e	-0.060046367
48	0xbe2fbd4f	-0.17162059
49	0xbd389168	-0.045060545
50	0xbe0f0eb0	-0.13970447
51	0x3ec72387	0.38894293
52	0xbe982e3d	-0.29722777
53	0x3da6081f	0.08107018
54	0x3d27d592	0.04097516
55	0xbeb36add	-0.35042468
56	0x3ea3e047	0.32007048
57	0x3d71f65a	0.05907283
58	0x3ec8ab62	0.39193255
59	0x3e536dd9	0.20647372
60	0xbee29912	-0.44257408
61	0xbe8f59c7	-0.27998182
62	0x3ead5ecc	0.33861387
63	0xbe44dd8d	-0.1922514
64	0xbe840e7d	-0.25792304
65	0x3e1803e9	0.14845242
66	0x3eabedbf	0.33579823
67	0xbdbc703d	-0.09201095
68	0xbeb23e07	-0.34812948
69	0x3d8647f7	0.06556695
70	0xbced0216	-0.028931659
71	0xbe228cb9	-0.15873994
72	0x3e2c37eb	0.16818206
73	0xbde765ec	-0.11298737
74	0xbe5378ba	-0.20651522
75	0x3ddd6f1d	0.10812209
76	0x3e72f0a2	0.23724607
77	0x3dd37cff	0.103265755
78	0xbea33ebc	-0.318838
79	0x3c7e4a47	0.015520639
80	0x3de5c42a	0.11219056
81	0xbda06238	-0.07831234
82	0xbe0e34c0	-0.1388731
83	0x3e1d5ab8	0.15366638
84	0x3dd12f30	0.102140784
85	0xbea30294	-0.31837904
86	0x3dbd50c2	0.09243919
87	0x3e4ad237	0.19806753
88	0x3d1b7597	0.03795394
89	0xbe8049c9	-0.25056294
90	0xbd4a483a	-0.049385287
91	0x3e1a1d73	0.15050296
92	0x3eb2bd5b	0.34910092
93	0x3cac24ae	0.021013584
94	0xbeaea38c	-0.3410915
95	0x3de1b2cc	0.11020431
96	0xbe7b1b48	-0.24522126
97	0xbe18c177	-0.14917551
98	0xbdc8ed6c	-0.0981091
99	0xbe86be54	-0.26317084
100	0xbee0bf59	-0.43895987
101	0xbdb69b4d	-0.0891634
102	0x3d7fbb68	0.062434584
103	0x3d3f3f04	0.046690956
104	0xbe7f54b5	-0.24934657
105	0x3e9a6f84	0.30163205
106	0x3ea98e6e	0.33116478
107	0x3d42ecb8	0.047589034
108	0xbec62294	-0.38698256
109	0x3e1d7f34	0.15380555
110	0xbe15fb9d	-0.14646764
111	0x3ec32d0f	0.38120314
112	0xbd930acb	-0.07179793
113	0xbe7616f9	-0.24032201
114	0xbe640be1	-0.22270156
115	0x3e8fd373	0.2809101
116	0xbe0274b6	-0.12739834
117	0x3e7cb407	0.2467805
118	0xbe083b3a	-0.13303843
119	0x3c95d48c	0.018289827
120	0xbe311736	-0.1729401
121	0xbe93f94d	-0.2890114
122	0xbe78288a	-0.24234214
123	0x3c0b8bad	0.008517188
124	0x3d2c5f2d	0.042082954
125	0x3d331b78	0.043727368
126	0x3d6c8387	0.05774262
127	0x3d4ea224	0.050447598
128	0xbe99e19a	-0.30054933
129	0xbde2b473	-0.11069574
130	0x3c94a893	0.018146789
131	0x3e91ce6e	0.28477806
132	0xbe3d16ab	-0.18465678
133	0x3e283894	0.16427833
134	0x3e5d993f	0.2164049
135	0xbe39d135	-0.18146212
136	0xbc4bf2c0	-0.012448013
137	0xbc3d412b	-0.011551182
138	0xbe09651b	-0.13417475
139	0xbe206881	-0.15664865
140	0xbe879f07	-0.26488516
141	0x3d9ca667	0.07648926
142	0x3e16ecb8	0.14738739
143	0xbd6548a2	-0.05597747
144	0x3e32f4e4	0.17476231
145	0xbea9b918	-0.33149028
146	0xbea4962e	-0.32145828
147	0x3e95a915	0.29230562
148	0x3e97b764	0.29632103
149	0x3de18654	0.11011949
150	0x3e3d0cb0	0.18461871
151	0xbe94151d	-0.28922358
152	0xbea0dae4	-0.31417
153	0xbe791b1e	-0.2432675
154	0xbdb054ab	-0.08609899
155	0xbe97a8a1	-0.2962084
156	0xbe8ad842	-0.27118117
157	0xbe0a25d0	-0.13490987
158	0xbd0c5eab	-0.03426997
159	0xbea7b176	-0.3275258
160	0xbdf3465c	-0.11878654
161	0x3e3d5214	0.18488342
162	0x3d2c268f	0.04202896
163	0x3e970b68	0.2950089
164	0x3da5e358	0.08100003
165	0x3e64cc02	0.22343448
166	0xbe9a867a	-0.30180722
167	0xbe35ac0b	-0.1774141
168	0xbd85a846	-0.06526236
169	0xbe463e34	-0.19359666
170	0xbd4285fc	-0.04749106
171	0xbc865a2d	-0.016400421
172	0xbec99471	-0.39371064
173	0xbdbc8882	-0.09205724
174	0x3d2440a3	0.040100705
175	0x3e7d2eb3	0.24724846
176	0xbdc0336c	-0.09384808
177	0xbd7974fe	-0.060902588
178	0xbe654572	-0.22389773
179	0x3e92969f	0.2863054
180	0x3e227d5c	0.15868133
181	0xbdb41fe2	-0.08795144
182	0x3e687bd4	0.22703487
183	0x3e666ac2	0.22501662
184	0xbdd393f8	-0.10330957
185	0x3e452c76	0.19255242
186	0xbdbcee6d	-0.092251636
187	0xbdb12df0	-0.0865134
188	0xbe3ac5af	-0.18239473
189	0x3e930182	0.28712088
190	0x3c8833d5	0.016626278
191	0x3e2899fb	0.16464989
192	0xbc5feaa2	-0.013666781
193	0x3e2b9294	0.16755134
194	0x3e82324a	0.25428993
195	0xbed2a497	-0.41141197
196	0x3e21ff07	0.15819941
197	0xbe75655d	-0.23964448
198	0xbe49b0ad	-0.19696303
199	0xbe581b6d	-0.21104212
200	0x3ea57a53	0.32319888
201	0xbe931a79	-0.28731135
202	0x3d8ba41f	0.06818413
203	0xbdf18a7c	-0.11793992
204	0xbd0805e7	-0.033208754
205	0x3e47df0f	0.19518684
206	0x3eaa7a42	0.332964
207	0x3e5b5ac7	0.21421348
208	0xbe929951	-0.28632596
209	0x3e96e35e	0.29470342
210	0xbd0efdba	-0.03490994
211	0x3d58a362	0.05289019
212	0x3e8f92da	0.28041726
213	0xbcc68db5	-0.024237493
214	0x3e99b95a	0.30024225
215	0xbeabce96	-0.3355605
216	0xbda8b7de	-0.08238195
217	0x3e311e4e	0.17296717
218	0xbde47ad5	-0.11156241
219	0xbe188d5c	-0.14897674
220	0xbd9f213f	-0.07770013
221	0xbed3c2ad	-0.41359463
222	0x3e50325a	0.20331708
223	0x3eb3297d	0.3499259
224	0x3cb4a0c0	0.022049308
225	0xbde99344	-0.11405042
226	0xbd9bd879	-0.07609648
227	0xbe20ca99	-0.15702285
228	0x3e7ef4f8	0.24898136
229	0xbcf581e8	-0.02996917
230	0x3be99c5f	0.0071292366
231	0x3e022752	0.12710312
232	0xbe86ab36	-0.263025
233	0xbe999a8b	-0.3000072
234	0x3dde8d16	0.10866754
235	0x3e982b47	0.29720518
236	0x3e289ede	0.16466853
237	0x3df545ff	0.11976241
238	0x3e2a8082	0.16650584
239	0x3e7cf832	0.24704054
240	0xbe9ebf39	-0.31005266
241	0xbe914293	-0.28371105
242	0x3dc940d0	0.09826815
243	0x3eb7a192	0.35865456
244	0x3d886e58	0.066616714
245	0x3bc8326f	0.006109528
246	0x3db8c80d	0.09022532
247	0xbe6da6a3	-0.23208098
248	0xbe608550	-0.21925855
249	0xbe71a217	-0.23596989
250	0x3ea51122	0.32239634
251	0x3d1db2cb	0.03850059
252	0x3d0c638a	0.034274615
253	0x3e8918b0	0.26776648
254	0x3e6e3a15	0.23264344
255	0xbe1de8c2	-0.15420821

fc1.bias f4 [128]
0	0x3e06a868	0.1315018
1	0x3e1c59ed	0.15268679
2	0xbe07d19f	-0.13263558
3	0xbe87e559	-0.26542166
4	0x3dce02ff	0.10059165
5	0xbe4f72d6	-0.2025865
6	0x3d20836d	0.039187837
7	0x3dfe443e	0.1241536
8	0x3e0eb42f	0.13935922
9	0xbea7e583	-0.3279229
10	0xbe943206	-0.28944415
11	0xbcc3f6d6	-0.023921411
12	0x3eaff9c4	0.34370244
13	0x3e3aa71a	0.18227807
14	0x3e5da717	0.21645771
15	0xbe94300d	-0.2894291
16	0xbe26147a	-0.16218749
17	0x3e635bd7	0.22203003
18	0x3e6b8fc6	0.23004064
19	0xbe38d767	-0.1805092
20	0xbead360f	-0.33830306
21	0x3e2eab02	0.17057422
22	0xbe7a5a4a	-0.24448505
23	0x3e7e0ce5	0.24809606
24	0xbe82ed6a	-0.25571758
25	0xbe110c14	-0.14164764
26	0xbe8ac119	-0.27100447
27	0xbd59550c	-0.053059623
28	0x3e56ec02	0.20988467
29	0x3d6a9e03	0.057279598
30	0xbea7ab42	-0.32747847
31	0xbceaf4bf	-0.028681157
32	0x3e86fac4	0.26363194
33	0xbe7fd089	-0.24981894
34	0xbe850218	-0.2597816
35	0x3e34108a	0.17584434
36	0xbdff6509	-0.12470443
37	0xbe5fae92	-0.21843937
38	0xbdb9da8d	-0.090748884
39	0xbeaa0602	-0.3320771
40	0xbebd2f4a	-0.3695014
41	0x3ec03732	0.3754211
42	0x3e491625	0.19637354
43	0xbded630c	-0.11591157
44	0x3bc5da53	0.006037989
45	0x3e21d550	0.15804029
46	0x3eb2a7ef	0.34893748
47	0x3e8aebe9	0.2713311
48	0x3e2fc6af	0.17165636
49	0xbded08e7	-0.115739636
50	0xbe6ac50b	-0.22926728
51	0x3ead78db	0.33881268
52	0xbe9fbbe0	-0.31198025
53	0x3e26db26	0.16294536
54	0x3e6aff8e	0.22949049
55	0xbc569144	-0.013096157
56	0xbe873942	-0.26410872
57	0x3ebbacca	0.36655265
58	0xbe1470bc	-0.1449613
59	0x3e78a823	0.24282889
60	0x3e482580	0.19545555
61	0x3b7457a4	0.0037283683
62	0x3dac937a	0.084265664
63	0x3ead5478	0.33853507
64	0xbe87bd4b	-0.26511607
65	0xbea359f9	-0.3190458
66	0xbe3aa89b	-0.1822838
67	0x3d219f7c	0.039458737
68	0xbe970b5f	-0.29500863
69	0xbe085701	-0.1331444
70	0x3e865163	0.26233968
71	0x3e65c6e3	0.2243915
72	0xbdac0a86	-0.08400445
73	0xbe22cfd6	-0.15899596
74	0xbd62688d	-0.05527549
75	0x3e4a8128	0.19775832
76	0x3e522f12	0.20525768
77	0xbe2d1b80	-0.16905022
78	0xbdf6fcfe	-0.12059973
79	0x3e7b705c	0.2455458
80	0xbd9bec6d	-0.07613454
81	0xbdccffb0	-0.10009706
82	0xbdf3e074	-0.119080454
83	0xbeab377f	-0.33440778
84	0x3e6bed46	0.23039731
85	0xbe5e9313	-0.21735792
86	0xbea79d7c	-0.3273734
87	0xbe88ff1e	-0.2675714
88	0xbe8c8943	-0.27448472
89	0x3e20ae8f	0.15691589
90	0xbe58f1af	-0.21185945
91	0x3d48ea7d	0.04905175
92	0xbc63224f	-0.01386316
93	0x3d890bb8	0.06691688
94	0xbe9c30cd	-0.30505982
95	0xbe961ad8	-0.29317355
96	0xbebb7f2f	-0.3662047
97	0xbea4841c	-0.3213204
98	0x3e5e6758	0.2171911
99	0x3e79ae6e	0.24382946
100	0x3ea84b6a	0.32870036
101	0xbe223eb0	-0.15844226
102	0x3e51486c	0.20437783
103	0xbea55e92	-0.32298714
104	0xbe9966b9	-0.29961184
105	0x3d63ee94	0.055647448
106	0xbe9146d7	-0.2837436
107	0xbce8922d	-0.028390015
108	0x3da8182c	0.082077354
109	0x3e5f5dec	0.21813172
110	0x3cff4ea1	0.031165423
111	0xbe242fae	-0.16033813
112	0xbd710fe2	-0.058853038
113	0xbe948c29	-0.29013184
114	0xbeaf2619	-0.34208754
115	0x3ebdbfca	0.37060386
116	0x3eb4509a	0.35217744
117	0x3e192769	0.1495644
118	0xbdd3809b	-0.10327264
119	0x3c93278d	0.017963195
120	0xbe514a53	-0.20438509
121	0xbe55620d	-0.20838185
122	0xbd2bd85e	-0.04195439
123	0xbe8a3276	-0.26991624
124	0xbbc317de	-0.005953773
125	0x3e8821b3	0.2658821
126	0x3e72022f	0.23633645
127	0x3e7361ac	0.23767728

fc2.weight f4 [128, 128]
0	0xbd325c73	-0.043545198
1	0xbd830327	-0.06397086
2	0xbd9a1121	-0.07522798
3	0x3d6175ff	0.05504417
4	0xbd925708	-0.07145506
5	0x3d86cd0c	0.06582078
6	0x3d7f8322	0.062380917
7	0x3d31b02b	0.043380897
8	0x3bbcdeb4	0.005763853
9	0x3ca42761	0.020038309
10	0xbd8f6a4c	-0.070026964
11	0x3ced05d7	0.028933449
12	0x3cc25b6c	0.023725234
13	0xbdb100c1	-0.08642722
14	0xbc8ffaf7	-0.017575724
15	0x3cb6b7bd	0.02230441
16	0xbcd80286	-0.02636839
17	0x3d568987	0.05237725
18	0xbcb6276d	-0.022235597
19	0x3d03e33b	0.032199126
20	0x3d128149	0.035767827
21	0x3d7e152a	0.062031902
22	0xbdb44929	-0.08803017
23	0x3ccff7bd	0.025386686
24	0xbd1fa36a	-0.038974203
25	0xbcb0f7f9	-0.021602618
26	0x3d3302e7	0.04370394
27	0xbdb23ed9	-0.087033935
28	0x3bf5f75d	0.0075062946
29	0xbdb01778	-0.08598226
30	0x3d79efe2	0.061019786
31	0x3d88a2dd	0.06671689
32	0xbcd540bc	-0.026031844
33	0x3d5047e6	0.050849818
34	0x3d3fc07d	0.04681443
35	0xbcc24c26	-0.023717951
36	0xbd3508a9	-0.044197712
37	0x3d1dc14a	0.038514413
38	0xbcb077e8	-0.02154155
39	0x3d83c14f	0.06433355
40	0xbca90842	-0.02063382
41	0xbdb489c0	-0.08815336
42	0xbdafb9c3	-0.08580353
43	0xbd321a42	-0.043482073
44	0x3ce7edb6	0.028311592
45	0xbd76127b	-0.060076218
46	0xbb37209a	-0.0027943016
47	0xbd62326f	-0.05522388
48	0x3a600581	0.0008545742
49	0xbaef464a	-0.0018255201
50	0x3da69534	0.08133927
51	0x3d0134c6	0.03154447
52	0xbd69816f	-0.057008203
53	0xbda8dc63	-0.082451604
54	0xbd5ed744	-0.054404512
55	0x3d361a7c	0.04445885
56	0xbd84f452	-0.06491913
57	0xbd7abc66	-0.061214827
58	0xbd1aabab	-0.03776137
59	0xbd6b76cf	-0.05748635
60	0x3bcb75ab	0.0062090955
61	0xbc5b2754	-0.013376076
62	0xbd3d6059	-0.046234462
63	0xbd0721e7	-0.032991316
64	0x3d523838	0.051323146
65	0x3d83f4f6	0.06443207
66	0xbb470142	-0.003036574
67	0x3d706c89	0.058697257
68	0x3c8b60a7	0.01701386
69	0xbdb0d908	-0.086351454
70	0x3c3f2e04	0.011668686
71	0x3d8f09a7	0.06984263
72	0x3b452880	0.0030083954
73	0xbd8928ab	-0.0669721
74	0x3d69163b	0.056905966
75	0x3d88c2eb	0.06677803
76	0xbd871ef3	-0.065977
77	0x3d460ab9	0.04835007
78	0x3d66a7dd	0.05631243
79	0x3d728817	0.059211817
80	0x3d015f41	0.03158498
81	0xbdbc602f	-0.09198033
82	0x3d995463	0.074867986
83	0xbcbf772e	-0.023372259
84	0xbd5c6c4e	-0.053814225
85	0xbcbd0cea	-0.023077447
86	0x3da7de37	0.08196681
87	0x3d58cb74	0.052928403
88	0x3cd02444	0.025407918
89	0xbdbf835a	-0.09351225
90	0xbda0ec37	-0.078575544
91	0x3d9b84ae	0.07593666
92	0x3d8039c4	0.06261018
93	0xbb99b6e0	-0.00469099
94	0x3c6e1f54	0.014533836
95	0x3c4211d3	0.01184507
96	0x3d1f1f67	0.038848307
97	0x3d9a833b	0.075445615
98	0xbc87d6a6	-0.016581845
99	0xbd868d1d	-0.06569884
100	0x3cb29c2e	0.021802988
101	0xbc34c550	-0.011033371
102	0x3d311f43	0.043242704
103	0xbd8f5dc6	-0.07000308
104	0xbd2e5e82	-0.0425706
105	0xbda4279f	-0.080153696
106	0xbd7ce5a7	-0.06174245
107	0xbd7ef4f9	-0.062245343
108	0xbc895148	-0.01676239
109	0x3a7df1f0	0.00096872356
110	0x3d6f3a8a	0.058405437
111	0x3ca7f61e	0.0205031
112	0xbd6b4f2a	-0.057448544
113	0xbce494f2	-0.027903054
114	0xbc7d57bf	-0.015462815
115	0x3a808fda	0.0009808496
116	0x3d33d36e	0.043902807
117	0xbdb4d6a1	-0.0883
118	0xbd5c18d2	-0.053734608
119	0xbd949ebc	-0.07256839
120	0xbc1dd15f	-0.0096324375
121	0xbd330eeb	-0.0437154
122	0x3d5d7641	0.054067854
123	0x3cea514f	0.028603224
124	0x3d99bd1a	0.075067714
125	0x3d08c2e5	0.03338899
126	0x3c403e60	0.011733621
127	0x3d0db6c6	0.034598134
128	0x3d810044	0.06298879
129	0xbc43effa	-0.01195907
130	0x3d10fc85	0.03539707
131	0xbd98da2a	-0.074634865
132	0xbdba67d3	-0.09101834
133	0xbdb9fef1	-0.09081829
134	0x3d57802a	0.05261246
135	0x3da0eab7	0.07857268
136	0x3d6e874b	0.058234494
137	0x3dac25d3	0.08405652
138	0x3d9737dc	0.07383701
139	0x3d91e316	0.07123391
140	0x3c882ad9	0.016621994
141	0x3aa8c3b9	0.0012875713
142	0xbd08c460	-0.033390403
143	0xbd7049e2	-0.05866421
144	0xbd893291	-0.06699098
145	0xbbad3395	-0.00528569
146	0xbc5a3703	-0.01331878
147	0xbb4d679d	-0.0031342276
148	0xbc9e10c7	-0.01929511
149	0x3dbac20d	0.091190435
150	0x3d990e0e	0.07473384
151	0xbcb0c78a	-0.021579523
152	0xbd7846a4	-0.060614243
153	0x3d8bf644	0.06834081
154	0x3d837348	0.064184725
155	0x3d6e0b23	0.05811609
156	0xbd289b68	-0.041163832
157	0x3d800cc0	0.06252432
158	0x3d5beb29	0.053691063
159	0x3cadfe3a	0.021239389
160	0x3c4a7962	0.0123580415
161	0xbd2201b9	-0.039552424
162	0x3d65da64	0.056116477
163	0x3cc2705e	0.023735221
164	0xbd7da85f	-0.06192815
165	0xbd3733fe	-0.044727318
166	0xbd19eca8	-0.03757921
167	0xbd446409	-0.047946963
168	0x3cc36a42	0.023854379
169	0x3cc46716	0.023974936
170	0xbc12463d	-0.008927879
171	0xbda468e0	-0.08027816
172	0xbd08e905	-0.03342535
173	0xbd9bf8d5	-0.0761582
174	0xbc5c6ee1	-0.01345417
175	0x3daf8137	0.08569568
176	0xbd945df5	-0.072444834
177	0x3b2d4d2c	0.0026443703
178	0xbd8ebd06	-0.06969647
179	0xbd1ea402	-0.03873063
180	0x3db627de	0.08894323
181	0xbcf40c53	-0.029791033
182	0x3dbd8ff3	0.09255972
183	0x3dbaac22	0.09114863
184	0xbbf6dd40	-0.0075336993
185	0xbb718605	-0.0036853564
186	0xbce12b75	-0.027486542
187	0x3d943ec0	0.07238531
188	0x3cb09757	0.02155654
189	0x3cd81d52	0.026381169
190	0xbc92d6ee	-0.017924752
191	0xbd88ac2d	-0.06673465
192	0xbbb31e45	-0.005466255
193	0xbd41eaab	-0.047342937
194	0xbc948e74	-0.018134333
195	0x3cd9a834	0.026569463
196	0xbc08ebac	-0.00835697
197	0xba4dbfff	-0.0007848739
198	0x3d528b24	0.051402226
199	0xbd8bcb48	-0.06825882
200	0x3d2ddc78	0.042446584
201	0x3b5b50af	0.003346484
202	0x3c882d47	0.016623152
203	0x3c2e0603	0.0106215505
204	0xbcb05341	-0.021524074
205	0x3d0c7779	0.034293626
206	0xbd9cf6d7	-0.076642685
207	0x3d92fd43	0.07177212
208	0x3b1ed698	0.0024236795
209	0x3d0ccb34	0.034373477
210	0xbd220a49	-0.03956059
211	0x3d65efee	0.056137018
212	0xbd42e5a2	-0.047582276
213	0x3c83119a	0.015999604
214	0xbdbdf30e	-0.09274875
215	0xbd2c8d63	-0.042127024
216	0x3d4ed0ca	0.050492086
217	0xbd332d73	-0.043744516
218	0x3cbaea4a	0.022816796
219	0x3dc4dd9b	0.096125804
220	0xbbdb80ae	-0.0066986894
221	0x3d704b2e	0.058665447
222	0x3dabf0a7	0.0839551
223	0x3cc2c55e	0.023775753
224	0xbd6cfe74	-0.057859853
225	0x3c535283	0.01289809
226	0xbcafd122	-0.021462027
227	0x3daa39a5	0.08311776
228	0x3ba71a63	0.005099581
229	0x3d64e7ac	0.055885002
230	0x3d4fe364	0.050753966
231	0xbd245155	-0.040116627
232	0x39c88d6e	0.00038252346
233	0x3c726c9d	0.014796403
234	0x3d8401d7	0.064456634
235	0x3d3d9327	0.046282914
236	0x3d895f9d	0.0670769
237	0x3d8e6e68	0.06954652
238	0xbd03a340	-0.03213811
239	0x3cd41e66	0.025893401
240	0xbce134f6	-0.027491074
241	0x3d878487	0.066170745
242	0xbd6f92e8	-0.05848971
243	0xbb14b6da	-0.0022691996
244	0x3d24e266	0.040254973
245	0xbc540bf3	-0.012942302
246	0x3de3c036	0.11120646
247	0x3d397ec9	0.045286927
248	0x3d9d5085	0.076813735
249	0xbc8a04c5	-0.016847977
250	0xbcfb013e	-0.03064024
251	0x3d97dbe6	0.07414989
252	0x3c27f014	0.01025011
253	0x3d9dfcf7	0.07714265
254	0xbd4ed6af	-0.050497707
255	0x3b063373	0.0020477443

fc2.bias f4 [128]
0	0xbd62b6eb	-0.055350225
1	0xbd930344	-0.07178357
2	0x3cad00a7	0.021118475
3	0x3cbc4c09	0.022985475
4	0x3da9ff1d	0.08300612
5	0x3d1fccf4	0.039013818
6	0x3d85110c	0.06497392
7	0x3d4526d5	0.048132736
8	0x3df5f36c	0.1200932
9	0x3c023e5d	0.007949439
10	0xbb75bbb3	-0.003749591
11	0x3d5e1cec	0.0542268
12	0xbcfc516e	-0.030800547
13	0x3d99de47	0.07513099
14	0x3c1554c9	0.009114453
15	0x3c860672	0.016360495
16	0x3d944339	0.07239384
17	0x3dcbaa58	0.099446
18	0x3c339ce9	0.010962703
19	0xbd8b7d4c	-0.06811008
20	0x3d8db197	0.06918638
21	0xbc188473	-0.009308922
22	0xbd9ab265	-0.07553557
23	0xbd1566ce	-0.036474995
24	0x3d7e49cf	0.062082108
25	0x3db5cc77	0.08876889
26	0x3cefc56a	0.029268939
27	0xbdafae07	-0.08578115
28	0x3d28ade4	0.04118146
29	0xbd6a20e8	-0.057160288
30	0x3dab2564	0.08356741
31	0xbd39ad3f	-0.045331236
32	0xbdcf5ec8	-0.101255
33	0xbd3d647c	-0.046238407
34	0x3db9c76e	0.09071241
35	0xbd2c27fb	-0.042030316
36	0xbd480881	-0.048836235
37	0x3d9e27a4	0.077224046
38	0xbc039e1f	-0.0080333045
39	0xbd14d7a1	-0.036338452
40	0x3d75e107	0.060029056
41	0x3dd0fe17	0.10204714
42	0xbda738fe	-0.08165167
43	0xbc6c2232	-0.01441245
44	0xbd182906	-0.037148498
45	0x3cea17d0	0.028575808
46	0xbda4c778	-0.08045858
47	0x3d30b393	0.043140005
48	0xbd80a5c8	-0.0628162
49	0xbd718f13	-0.058974337
50	0xbd6f908b	-0.058487456
51	0xbcc99107	-0.024605287
52	0xbd1d757f	-0.03844213
53	0xbd1c76b7	-0.038199153
54	0x3da9234e	0.08258687
55	0x3d6a273e	0.05716633
56	0xbc0f1098	-0.008731984
57	0x3d433331	0.04765624
58	0xbd5f44f3	-0.054509114
59	0xbd72ae1c	-0.059248075
60	0x3c45cca3	0.012072715
61	0x3d9af748	0.075666964
62	0xbcf31af4	-0.029675938
63	0xbd7ccc9c	-0.06171857
64	0xbd377f74	-0.044799283
65	0x3d9b1414	0.07572189
66	0xbcca56d5	-0.024699608
67	0x3c55b5ba	0.013043815
68	0xbca5ba0a	-0.020230312
69	0xbc7d6695	-0.015466352
70	0xbb1d0e07	-0.002396466
71	0xbbea3ef7	-0.0071486193
72	0xbd9ffaba	-0.07811494
73	0x3d760baa	0.060069717
74	0x3c438882	0.0119344015
75	0xbd232cef	-0.039837774
76	0xbdc3e03f	-0.09564256
77	0x3d41a87e	0.047279827
78	0x3d8c968b	0.06864651
79	0xbdb492ef	-0.08817088
80	0xbd34364f	-0.043997105
81	0xbc7d5a1f	-0.015463381
82	0x3d6cdbdc	0.05782686
83	0x3ccc2863	0.024921602
84	0x3d315815	0.043296892
85	0x3dbed309	0.093175955
86	0xbda7ac30	-0.08187139
87	0xbd52569e	-0.051352136
88	0x3d0a0fb6	0.03370639
89	0xbc258f11	-0.0101049105
90	0xbdbd53ff	-0.092445366
91	0xbc76e9c9	-0.015070387
92	0xbd66ce00	-0.0563488
93	0x3bd08483	0.006363453
94	0x3d11fb52	0.03564007
95	0x3ced0466	0.028932761
96	0x3d8fbcd2	0.070184365
97	0x3cbf736b	0.023370465
98	0xbc787602	-0.015164854
99	0xbd4d143d	-0.05006813
100	0x3d41b481	0.047291283
101	0x3db83f4a	0.089964464
102	0xbd92941d	-0.071571566
103	0x3d4f76a4	0.050650254
104	0xbd657a33	-0.05602474
105	0xbdb0b84f	-0.08628904
106	0xbd937c80	-0.07201481
107	0x3dc7ea80	0.09761524
108	0xbd918e5f	-0.07107233
109	0xbd468b64	-0.048472777
110	0x3d1959c6	0.03743913
111	0x3d9b6f3f	0.07589578
112	0xbdba0db2	-0.090846434
113	0x3d36b248	0.044603616
114	0x3cf5099f	0.029911814
115	0x3e026af5	0.12736113
116	0xbd990034	-0.07470742
117	0x3c2171a3	0.009853753
118	0xbbe227f1	-0.006901734
119	0xbd947aaa	-0.07249959
120	0xbda792c1	-0.08182288
121	0xbd60d159	-0.05488715
122	0xbd250a31	-0.040292922
123	0xbd561b15	-0.05227192
124	0xbd98e367	-0.074652486
125	0x3d82f173	0.06393709
126	0x3d08d605	0.03340723
127	0x3da0404e	0.07824765

prob.weight f4 [4, 128]
0	0x3d86203c	0.06549117
1	0x3d197d2a	0.03747288
2	0x3c28586f	0.01027499
3	0xbd4278e9	-0.04747859
4	0x3d2b0b34	0.04175873
5	0xbd4e9ff9	-0.05044553
6	0xbd2f8f51	-0.042861287
7	0xbdb7306e	-0.08944784
8	0xbc942f53	-0.018088972
9	0xbd9222b1	-0.07135523
10	0x3d07b1f8	0.03312871
11	0x3cb5ed57	0.022207899
12	0x3d922ed7	0.0713784
13	0x3c1d6d05	0.009608512
14	0x3cd5c154	0.026093163
15	0x3d024e7f	0.03181314
16	0xbd4cc160	-0.049989104
17	0xbdc7b184	-0.09750655
18	0xbd4178f3	-0.047234487
19	0xbd6dfe84	-0.058104053
20	0x3d859676	0.06522839
21	0xbd6e9fae	-0.05825775
22	0x3cb51960	0.022106826
23	0x3dd4428f	0.103642575
24	0x3b2df467	0.002654338
25	0x3c631e4a	0.013862202
26	0xbc785abf	-0.015158354
27	0x3d0d46e0	0.03449142
28	0xbd0a7452	-0.033802338
29	0xbd8784fe	-0.06617163
30	0xbdc5bdf3	-0.096553706
31	0xbd7a5828	-0.06111923
32	0xbd403fbf	-0.046935793
33	0xbd4de021	-0.050262574
34	0xbd39e134	-0.045380786
35	0xbd33ffe2	-0.0439452
36	0x3d99656f	0.0749005
37	0xbd90e0e7	-0.07074147
38	0x3c947adb	0.018124988
39	0xbd5e2215	-0.054231722
40	0xbd82d5e3	-0.06388452
41	0xbd8b5b07	-0.068044715
42	0x3c4d5140	0.012531579
43	0xbdcb6462	-0.09931256
44	0x3baa5337	0.0051979083
45	0xbd7084da	-0.058720447
46	0x3da6ce23	0.08144786
47	0x3ce51996	0.027966302
48	0x3d0e4ef1	0.034743253
49	0x3d2e786d	0.042595316
50	0xbd464186	-0.04840233
51	0xbd9c1413	-0.07621016
52	0x3d818cb0	0.06325662
53	0xbc34051c	-0.010987546
54	0xbd5b9897	-0.053612318
55	0xbd02094b	-0.031747144
56	0xbcdd25e6	-0.02699561
57	0xbc99ae21	-0.018759789
58	0xbd17236f	-0.036899026
59	0xbd447924	-0.04796709
60	0x3d0e8fcb	0.0348051
61	0x3cbb02c2	0.022828463
62	0x3cddfdf1	0.027098628
63	0x3da201c2	0.079104915
64	0x3b84a375	0.004047806
65	0xbcf4e4c0	-0.029894233
66	0xbd4ddd55	-0.050259907
67	0x3b4d5660	0.0031332
68	0xbd8853c7	-0.06656604
69	0xbe0eccf9	-0.13945378
70	0x3cf44dd4	0.029822268
71	0xbd682e25	-0.05668463
72	0xbc1015e3	-0.008794281
73	0x3d15599d	0.036462415
74	0xbcd1ccca	-0.025610346
75	0x3dbad60e	0.09122859
76	0x3d6efb9f	0.058345433
77	0x3ce1b865	0.027553746
78	0x3c65eb33	0.014033127
79	0xbd43f8a7	-0.047844555
80	0x3d5aa287	0.053377654
81	0x3d896207	0.0670815
82	0x3d4adc6e	0.049526624
83	0xbcb56970	-0.022145003
84	0x3cb77c7f	0.022398232
85	0xbd864074	-0.06555262
86	0x3ba58324	0.0050510336
87	0xbd736ad4	-0.05942805
88	0xb9772523	-0.0002356959
89	0x3d44d0e9	0.048050795
90	0x3b94d1ca	0.0045416104
91	0xbdc2531c	-0.09488508
92	0xbcb81e43	-0.022475367
93	0xbd946d87	-0.07247453
94	0x3d841adc	0.064504355
95	0x3d4a6d67	0.04942074
96	0xbb6bf6d2	-0.003600527
97	0x3a1fd199	0.0006096601
98	0xbd1c4aca	-0.038157262
99	0x3d9c7eef	0.07641398
100	0x3c12ad6e	0.008952482
101	0xbbfbcabc	-0.00768408
102	0x3c9f5c49	0.019453185
103	0xbd138ec4	-0.036024824
104	0x3cc88a62	0.024480049
105	0x3d882537	0.06647723
106	0x3d2bec26	0.041973256
107	0xbdccad5a	-0.09994002
108	0x3d10b8bd	0.03533243
109	0x3dd0c16d	0.10193143
110	0xbd7a5a7c	-0.06112145
111	0xbcfaef3f	-0.03063166
112	0xbcd47d09	-0.025938528
113	0x3af49e85	0.0018662965
114	0xbdba7613	-0.09104552
115	0xbd8b195b	-0.067919455
116	0xbc283c4c	-0.010268282
117	0x3d8b8169	0.068117924
118	0xbd693814	-0.056938246
119	0xbd33771a	-0.043814756
120	0xbd3c75ae	-0.046010666
121	0xbcf73089	-0.03017451
122	0xbc166ebb	-0.009181674
123	0x3ca3b439	0.019983398
124	0x3d9cc2c6	0.076543376
125	0x3d13cbc8	0.036083013
126	0xbc8ff511	-0.017572911
127	0x3cb4fa45	0.022091994
128	0x399799e1	0.00028915613
129	0x3daabc29	0.0833667
130	0x3e18a166	0.14905319
131	0xbdfb8189	-0.12280566
132	0x3dd4523e	0.10367249
133	0x3d002bda	0.03129182
134	0xbc541c8a	-0.012946257
135	0xbe001164	-0.12506634
136	0xbe1e38d8	-0.15451372
137	0x3cc7985b	0.024364641
138	0x3c7a4e20	0.0152774155
139	0x3d6dd639	0.058065627
140	0xbbd3ec0c	-0.006467348
141	0x3c2de729	0.010614195
142	0x3d7060b0	0.05868596
143	0x3d7d258a	0.06180338
144	0xbc3fdf3d	-0.011710939
145	0xbe092ebb	-0.13396733
146	0x3c98d9a6	0.01865847
147	0xbdc09c98	-0.09404868
148	0x3ad089c6	0.00159102
149	0xbc1c2a90	-0.009531632
150	0xbd2ed71d	-0.042685617
151	0x3d15d542	0.03658033
152	0x3d9b4d70	0.075831294
153	0xbbafd741	-0.0053662364
154	0xbdee3f85	-0.11633209
155	0x3d18970d	0.03725343
156	0xbd20266c	-0.039099142
157	0xbd91b391	-0.07114328
158	0x3cbac570	0.022799224
159	0x3d94606b	0.07244953
160	0x3cfcaf5c	0.030845337
161	0x3c557270	0.013027772
162	0x3dcf0578	0.10108465
163	0xbd29c0f2	-0.041443773
164	0x3d3cc0b0	0.0460822
165	0xbddbc784	-0.10731414
166	0xbd178605	-0.036993045
167	0xbda4c107	-0.080446295
168	0xbd5f7c76	-0.054562055
169	0xbdffb2a8	-0.12485248
170	0xbd93c000	-0.072143555
171	0xbe041d15	-0.12901719
172	0xbd4e3c3c	-0.050350413
173	0xbe005b16	-0.12534747
174	0xbb89c5e9	-0.004204501
175	0xbca57da6	-0.020201515
176	0x3d445750	0.04793483
177	0x3d6ceaff	0.057841297
178	0x3d5c27a1	0.05374873
179	0x3cf9cf76	0.030494433
180	0xbd858cb8	-0.065209806
181	0x3d21bcd3	0.039486717
182	0xbdf840bc	-0.12121722
183	0x3dbea480	0.0930872
184	0xbc745c42	-0.014914574
185	0x3d11456b	0.035466593
186	0x3d57e132	0.052704997
187	0x3c999525	0.018747875
188	0xbe012940	-0.12613392
189	0xbd2437f2	-0.040092416
190	0x3bbe5d25	0.0058094435
191	0x3e044c33	0.12919693
192	0x3c326e72	0.01089059
193	0x3e0b960a	0.13631454
194	0x3d98a441	0.07453204
195	0x3dafdfcf	0.0858761
196	0xbad3e585	-0.0016166425
197	0x3b9b7ca6	0.004745084
198	0xbd434a94	-0.047678545
199	0xbc4e2488	-0.012581952
200	0xbd362378	-0.04446742
201	0xbd826ecf	-0.06368791
202	0x3d36a1b4	0.044587806
203	0xbdb73868	-0.089463055
204	0x3c19e1ad	0.009392184
205	0xbd055a12	-0.0325566
206	0x3dcf9270	0.101353526
207	0xbd402502	-0.046910293
208	0xbd9a2b88	-0.07527834
209	0x3d84c348	0.064825594
210	0x3ca69cbc	0.020338409
211	0x3da221ac	0.07916579
212	0x3dacadaf	0.08431565
213	0x3b715bed	0.0036828474
214	0xbcdf5603	-0.027262693
215	0x3c112988	0.0088599995
216	0xbd3f5759	-0.04671416
217	0xbce994e4	-0.02851338
218	0x3cfe942e	0.031076517
219	0xbd0b32db	-0.033984046
220	0x3d433e91	0.04766709
221	0x3d9e3ecf	0.077268235
222	0xbdaac961	-0.08339191
223	0x3b41a053	0.0029545024
224	0x3dd6ba3f	0.104847424
225	0xbd8e14f9	-0.06937594
226	0xbd8d12c4	-0.06888345
227	0xbd865f53	-0.065611504
228	0x3d7e4cf5	0.06208511
229	0xbd94c7bc	-0.07264659
230	0x3c941501	0.018076422
231	0xbdcac014	-0.09899917
232	0x3ba3b857	0.0049963403
233	0xbd4be305	-0.04977705
234	0x3dddc107	0.10827833
235	0x3dcdc782	0.10047819
236	0x3d1e3bb5	0.03863116
237	0xbd8e1e42	-0.06939365
238	0xbcb5564f	-0.022135882
239	0x3aa606dc	0.0012666839
240	0xbd58ee18	-0.05296144
241	0x3c8a28be	0.01686513
242	0x3caa1e69	0.020766454
243	0xbd84068d	-0.06446562
244	0x3916d2a3	0.00014383583
245	0x3d77da9e	0.060511224
246	0x3d2f25f9	0.042760823
247	0x3c18caf3	0.009325731
248	0xbbfce513	-0.0077177375
249	0x3dabebd6	0.083945915
250	0xbbf2c424	-0.0074086357
251	0x3bc5dc88	0.0060382523
252	0xbd79c05b	-0.06097446
253	0x3c550f85	0.013004188
254	0xbc829142	-0.015938405
255	0xbd8dfa30	-0.06932485

prob.bias f4 [4]
0	0xbd3cc9bc	-0.046090826
1	0xbd486f76	-0.048934422
2	0xbb41dbbd	-0.0029580437
3	0x3c7c85b7	0.0154127395
