bs/game/checkpoints/Reinforce_discrete/Reinforce_policy_600.pth (torch_old, 73748 bytes, 6 tensors)

fc1.weight f4 [128, 8]
-0.23215555 0.27470887 -0.24421176 0.35169858 -0.30448905 0.29292417 0.054100454 0.027390685
0.16400373 -0.12116511 0.20623161 0.31273717 -0.28453174 -0.12066278 0.18030633 0.07959167
-0.36931616 -0.3089023 0.021201447 0.02229454 -0.33954006 0.10061032 -0.08497672 -0.032998856
0.26267165 0.033932623 0.124548264 -0.3344088 -0.0797539 0.33630678 0.011344796 0.10605709
-0.24249475 -0.078680806 -0.124938406 -0.26573998 -0.12799694 0.065387025 -0.34260675 -0.31737357
-0.226986 -0.28993487 0.10059207 -0.27320507 -0.0190781 0.048921224 0.14283583 -0.03117938
-0.20121141 -0.069033064 -0.1475559 0.33413073 -0.3138067 0.09762125 0.07634344 -0.34515366
0.34114835 0.0135430675 0.37517524 0.2367643 -0.35218248 -0.23659146 0.31755373 -0.24141349
-0.229553 0.14345936 0.3361022 -0.09001365 -0.26264945 0.13199319 -0.037468623 -0.14926937
0.16358648 -0.12321041 -0.17112646 0.11307191 0.21628423 0.09319101 -0.318838 0.011294553
0.12892 -0.10765858 -0.12609306 0.12465114 0.116729744 -0.32688108 0.08472738 0.24681908
0.049991295 -0.22335546 -0.035569414 0.1362057 0.3449408 0.023594784 -0.3388647 0.11678269
-0.23403695 -0.14377011 -0.108157076 -0.23683687 -0.38171494 -0.009351261 0.04884089 0.016136745
-0.20985053 0.3164838 0.35092264 0.041744426 -0.31008467 0.20667489 -0.16955987 0.35109174
-0.053946625 -0.21302868 -0.2455277 0.276665 -0.08132054 0.27758846 -0.15630327 0.040206023
-0.188417 -0.28721908 -0.24677525 0.0033492255 0.053102694 0.053305335 0.049777444 0.051806882
-0.3191972 -0.07279088 -0.0058029387 0.2800109 -0.18026416 0.16927703 0.22920655 -0.16777802
-0.013630985 -0.009969609 -0.14669734 -0.1615067 -0.23263153 0.099914946 0.15068425 -0.05587238
0.21466318 -0.27775773 -0.3165867 0.28054374 0.31350258 0.108768634 0.1867189 -0.2994577
-0.32088912 -0.23951542 -0.0984471 -0.30872524 -0.2610882 -0.15520355 -0.04075674 -0.33083045
-0.12444355 0.18875287 0.038430836 0.2964975 0.085640304 0.22734134 -0.30180722 -0.18215252
-0.073611066 -0.3099725 -0.050254986 0.016276855 -0.33213195 -0.05610055 0.016426811 0.21088651
-0.07813111 -0.028496599 -0.2311116 0.27804458 0.16549645 -0.08318175 0.23569196 0.24060288
-0.091875486 0.20432809 -0.09518474 -0.078519076 -0.15935306 0.30806693 0.0006063781 0.16133466
-0.0043652356 0.15747465 0.27617186 -0.34564823 0.14448702 -0.20753427 -0.18876329 -0.23298743
0.35814315 -0.24020623 0.10507977 -0.11969936 -0.031255145 0.20130268 0.303003 0.19673525
-0.28956616 0.30086964 -0.005599834 0.045596965 0.23740193 -0.064876266 0.30210614 -0.3425011
-0.079324886 0.18292826 -0.13590732 -0.16733532 0.014788229 -0.31062797 0.16914698 0.31124812
-0.019045228 -0.13391282 -0.100374386 -0.12499917 0.1899493 -0.08487131 0.02536107 0.17107296
-0.25003973 -0.28490126 0.11691337 0.2983656 0.16634445 0.13203314 0.17829292 0.2507451
-0.32140064 -0.29505903 0.10961603 0.34730664 0.077964716 0.017457562 0.09022532 -0.23208098
-0.2118956 -0.20787245 0.35133782 0.0088810185 0.032234512 0.27924585 0.22965203 -0.13343905
00000000: 2fba 6dbe a4a6 8c3e a612 7abe d611 b43e
00000010: fde5 9bbe 28fa 953e 7098 5d3d 6e62 e03c
00000020: 98f0 273e 6a25 f8bd 612e 533e 161f a03e
00000030: 25ae 91be 0c1e f7bd 39a2 383e f500 a33d
00000040: 0217 bdbe 7128 9ebe a8ae ad3c 0aa3 b63c
00000050: 32d8 adbe c90c ce3d 4608 aebd cf29 07bd
00000060: e67c 863e effc 0a3d 2913 ff3d a137 abbe
00000070: 0356 a3bd 6730 ac3e 86df 393c 7634 d93d
00000080: 8b50 78be 6723 a1bd b5df ffbd 120f 88be
00000090: a111 03be a2e9 853d 276a afbe ca7e a2be
000000a0: 056f 68be 5872 94be 3703 ce3d 89e1 8bbe
000000b0: ad49 9cbc 9f61 483d 8e43 123e e66b ffbc
000000c0: 5d0a 4ebe 3561 8dbd e518 17be 2f13 ab3e
000000d0: 46ab a0be a6ed c73d f359 9c3d fbb7 b0be
000000e0: ffaa ae3e bee3 5d3c f816 c03e 5772 723e
000000f0: 4351 b4be 0845 72be 6796 a23e 1935 77be
00000100: f10f 6bbe 03e7 123e 9615 ac3e 1459 b8bd
00000110: fd79 86be 3929 073e b378 19bd 12da 18be
00000120: 3783 273e bd55 fcbd c63b 2fbe 3f92 e73d
00000130: 9d79 5d3e eeda be3d bc3e a3be ca0c 393c
00000140: 9b03 043e 1a7c dcbd 8a1e 01be 1949 ff3d
00000150: 0110 ef3d f55c a7be 8c85 ad3d 24be 7c3e
00000160: acc3 4c3d 4bb7 64be 3cb1 11bd 8279 0b3e
00000170: 159c b03e d949 c13c ad7f adbe c32b ef3d
00000180: 62a7 6fbe 7938 13be 7581 ddbd 5d85 72be
00000190: 2470 c3be 0836 19bc 630d 483d 3531 843c
000001a0: 0fe3 56be 2a0a a23e 22ac b33e 34fc 2a3d
000001b0: 6bc3 9ebe 95a2 533e 1aa1 2dbe 4cc2 b33e
000001c0: 23f7 5cbd 3124 5abe 9d6b 7bbe 09a7 8d3e
000001d0: 628b a6bd 1320 8e3e f70d 20be 12af 243d
000001e0: 63f0 40be 610e 93be a7b2 7cbe ae7e 5b3b
000001f0: 3682 593d b256 5a3d 6fe3 4b3d 7433 543d
00000200: d16d a3be 6313 95bd 9426 bebb 975d 8f3e
00000210: 2b97 38be f556 2d3e 1fb5 6a3e 00ce 2bbe
00000220: 7f54 5fbc 9257 23bc d437 16be 0362 25be
00000230: f636 6ebe 35a0 cc3d f94c 1a3e 70da 64bd
00000240: aad0 5b3e 4336 8ebe a717 a2be 6ea3 8f3e
00000250: 6983 a03e 17c2 de3d 3d33 3f3e 8552 99be
00000260: 944b a4be 8843 75be a29e c9bd 3c11 9ebe
00000270: 5aad 85be aeed 1ebe 8af0 26bd 9c62 a9be
00000280: 43dc febd 6f48 413e a769 1d3d 85ce 973e
00000290: 2f64 af3d 2bcc 683e 7a86 9abe 3186 3abe
000002a0: 66c1 96bd b7b4 9ebe 2cd8 4dbd 0a57 853c
000002b0: 330d aabe b1c9 65bd 8591 863c a2f2 573e
000002c0: 3403 a0bd b371 e9bc 85a8 6cbe dc5b 8e3e
000002d0: e777 293e 315b aabd 3c59 713e 9a60 763e
000002e0: 3729 bcbd 623b 513e 38f0 c2bd 9cce a0bd
000002f0: 732d 23be f3ba 9d3e 58f5 1e3a ea34 253e
00000300: 400a 8fbb 0941 213e 6666 8d3e cef8 b0be
00000310: 68f4 133e dd83 54be 2a4b 41be 4294 6ebe
00000320: 8a5e b73e 9ff8 75be 1034 d73d f024 f5bd
00000330: 6505 00bd 4a22 4e3e 3623 9b3e f774 493e
00000340: 0442 94be 960b 9a3e d07e b7bb e2c3 3a3d
00000350: 7e19 733e d9dd 84bd a8ad 9a3e 4e5c afbe
00000360: 1675 a2bd 8c51 3b3e 4a2b 0bbe f359 2bbe
00000370: 544a 723c a10a 9fbe de34 2d3e ea5b 9f3e
00000380: bd04 9cbc 7120 09be 1691 cdbd 91ff ffbd
00000390: 1282 423e 02d1 adbd 05c2 cf3c c02d 2f3e
000003a0: 3505 80be 94de 91be 4770 ef3d 60c3 983e
000003b0: 3356 2a3e b233 073e 6b92 363e a961 803e
000003c0: a08e a4be fa11 97be 5e7e e03d 2dd2 b13e
000003d0: f7ab 9f3d 2903 8f3c 0dc8 b83d a3a6 6dbe
000003e0: 29fb 58be 84dc 54be 8de2 b33e b181 113c
000003f0: 5608 043d 50f9 8e3e e729 6b3e 3fa4 08be

fc1.bias f4 [128]
0.1436693 0.0995491 -0.13883176 -0.29325923 0.06875669 -0.20553221 0.030045817 0.078402646
0.13616753 -0.34177867 -0.2714956 -0.023270022 0.3335832 0.19240472 0.24640368 -0.28201792
-0.14990035 0.22807628 0.25582767 -0.1640701 -0.332789 0.11447206 -0.23096596 0.25053674
-0.30068406 -0.138507 -0.26494056 -0.038398296 0.18486978 0.05533323 -0.3161305 -0.009108739
0.2871451 -0.23950519 -0.2543478 0.21535884 -0.10561949 -0.24466404 -0.06653562 -0.29920515
-0.37191534 0.3473228 0.1675157 -0.10943895 0.036178496 0.15904044 0.33786345 0.28072727
0.14372091 -0.1407423 -0.27680042 0.32131717 -0.32629672 0.18785238 0.24411948 -0.019210571
-0.26320165 0.3351725 -0.14736573 0.22921814 0.21169096 -0.0032154499 0.06772429 0.3193298
-0.28059343 -0.31704897 -0.16414717 0.06987119 -0.28631234 -0.1339973 0.26492873 0.16649687
-0.086175255 -0.17524211 -0.094410256 0.13658684 0.18528767 -0.16513258 -0.11704145 0.25896296
-0.082014404 -0.1284888 -0.12524085 -0.33946446 0.247311 -0.19245028 -0.3096271 -0.26818106
-0.27313167 0.05811975 -0.2522464 0.045661747 -0.015152793 0.075189374 -0.30184758 -0.29677883
-0.35871354 -0.32178327 0.1599059 0.266845 0.31992587 -0.12546793 0.2569352 -0.34192
-0.31770667 0.021476565 -0.2719138 -0.09556525 0.076124884 0.21735646 0.061459497 -0.1539153
-0.06761625 -0.28202826 -0.34208754 0.34745932 0.31773248 0.13287471 -0.10567035 0.01865416
-0.19120336 -0.23148479 -0.08808156 -0.2845336 -0.01566004 0.24169493 0.18435203 0.20002909
00000000: 0c1e 133e 66e0 cb3d ea29 0ebe 1326 96be
00000010: 4fd0 8c3d 0977 52be a522 f63c 9191 a03d
00000020: 806f 0b3e 9dfd aebe 7901 8bbe c6a0 bebc
00000030: 6bcb aa3e be05 453e 3f51 7c3e a764 90be
00000040: 7a7f 19be d48c 693e d8fb 823e fe01 28be
00000050: 5263 aabe 5470 ea3d 5782 6cbe 5a46 803e
00000060: 43f3 99be c7d4 0dbe 4aa6 87be 8847 1dbd
00000070: 814e 3d3e 19a5 623d dbdb a1be d23c 15bc
00000080: af04 933e d940 75be e039 82be 0787 5c3e
00000090: 084f d8bd 3689 7abe d443 88bd 6b31 99be
000000a0: b06b bebe 4bd4 b13e 3c89 2b3e 8721 e0bd
000000b0: e72f 143d 7fdb 223e 70fc ac3e 7cbb 8f3e
000000c0: 932b 133e c01e 10be c9b8 8dbe af83 a43e
000000d0: 5d10 a7be 605c 403e 75fa 793e 7d5f 9dbc
000000e0: 5ec2 86be bb9b ab3e 0be7 16be 29b8 6a3e
000000f0: 84c5 583e 4cba 52bb 08b3 8a3d 327f a33e
00000100: f1a9 8fbe 3e54 a2be 3216 28be a018 8f3d
00000110: 8897 92be 9736 09be bda4 873e 287e 2a3e
00000120: a77c b0bd ab72 33be 2a5a c1bd 6cdd 0b3e
00000130: 0dbc 3d3e 8418 29be 6eb3 efbd cb96 843e
00000140: 2bf7 a7bd 9192 03be 233f 00be 49ce adbe
00000150: 183f 7d3e b011 45be 7187 9ebe 074f 89be
00000160: ead7 8bbe fa0e 6e3d 7126 81be d007 3b3d
00000170: 6c43 78bc e3fc 993d c48b 9abe 65f3 97be
00000180: 4da9 b7be c7c0 a4be 5fbe 233e e89f 883e
00000190: 53cd a33e aa7a 00be 038d 833e 2310 afbe
000001a0: 73aa a2be 9fef af3c 4938 8bbe b7b7 c3bd
000001b0: 5de7 9b3d b192 5e3e f4bc 7b3d f99b 1dbe
000001c0: 637a 8abd 0266 90be 1926 afbe 30e6 b13e
000001d0: d5ad a23e 4f10 083e b269 d8bd 9cd0 983c
000001e0: d0ca 43be 590a 6dbe 1b64 b4bd 63ae 91be
000001f0: 7c49 80bc e07e 773e c7c6 3c3e 6dd4 4c3e

fc2.weight f4 [128, 128]
-0.043537676 -0.063957416 -0.07522798 0.05505397 -0.07145506 0.06582328 0.06237971 0.043379832
0.0057719317 0.020038309 -0.070026964 0.028933449 0.023731036 -0.08641594 -0.017571194 0.02230441
-0.026364455 0.05238586 -0.022234065 0.032199126 0.035767827 0.062044002 -0.08803017 0.025393555
-0.038974203 -0.02158778 0.04370394 -0.087033935 0.007508386 -0.085976794 0.061019786 0.06672401
-0.026031844 0.050865214 0.04681443 -0.023717951 -0.044187825 0.038527347 -0.021534372 0.06434984
-0.02063382 -0.088154025 -0.08579418 -0.043482073 0.028311592 -0.060067195 -0.0027943016 -0.05522419
0.0008573041 -0.0018255694 0.08133927 0.03155137 -0.057008203 -0.082451604 -0.054404512 0.044461012
-0.06491913 -0.061214827 -0.037755758 -0.057486877 0.0062090955 -0.013365416 -0.046231233 -0.032981694
0.051337313 0.06443207 -0.003036574 0.05870604 0.01701386 -0.086351454 0.011672078 0.06984263
0.0030083954 -0.06696755 0.056905966 0.06677803 -0.06597675 0.048350282 0.056321144 0.05921722
0.03158498 -0.09198033 0.074867986 -0.023372259 -0.053814225 -0.023067761 0.08196681 0.052928403
0.025407918 -0.09351225 -0.07856874 0.07593666 0.06261018 -0.00469099 0.014576065 0.011858457
0.038858198 0.075445615 -0.016581845 -0.06567777 0.021810682 -0.011033371 0.043242704 -0.07000308
-0.042570632 -0.080153696 -0.06174245 -0.062245343 -0.01676239 0.00097380736 0.058405437 0.020506922
-0.057437304 -0.027898459 -0.015462815 0.0009871534 0.04390654 -0.08828898 -0.053734608 -0.07256839
-0.0096324375 -0.0437154 0.0540746 0.028603224 0.075067714 0.03340404 0.011738181 0.034598906
0.041041348 -0.029052848 0.039886903 -0.062939085 -0.07462268 -0.08548841 0.03711105 0.058904108
0.048081744 0.08016392 0.087484844 0.071664646 0.018949686 -0.012170377 -0.029911261 -0.074434906
-0.08998816 -0.0053211353 -0.012529769 0.007617733 -0.020227078 0.08155951 0.065012604 -0.023195984
-0.044005465 0.0705414 0.04633481 0.056850813 -0.016589576 0.064871326 0.04234305 0.023806004
0.0017586965 -0.042768456 0.06685886 0.012117368 -0.055453744 -0.040315896 -0.04321988 -0.03491075
0.021323856 0.038519904 -0.0061016334 -0.08413445 -0.034151312 -0.073611625 -0.014660319 0.07764024
-0.058751464 0.0028437998 -0.04126045 -0.03052296 0.0814474 -0.03658287 0.08067356 0.08763719
-0.009162223 -0.016847705 -0.020288711 0.07304502 0.019078877 0.020675354 -0.0071307844 -0.070960514
-0.013221569 -0.028879121 -0.005756712 0.0341348 -0.018749835 0.008992533 0.059891045 -0.082019046
0.036519974 -0.00051374064 -0.021338653 0.016968084 -0.024652857 0.03336121 -0.07391114 0.05301163
0.0005163673 0.047775712 -0.031179016 0.060287334 -0.05938848 0.020983482 -0.077096574 -0.05928092
0.010324974 -0.045265425 0.042423565 0.089813225 -0.015111799 0.052587852 0.07540714 0.03396492
-0.05697262 0.021334816 -0.011876456 0.0700728 0.0050865905 0.036884192 0.053988848 -0.026413765
-0.0034455345 0.01919725 0.07173012 0.039665416 0.06060735 0.06368791 -0.038581535 0.029738598
-0.049419828 0.07098238 -0.05848971 0.017839588 0.0393105 -0.004120039 0.08765877 0.028641058
0.075590454 -0.03874408 -0.019679653 0.05852703 -0.015497059 0.07122882 -0.024346316 0.014305508
00000000: 9054 32bd 1bfc 82bd 2111 9abd 4680 613d
00000010: 0857 92bd 5bce 863d de81 7f3d 0daf 313d
00000020: 7922 bd3b 6127 a43c 4c6a 8fbd d705 ed3c
00000030: 9767 c23c d7fa b0bd 77f1 8fbc bdb7 b63c
00000040: 45fa d7bc 8e92 563d 3724 b6bc 3be3 033d
00000050: 4981 123d da21 7e3d 2949 b4bd 2506 d03c
00000060: 6aa3 1fbd dbd8 b0bc e702 333d d93e b2bd
00000070: e808 f63b 9a14 b0bd e2ef 793d 99a6 883d
00000080: bc40 d5bc 0b58 503d 7dc0 3f3d 264c c2bc
00000090: 4bfe 34bd dace 1d3d da68 b0bc d9c9 833d
000000a0: 4208 a9bc 198a b4bd dcb4 afbd 421a 32bd
000000b0: b6ed e73c 0509 76bd 9a20 37bb c332 62bd
000000c0: b4bc 603a f247 efba 3495 a63d 023c 013d
000000d0: 6f81 69bd 63dc a8bd 44d7 5ebd c01c 363d
000000e0: 52f4 84bd 66bc 7abd c8a5 1abd 5c77 6bbd
000000f0: ab75 cb3b 9efa 5abc f65c 3dbd d017 07bd
00000100: 1347 523d f6f4 833d 4201 47bb bf75 703d
00000110: a760 8b3c 08d9 b0bd 3e3c 3f3c a709 8f3d
00000120: 8028 453b 4826 89bd 3b16 693d ebc2 883d
00000130: d11e 87bd f20a 463d 00b1 663d c18d 723d
00000140: 415f 013d 2f60 bcbd 6354 993d 2e77 bfbc
00000150: 4e6c 5cbd 9af8 bcbc 37de a73d 74cb 583d
00000160: 4424 d03c 5a83 bfbd a6e8 a0bd ae84 9b3d
00000170: c439 803d e0b6 99bb 73d0 6e3c f949 423c
00000180: c629 1f3d 3b83 9a3d a6d6 87bc 1182 86bd
00000190: 51ac b23c 50c5 34bc 431f 313d c65d 8fbd
000001a0: 8b5e 2ebd 9f27 a4bd a7e5 7cbd f9f4 7ebd
000001b0: 4851 89bc 1b47 7f3a 8a3a 6f3d 22fe a73c
000001c0: 6143 6bbd 4f8b e4bc bf57 7dbc 5f63 813a
000001d0: 58d7 333d dad0 b4bd d218 5cbd bc9e 94bd
000001e0: 5fd1 1dbc eb0e 33bd 547d 5d3d 4f51 ea3c
000001f0: 1abd 993d add2 083d 8051 403c 95b7 0d3d
00000200: f91a 283d 3d00 eebc 7360 233d 35e6 80bd
00000210: c7d3 98bd 8c14 afbd c201 183d 6f45 713d
00000220: 5df1 443d fb2c a43d 412b b33d eac4 923d
00000230: 5f3c 9b3c 4366 47bc 7608 f5bc 5471 98bd
00000240: b64b b8bd eb5c aebb a949 4dbc 2d9e f93b
00000250: 42b3 a5bc ac08 a73d 5425 853d 8105 bebc
00000260: 133f 34bd 0278 903d 92c9 3d3d 66dc 683d
00000270: dde6 87bc 42db 843d e86f 2d3d cf04 c33c
00000280: 1084 e63a fa2d 2fbd 4ced 883d ed87 463c
00000290: 7723 63bd 4822 25bd 5407 31bd 93fe 0ebd
000002a0: 5eaf ae3c 0cc7 1d3d 36f0 c7bb af4e acbd
000002b0: 3fe2 0bbd b1c1 96bd d631 70bc d901 9f3d
000002c0: 60a5 70bd 0b5f 3a3b b800 29bd 490b fabc
000002d0: e5cd a63d ebd7 15bd 2e38 a53d 217b b33d
000002e0: 261d 16bc 3304 8abc 8334 a6bc a198 953d
000002f0: 4e4b 9c3c 5c5f a93c 5ba9 e9bb bf53 91bd
00000300: 489f 58bc e893 ecbc cda2 bcbb efd0 0b3d
00000310: 4199 99bc 6b55 133c 5050 753d 9af9 a7bd
00000320: f895 153d 8dac 06ba 66ce aebc a700 8b3c
00000330: caf4 c9bc c4a5 083d b95e 97bd b922 593d
00000340: d35c 073a 77b0 433d 236b ffbc daef 763d
00000350: 5641 73bd 8de5 ab3c cfe4 9dbd 8dd0 72bd
00000360: 142a 293c 3d68 39bd 55c4 2d3d ffef b73d
00000370: 7b97 77bc 5c66 573d 0f6f 9a3d cd1e 0b3d
00000380: 1f5c 69bd 5ac6 ae3c 7895 42bc 5482 8f3d
00000390: 6aad a63b e113 173d 6923 5d3d ae61 d8bc
000003a0: 7ace 61bb 8d43 9d3c 3ee7 923d 3478 223d
000003b0: 6a3f 783d cf6e 823d ac07 1ebd 5c9e f33c
000003c0: 726c 4abd 365f 913d e892 6fbd 5424 923c
000003d0: 0c04 213d 6401 87bb 7186 b33d a7a0 ea3c
000003e0: 2bcf 9a3d 1db2 1ebd 3937 a1bc 0aba 6f3d
000003f0: 60e7 7dbc 6ae0 913d ed71 c7bc a661 6a3c

fc2.bias f4 [128]
-0.055343922 -0.071144685 0.010832664 -0.004324412 0.081398785 0.0460184 0.06497392 0.03430092
0.087956354 0.0017832592 -0.0023803583 0.046308976 -0.020731881 0.0639007 0.012410871 0.017533826
0.08488283 0.063453615 0.00800784 -0.071982294 0.07915189 -0.0011173766 -0.06769932 -0.049733
0.051154148 0.09426525 0.011220416 -0.07856698 0.041700874 -0.059033763 0.062252104 -0.032749303
-0.101255 -0.04618843 0.08053013 -0.033998143 -0.041836448 0.058195937 -0.008111322 -0.018664949
0.060029056 0.0664158 -0.08099018 -0.043276366 -0.03251931 0.010999968 -0.077414595 0.06056148
-0.056903213 -0.05422828 -0.057362743 -0.024605287 -0.032244824 -0.038199153 0.068273984 0.04037993
-0.03122899 0.04390869 -0.07069115 -0.059248075 -0.002171672 0.076207936 -0.029675843 -0.0673302
-0.042746767 0.06454016 -0.024697693 0.009248546 -0.019942401 -0.04935392 -0.0056071575 -0.01516771
-0.071782485 0.046459284 -0.0022349362 -0.074330136 -0.091572426 0.053329475 0.06436401 -0.074548304
-0.028682917 -0.022023164 0.075879045 0.021030357 0.043296892 0.09049433 -0.08187139 -0.037920985
0.0050414777 8.5043e-05 -0.07601445 -0.03641947 -0.052916836 -0.02412336 0.034416273 0.031245163
0.062296797 0.035548635 -0.015999796 -0.061784245 0.054022476 0.09015168 -0.06311963 0.044830758
-0.05602474 -0.08628904 -0.068188906 0.082182705 -0.06478512 -0.058839247 0.038064703 0.07273502
-0.08284469 0.04455215 0.010308342 0.07065337 -0.07201846 0.009853753 -0.00829535 -0.06769023
-0.08182288 -0.051301695 -0.041629124 -0.044879712 -0.074652486 0.08074207 -0.009278045 0.08656466
00000000: 4fb0 62bd 4eb4 91bd 7c7b 313c ccb3 8dbb
00000010: 68b4 a63d ca7d 3c3d 0c11 853d 1f7f 0c3d
00000020: 7622 b43d 40bc e93a c9ff 1bbb 7bae 3d3d
00000030: e8d5 a9bc 5fde 823d f756 4b3c 19a3 8f3c
00000040: 0dd7 ad3d f8f3 813d 5133 033c 746b 93bd
00000050: 631a a23d f074 92ba f1a5 8abd d5b4 4bbd
00000060: 0387 513d 240e c13d d6d5 373c bae7 a0bd
00000070: 89ce 2a3d 63cd 71bd 10fc 7e3d 2224 06bd
00000080: c85e cfbd 1430 3dbd fbec a43d a341 0bbd
00000090: b25c 2bbd dd5e 6e3d 5ae5 04bc 3ce7 98bc
000000a0: 07e1 753d 0205 883d 2ede a5bd 8f42 31bd
000000b0: f832 05bd 3639 343c 8b8b 9ebd 500f 783d
000000c0: 5813 69bd 791e 5ebd 32f5 6abd 0791 c9bc
000000d0: 2613 04bd b776 1cbd 3bd3 8b3d 6d65 253d
000000e0: f0d3 ffbc 99d9 333d 86c6 90bd 1cae 72bd
000000f0: 9c52 0ebb e812 9c3d c11a f3bc 6ae4 89bd
00000100: 3c17 2fbd a22d 843d d152 cabc 3787 173c
00000110: 3f5e a3bc 5627 4abd 3fbc b7bb fd81 78bc
00000120: b202 93bd 174c 3e3d 0278 12bb 663a 98bd
00000130: 538a bbbd 0270 5a3d 47d1 833d c8ac 98bd
00000140: 70f8 eabc ec69 b4bc 7966 9b3d db47 ac3c
00000150: 1558 313d 1755 b93d 30ac a7bd 0953 1bbd
00000160: fb32 a53b 1d59 b238 77ad 9bbd 952c 15bd
00000170: 53bf 58bd 5a9e c5bc 14f8 0c3d dbf5 ff3c
00000180: ed2a 7f3d 729b 113d 0112 83bc 7a11 7dbd
00000190: ac46 5d3d 72a1 b83d dd44 81bd 75a0 373d
000001a0: 337a 65bd 4fb8 b0bd a0a6 8bbd 684f a83d
000001b0: 10ae 84bd 6c01 71bd bce9 1b3d 19f6 943d
000001c0: 7aaa a9bd 517c 363d 52e4 283c b7b2 903d
000001d0: 6a7e 93bd a371 213c 38e9 07bc 2da1 8abd
000001e0: c192 a7bd ba21 52bd 4d83 2abd cad3 37bd
000001f0: 67e3 98bd 195c a53d f102 18bc d048 b13d

prob.weight f4 [4, 128]
0.06549322 0.027244294 0.017218722 -0.031215312 0.039700665 -0.052189928 -0.042861287 -0.071770355
0.010078613 -0.06757748 0.00769753 0.028343163 0.053074446 0.04721821 0.027271882 0.032190286
-0.029978586 -0.067389704 -0.04531761 -0.057321183 0.04953511 -0.06794601 0.026081786 0.07773895
0.025157662 0.0026945404 0.006422698 0.03509196 -0.024602978 -0.07345732 -0.07860878 -0.06265693
-0.046935793 -0.05027659 -0.043403137 -0.05585764 0.052793957 -0.022781657 0.018162636 -0.05183409
-0.06388452 -0.03207427 0.012520912 -0.06832013 0.002174127 -0.0783174 0.08445051 0.03797049
0.033073932 0.05418912 -0.04854498 -0.07621016 0.06398796 -0.010987546 -0.031629883 -0.020760959
-0.005706549 -0.027317585 -0.003109095 -0.04796709 0.029105593 0.022881387 0.027098628 0.0716158
0.0065611308 -0.023600586 -0.050260764 0.010878573 -0.066615775 -0.094815105 0.028848499 -0.055804808
-0.004447675 0.024714842 -0.010400064 0.059091747 0.03934583 0.030616198 0.005260068 -0.043110535
0.06265457 0.057399582 0.052248288 -0.014111345 0.022398232 -0.05901053 0.0050510336 -0.0459969
0.017054068 0.04343944 -0.00708386 -0.0788201 -0.014406526 -0.04288796 0.06988551 0.05150783
0.008146735 -0.006271944 -0.045515276 0.07485885 0.001089214 -0.00986916 0.01680668 -0.013944992
0.024480049 0.06647723 0.033134654 -0.080618165 0.034626104 0.086721726 -0.05633816 -0.02938857
-0.057803206 0.0023716644 -0.07267075 -0.02340841 -0.010375549 0.068117924 -0.051569898 -0.043991983
-0.046010666 -0.025984982 -0.010121527 0.02867615 0.076543376 0.047530983 0.028801715 0.032278482
0.00028896725 0.07003673 0.10369161 -0.06513215 0.0837569 0.018495409 -0.012946257 -0.08350755
-0.09695044 -0.0012062087 0.033960547 0.020109648 -0.020128345 -0.00929573 0.057562303 0.062395144
-0.016783237 -0.08477764 0.022639947 -0.087120645 0.009956418 -0.01586477 -0.055013057 0.016185965
0.048337847 -0.02260834 -0.082909465 0.03214191 -0.050750013 -0.089129806 0.07762002 0.07554149
0.030845337 0.013030905 0.05440216 -0.04511102 0.043753073 -0.046626158 -0.03701944 -0.08687217
-0.054562055 -0.079701126 -0.07216263 -0.07133951 -0.047977906 -0.09145404 -0.0050714035 -0.027630523
0.052835543 0.062153623 0.053651173 0.030494433 -0.06427848 0.039486717 -0.08474262 0.08738614
0.01703586 0.033186637 0.053736657 0.018747875 -0.084279664 -0.039924894 0.00580943 0.08782255
0.0059427302 0.09005583 0.07453231 0.06781707 -0.0016292012 0.018703194 -0.04811075 0.0056414935
-0.047657177 -0.04723078 0.0047347993 -0.031865574 -0.011777535 -0.038823247 0.0690076 -0.061240364
-0.09477202 0.020248007 0.0144903725 0.06544338 0.08431565 0.036553435 -0.027262693 -0.0045711626
-0.0052695535 -0.031053891 0.017396072 -0.005529437 0.0634394 0.08332706 -0.08754385 0.0037761433
0.094384044 -0.07934605 -0.065015264 -0.042259905 0.07152842 -0.067522466 0.018429724 -0.060149077
0.0049963403 -0.04977705 0.08485074 0.10107567 0.040766243 -0.079718135 -0.01512442 -0.017486235
-0.04257629 0.022357486 0.023181941 -0.055668518 0.00027114883 0.060511224 0.068498865 0.01025135
-0.0077177375 0.07774312 -0.008092964 -0.0035457977 -0.06097446 0.00515502 -0.0049960944 -0.062432572
00000000: 4f21 863d 6d2f df3c 470e 8d3c 41b7 ffbc
00000010: 2a9d 223d 1bc5 55bd 518f 2fbd 56fc 92bd
00000020: c420 253c 1066 8abd 903b fc3b ec2f e83c
00000030: 9764 593d e267 413d 4869 df3c f6d9 033d
00000040: a795 f5bc 9d03 8abd f59e 39bd 9ec9 6abd
00000050: 54e5 4a3d 4727 8bbd 78a9 d53c 9935 9f3d
00000060: 7117 ce3c e396 303b 7f75 d23b 96bc 0f3d
00000070: 2f8c c9bc cb70 96bd a4fd a0bd 4752 80bd
00000080: bf3f 40bd d3ee 4dbd 7dc7 31bd fbca 64bd
00000090: 7a3e 583d 99a0 babc cfc9 943c fc4f 54bd
000000a0: e3d5 82bd 4f60 03bd 8324 4d3c 6deb 8bbd
000000b0: cc7b 0e3b df64 a0bd 64f4 ac3d f286 1b3d
000000c0: 8878 073d 69f5 5d3d 1ad7 46bd 1314 9cbd
000000d0: 1f0c 833d 1c05 34bc 568e 01bd e312 aabc
000000e0: 01fe babb 21c9 dfbc f5c1 4bbb 2479 44bd
000000f0: da6e ee3c bf71 bb3c f1fd dd3c 4eab 923d
00000100: c1fe d63b 0456 c1bc 3bde 4dbd 0b3c 323c
00000110: da6d 88bd 6c2e c2bd b053 ec3c 9593 64bd
00000120: cdbd 91bb c876 ca3c 0865 2abc 300a 723d
00000130: 1829 213d d2ce fa3c a65c ac3b ac94 30bd
00000140: 0a51 803d d31b 6b3d 4d02 563d 4533 67bc
00000150: 7f7c b73c 07b5 71bd 2483 a53b 3f67 3cbd
00000160: f9b4 8b3c 8eed 313d ba1f e8bb 6f6c a1bd
00000170: 5a09 6cbc 49ab 2fbd 2220 8f3d e0f9 523d
00000180: e279 053c e184 cdbb 3a6e 3abd 994f 993d
00000190: f5c3 8e3a 42b2 21bc 2aae 893c 8979 64bc
000001a0: 628a c83c 3725 883d 34b8 073d 231b a5bd
000001b0: 1ad4 0d3d 299b b13d d8c2 66bd 4cc0 f0bc
000001c0: 0ec3 6cbd ed6d 1b3b 67d4 94bd fec2 bfbc
000001d0: 35fe 29bc 6981 8b3d f53a 53bd f030 34bd
000001e0: ae75 3cbd 75de d4bc c3d4 25bc 3fea ea3c
000001f0: c6c2 9c3d d9af 423d 93f1 eb3c 7136 043d
00000200: 8780 9739 6b6f 8f3d 445c d43d 0164 85bd
00000210: bd88 ab3d af83 973c 8a1c 54bc 0206 abbd
00000220: f48d c6bd a619 9eba 371a 0b3d fdbc a43c
00000230: 33e4 a4bc 1e4d 18bc 73c6 6b3d 0d92 7f3d
00000240: 007d 89bc e69f adbd 6977 b93c 4f6c b2bd
00000250: 3e20 233c d6f6 81bc 5f55 61bd 6e98 843c
00000260: e8fd 453d 2035 b9bc 70cc a9bd 3ca7 033d
00000270: 3fdf 4fbd b089 b6bd 3ff7 9e3d 7fb5 9a3d
00000280: 5caf fc3c 947f 553c cdd4 5e3d 55c6 38bd
00000290: 6c36 333d 12fb 3ebd b2a1 17bd 09ea b1bd
000002a0: 767c 5fbd 583a a3bd 00ca 93bd 731a 92bd
000002b0: 7b84 44bd 414c bbbd 042e a6bb 6859 e2bc
000002c0: 156a 583d cc94 7e3d 55c1 5b3d 76cf f93c
000002d0: 70a4 83bd d3bc 213d 8a8d adbd 81f7 b23d
000002e0: ca8e 8b3c b6ee 073d f81a 5c3d 2595 993c
000002f0: d19a acbd 4988 23bd 085d be3b 4fdc b33d
00000300: 3cbb c23b 316f b83d 65a4 983d ade3 8a3d
00000310: ec8a d5ba 7137 993c c70f 45bd 47dc b83b
00000320: 2c34 43bd 1075 41bd 6026 9b3b 7a85 02bd
00000330: 90f6 40bc 2005 1fbd db53 8d3d 2dd7 7abd
00000340: d517 c2bd 26df a53c 0769 6d3c 2e07 863d
00000350: afad ac3d 0eb9 153d 0356 dfbc b1c9 95bb
00000360: 38ac acbb bb64 febc 3582 8e3c 4830 b5bb
00000370: 84ec 813d 61a7 aa3d 314a b3bd 2c79 773b
00000380: 6c4c c13d 2f80 a2bd b926 85bd b918 2dbd
00000390: 7e7d 923d 3849 8abd eff9 963c e15e 76bd
000003a0: 57b8 a33b 05e3 4bbd 3ac6 ad3d c300 cf3d
000003b0: 81fa 263d 4343 a3bd 6acc 77bc 4b3f 8fbc
000003c0: 7a64 2ebd 0c27 b73c 0ee8 bd3c ac04 64bd
000003d0: fb28 8e39 9eda 773d 2249 8c3d 47f5 273c
000003e0: 13e5 fcbb c937 9f3d 5a98 04bc 9d60 68bb
000003f0: 5bc0 79bd 71eb a83b 47b6 a3bb 4cb9 7fbd

prob.bias f4 [4]
-0.022155754 -0.043456443 -0.03345197 0.017860496
00000000: fc7f b5bc 62ff 31bd ef04 09bd 2d50 923c
